…
Storing to histogram values
Elapsed time in epoch =  0:06:52.399830
----------------------------------
End of training
Saving histograms
----------------------------------
Total samples =  5000  Batch size = 256  Epochs =  50
----------------------------------
---GENERATOR---
____________________________________________________________________________________________________
Layer (type)                     Output Shape          Param #     Connected to                     
====================================================================================================
convolution2d_49 (Convolution2D) (None, 8, 32, 32)     80          convolution2d_input_7[0][0]      
____________________________________________________________________________________________________
convolution2d_50 (Convolution2D) (None, 16, 32, 32)    1168        convolution2d_49[0][0]           
____________________________________________________________________________________________________
convolution2d_51 (Convolution2D) (None, 32, 32, 32)    4640        convolution2d_50[0][0]           
____________________________________________________________________________________________________
batchnormalization_19 (BatchNorma(None, 32, 32, 32)    64          convolution2d_51[0][0]           
____________________________________________________________________________________________________
convolution2d_52 (Convolution2D) (None, 64, 32, 32)    18496       batchnormalization_19[0][0]      
____________________________________________________________________________________________________
batchnormalization_20 (BatchNorma(None, 64, 32, 32)    64          convolution2d_52[0][0]           
____________________________________________________________________________________________________
convolution2d_53 (Convolution2D) (None, 32, 32, 32)    18464       batchnormalization_20[0][0]      
____________________________________________________________________________________________________
batchnormalization_21 (BatchNorma(None, 32, 32, 32)    64          convolution2d_53[0][0]           
____________________________________________________________________________________________________
convolution2d_54 (Convolution2D) (None, 16, 32, 32)    4624        batchnormalization_21[0][0]      
____________________________________________________________________________________________________
convolution2d_55 (Convolution2D) (None, 8, 32, 32)     1160        convolution2d_54[0][0]           
____________________________________________________________________________________________________
convolution2d_56 (Convolution2D) (None, 3, 32, 32)     219         convolution2d_55[0][0]           
____________________________________________________________________________________________________
lambda_7 (Lambda)                (None, 3, 32, 32)     0           convolution2d_56[0][0]           
====================================================================================================
Total params: 49043
____________________________________________________________________________________________________
None
----------------------------------
Training with dataset based on class -  horse with 5000
----------------------------------
Epoch 1 of 50
…
