----------------------------------
('Training with dataset based on class - ', 'truck', 'with', 5000, 'samples')
----------------------------------
____________________________________________________________________________________________________
Layer (type)                     Output Shape          Param #     Connected to                     
====================================================================================================
model_3 (Model)                  (None, 2, 32, 32)     7846626                                      
____________________________________________________________________________________________________
sequential_5 (Sequential)        (None, 1)             0           convolution2d_69[0][0]           
====================================================================================================
Total params: 8366083
____________________________________________________________________________________________________
____________________________________________________________________________________________________
Layer (type)                     Output Shape          Param #     Connected to                     
====================================================================================================
convolution2d_47 (Convolution2D) (None, 32, 16, 16)    608         convolution2d_input_3[0][0]      
____________________________________________________________________________________________________
leakyrelu_11 (LeakyReLU)         (None, 32, 16, 16)    0           convolution2d_47[0][0]           
____________________________________________________________________________________________________
dropout_11 (Dropout)             (None, 32, 16, 16)    0           leakyrelu_11[0][0]               
____________________________________________________________________________________________________
convolution2d_48 (Convolution2D) (None, 64, 8, 8)      18496       dropout_11[0][0]                 
____________________________________________________________________________________________________
leakyrelu_12 (LeakyReLU)         (None, 64, 8, 8)      0           convolution2d_48[0][0]           
____________________________________________________________________________________________________
dropout_12 (Dropout)             (None, 64, 8, 8)      0           leakyrelu_12[0][0]               
____________________________________________________________________________________________________
convolution2d_49 (Convolution2D) (None, 128, 4, 4)     73856       dropout_12[0][0]                 
____________________________________________________________________________________________________
leakyrelu_13 (LeakyReLU)         (None, 128, 4, 4)     0           convolution2d_49[0][0]           
____________________________________________________________________________________________________
dropout_13 (Dropout)             (None, 128, 4, 4)     0           leakyrelu_13[0][0]               
____________________________________________________________________________________________________
convolution2d_50 (Convolution2D) (None, 256, 2, 2)     295168      dropout_13[0][0]                 
____________________________________________________________________________________________________
leakyrelu_14 (LeakyReLU)         (None, 256, 2, 2)     0           convolution2d_50[0][0]           
____________________________________________________________________________________________________
dropout_14 (Dropout)             (None, 256, 2, 2)     0           leakyrelu_14[0][0]               
____________________________________________________________________________________________________
flatten_3 (Flatten)              (None, 1024)          0           dropout_14[0][0]                 
____________________________________________________________________________________________________
dense_5 (Dense)                  (None, 128)           131200      flatten_3[0][0]                  
____________________________________________________________________________________________________
leakyrelu_15 (LeakyReLU)         (None, 128)           0           dense_5[0][0]                    
____________________________________________________________________________________________________
dropout_15 (Dropout)             (None, 128)           0           leakyrelu_15[0][0]               
____________________________________________________________________________________________________
dense_6 (Dense)                  (None, 1)             129         dropout_15[0][0]                 
====================================================================================================
Total params: 519457
____________________________________________________________________________________________________
('Epoch', 1, 'of', 50)
('Number of batches', 19)
('GAN loss 0.6610 ', 'GAN acc 0.6914', 'Discriminator loss 0.5780', 'Discriminator accuracy 0.5723', 'Total loss: 1.2390', 'for batch', 0)
…
