…
Storing to histogram values
Elapsed time in epoch =  0:04:07.574955
----------------------------------
End of training
Saving histograms
----------------------------------
Total samples =  5000  Batch size = 256  Epochs =  50
----------------------------------
---GENERATOR---
____________________________________________________________________________________________________
Layer (type)                     Output Shape          Param #     Connected to                     
====================================================================================================
convolution2d_65 (Convolution2D) (None, 8, 32, 32)     80          convolution2d_input_9[0][0]      
____________________________________________________________________________________________________
convolution2d_66 (Convolution2D) (None, 16, 32, 32)    1168        convolution2d_65[0][0]           
____________________________________________________________________________________________________
convolution2d_67 (Convolution2D) (None, 32, 32, 32)    4640        convolution2d_66[0][0]           
____________________________________________________________________________________________________
batchnormalization_25 (BatchNorma(None, 32, 32, 32)    64          convolution2d_67[0][0]           
____________________________________________________________________________________________________
convolution2d_68 (Convolution2D) (None, 64, 32, 32)    18496       batchnormalization_25[0][0]      
____________________________________________________________________________________________________
batchnormalization_26 (BatchNorma(None, 64, 32, 32)    64          convolution2d_68[0][0]           
____________________________________________________________________________________________________
convolution2d_69 (Convolution2D) (None, 32, 32, 32)    18464       batchnormalization_26[0][0]      
____________________________________________________________________________________________________
batchnormalization_27 (BatchNorma(None, 32, 32, 32)    64          convolution2d_69[0][0]           
____________________________________________________________________________________________________
convolution2d_70 (Convolution2D) (None, 16, 32, 32)    4624        batchnormalization_27[0][0]      
____________________________________________________________________________________________________
convolution2d_71 (Convolution2D) (None, 8, 32, 32)     1160        convolution2d_70[0][0]           
____________________________________________________________________________________________________
convolution2d_72 (Convolution2D) (None, 3, 32, 32)     219         convolution2d_71[0][0]           
____________________________________________________________________________________________________
lambda_9 (Lambda)                (None, 3, 32, 32)     0           convolution2d_72[0][0]           
====================================================================================================
Total params: 49043
____________________________________________________________________________________________________
None
----------------------------------
Training with dataset based on class -  truck with 5000
----------------------------------
Epoch 1 of 50
…
