…
----------------------------------
End of training
Saving histograms
----------------------------------
Total samples =  5000  Batch size = 256  Epochs =  50
Generator loss 1.0302  Discriminator loss 0.9106 Total: 1.9408
----------------------------------
---DISCRIMINATOR---
____________________________________________________________________________________________________
Layer (type)                     Output Shape          Param #     Connected to                     
====================================================================================================
convolution2d_1 (Convolution2D)  (None, 8, 32, 32)     224         convolution2d_input_1[0][0]      
____________________________________________________________________________________________________
leakyrelu_1 (LeakyReLU)          (None, 8, 32, 32)     0           convolution2d_1[0][0]            
____________________________________________________________________________________________________
maxpooling2d_1 (MaxPooling2D)    (None, 8, 16, 16)     0           leakyrelu_1[0][0]                
____________________________________________________________________________________________________
convolution2d_2 (Convolution2D)  (None, 16, 16, 16)    1168        maxpooling2d_1[0][0]             
____________________________________________________________________________________________________
leakyrelu_2 (LeakyReLU)          (None, 16, 16, 16)    0           convolution2d_2[0][0]            
____________________________________________________________________________________________________
maxpooling2d_2 (MaxPooling2D)    (None, 16, 8, 8)      0           leakyrelu_2[0][0]                
____________________________________________________________________________________________________
convolution2d_3 (Convolution2D)  (None, 32, 8, 8)      4640        maxpooling2d_2[0][0]             
____________________________________________________________________________________________________
leakyrelu_3 (LeakyReLU)          (None, 32, 8, 8)      0           convolution2d_3[0][0]            
____________________________________________________________________________________________________
maxpooling2d_3 (MaxPooling2D)    (None, 32, 4, 4)      0           leakyrelu_3[0][0]                
____________________________________________________________________________________________________
convolution2d_4 (Convolution2D)  (None, 64, 4, 4)      18496       maxpooling2d_3[0][0]             
____________________________________________________________________________________________________
leakyrelu_4 (LeakyReLU)          (None, 64, 4, 4)      0           convolution2d_4[0][0]            
____________________________________________________________________________________________________
maxpooling2d_4 (MaxPooling2D)    (None, 64, 2, 2)      0           leakyrelu_4[0][0]                
____________________________________________________________________________________________________
flatten_1 (Flatten)              (None, 256)           0           maxpooling2d_4[0][0]             
____________________________________________________________________________________________________
dense_1 (Dense)                  (None, 512)           131584      flatten_1[0][0]                  
____________________________________________________________________________________________________
leakyrelu_5 (LeakyReLU)          (None, 512)           0           dense_1[0][0]                    
____________________________________________________________________________________________________
dropout_1 (Dropout)              (None, 512)           0           leakyrelu_5[0][0]                
____________________________________________________________________________________________________
dense_2 (Dense)                  (None, 256)           131328      dropout_1[0][0]                  
____________________________________________________________________________________________________
leakyrelu_6 (LeakyReLU)          (None, 256)           0           dense_2[0][0]                    
____________________________________________________________________________________________________
dropout_2 (Dropout)              (None, 256)           0           leakyrelu_6[0][0]                
____________________________________________________________________________________________________
dense_3 (Dense)                  (None, 1)             257         dropout_2[0][0]                  
====================================================================================================
Total params: 287697
____________________________________________________________________________________________________
None
----------------------------------
---GENERATOR---
____________________________________________________________________________________________________
Layer (type)                     Output Shape          Param #     Connected to                     
====================================================================================================
convolution2d_5 (Convolution2D)  (None, 8, 32, 32)     80          convolution2d_input_2[0][0]      
____________________________________________________________________________________________________
convolution2d_6 (Convolution2D)  (None, 16, 32, 32)    1168        convolution2d_5[0][0]            
____________________________________________________________________________________________________
convolution2d_7 (Convolution2D)  (None, 32, 32, 32)    4640        convolution2d_6[0][0]            
____________________________________________________________________________________________________
batchnormalization_1 (BatchNormal(None, 32, 32, 32)    64          convolution2d_7[0][0]            
____________________________________________________________________________________________________
convolution2d_8 (Convolution2D)  (None, 64, 32, 32)    18496       batchnormalization_1[0][0]       
____________________________________________________________________________________________________
batchnormalization_2 (BatchNormal(None, 64, 32, 32)    64          convolution2d_8[0][0]            
____________________________________________________________________________________________________
convolution2d_9 (Convolution2D)  (None, 32, 32, 32)    18464       batchnormalization_2[0][0]       
____________________________________________________________________________________________________
batchnormalization_3 (BatchNormal(None, 32, 32, 32)    64          convolution2d_9[0][0]            
____________________________________________________________________________________________________
convolution2d_10 (Convolution2D) (None, 16, 32, 32)    4624        batchnormalization_3[0][0]       
____________________________________________________________________________________________________
convolution2d_11 (Convolution2D) (None, 8, 32, 32)     1160        convolution2d_10[0][0]           
____________________________________________________________________________________________________
convolution2d_12 (Convolution2D) (None, 3, 32, 32)     219         convolution2d_11[0][0]           
____________________________________________________________________________________________________
lambda_1 (Lambda)                (None, 3, 32, 32)     0           convolution2d_12[0][0]           
====================================================================================================
Total params: 49043
____________________________________________________________________________________________________
None
----------------------------------
---GAN---
____________________________________________________________________________________________________
Layer (type)                     Output Shape          Param #     Connected to                     
====================================================================================================
sequential_2 (Sequential)        (None, 3, 32, 32)     49043                                        
____________________________________________________________________________________________________
sequential_1 (Sequential)        (None, 1)             287697      lambda_1[0][0]                   
====================================================================================================
Total params: 336740
____________________________________________________________________________________________________
None
----------------------------------
Training with dataset based on class -  ship with 5000 samples
----------------------------------
…
----------------------------------
End of training
Saving histograms
----------------------------------
Total samples =  5000  Batch size = 256  Epochs =  50
Generator loss 5.7620  Discriminator loss 0.5224 Total: 6.2844
----------------------------------
---DISCRIMINATOR---
____________________________________________________________________________________________________
Layer (type)                     Output Shape          Param #     Connected to                     
====================================================================================================
convolution2d_25 (Convolution2D) (None, 8, 32, 32)     224         convolution2d_input_5[0][0]      
____________________________________________________________________________________________________
leakyrelu_13 (LeakyReLU)         (None, 8, 32, 32)     0           convolution2d_25[0][0]           
____________________________________________________________________________________________________
maxpooling2d_9 (MaxPooling2D)    (None, 8, 16, 16)     0           leakyrelu_13[0][0]               
____________________________________________________________________________________________________
convolution2d_26 (Convolution2D) (None, 16, 16, 16)    1168        maxpooling2d_9[0][0]             
____________________________________________________________________________________________________
leakyrelu_14 (LeakyReLU)         (None, 16, 16, 16)    0           convolution2d_26[0][0]           
____________________________________________________________________________________________________
maxpooling2d_10 (MaxPooling2D)   (None, 16, 8, 8)      0           leakyrelu_14[0][0]               
____________________________________________________________________________________________________
convolution2d_27 (Convolution2D) (None, 32, 8, 8)      4640        maxpooling2d_10[0][0]            
____________________________________________________________________________________________________
leakyrelu_15 (LeakyReLU)         (None, 32, 8, 8)      0           convolution2d_27[0][0]           
____________________________________________________________________________________________________
maxpooling2d_11 (MaxPooling2D)   (None, 32, 4, 4)      0           leakyrelu_15[0][0]               
____________________________________________________________________________________________________
convolution2d_28 (Convolution2D) (None, 64, 4, 4)      18496       maxpooling2d_11[0][0]            
____________________________________________________________________________________________________
leakyrelu_16 (LeakyReLU)         (None, 64, 4, 4)      0           convolution2d_28[0][0]           
____________________________________________________________________________________________________
maxpooling2d_12 (MaxPooling2D)   (None, 64, 2, 2)      0           leakyrelu_16[0][0]               
____________________________________________________________________________________________________
flatten_3 (Flatten)              (None, 256)           0           maxpooling2d_12[0][0]            
____________________________________________________________________________________________________
dense_7 (Dense)                  (None, 512)           131584      flatten_3[0][0]                  
____________________________________________________________________________________________________
leakyrelu_17 (LeakyReLU)         (None, 512)           0           dense_7[0][0]                    
____________________________________________________________________________________________________
dropout_5 (Dropout)              (None, 512)           0           leakyrelu_17[0][0]               
____________________________________________________________________________________________________
dense_8 (Dense)                  (None, 256)           131328      dropout_5[0][0]                  
____________________________________________________________________________________________________
leakyrelu_18 (LeakyReLU)         (None, 256)           0           dense_8[0][0]                    
____________________________________________________________________________________________________
dropout_6 (Dropout)              (None, 256)           0           leakyrelu_18[0][0]               
____________________________________________________________________________________________________
dense_9 (Dense)                  (None, 1)             257         dropout_6[0][0]                  
====================================================================================================
Total params: 287697
____________________________________________________________________________________________________
None
----------------------------------
---GENERATOR---
____________________________________________________________________________________________________
Layer (type)                     Output Shape          Param #     Connected to                     
====================================================================================================
convolution2d_29 (Convolution2D) (None, 8, 32, 32)     80          convolution2d_input_6[0][0]      
____________________________________________________________________________________________________
convolution2d_30 (Convolution2D) (None, 16, 32, 32)    1168        convolution2d_29[0][0]           
____________________________________________________________________________________________________
convolution2d_31 (Convolution2D) (None, 32, 32, 32)    4640        convolution2d_30[0][0]           
____________________________________________________________________________________________________
batchnormalization_7 (BatchNormal(None, 32, 32, 32)    64          convolution2d_31[0][0]           
____________________________________________________________________________________________________
convolution2d_32 (Convolution2D) (None, 64, 32, 32)    18496       batchnormalization_7[0][0]       
____________________________________________________________________________________________________
batchnormalization_8 (BatchNormal(None, 64, 32, 32)    64          convolution2d_32[0][0]           
____________________________________________________________________________________________________
convolution2d_33 (Convolution2D) (None, 32, 32, 32)    18464       batchnormalization_8[0][0]       
____________________________________________________________________________________________________
batchnormalization_9 (BatchNormal(None, 32, 32, 32)    64          convolution2d_33[0][0]           
____________________________________________________________________________________________________
convolution2d_34 (Convolution2D) (None, 16, 32, 32)    4624        batchnormalization_9[0][0]       
____________________________________________________________________________________________________
convolution2d_35 (Convolution2D) (None, 8, 32, 32)     1160        convolution2d_34[0][0]           
____________________________________________________________________________________________________
convolution2d_36 (Convolution2D) (None, 3, 32, 32)     219         convolution2d_35[0][0]           
____________________________________________________________________________________________________
lambda_3 (Lambda)                (None, 3, 32, 32)     0           convolution2d_36[0][0]           
====================================================================================================
Total params: 49043
____________________________________________________________________________________________________
None
----------------------------------
---GAN---
____________________________________________________________________________________________________
Layer (type)                     Output Shape          Param #     Connected to                     
====================================================================================================
sequential_8 (Sequential)        (None, 3, 32, 32)     49043                                        
____________________________________________________________________________________________________
sequential_7 (Sequential)        (None, 1)             0           lambda_3[0][0]                   
====================================================================================================
Total params: 49043
____________________________________________________________________________________________________
None
