----------------------------------
('Training with dataset based on class - ', 'deer', 'with', 5000, 'samples')
----------------------------------
____________________________________________________________________________________________________
Layer (type)                     Output Shape          Param #     Connected to                     
====================================================================================================
sequential_14 (Sequential)       (None, 2, 32, 32)     1367650                                      
____________________________________________________________________________________________________
sequential_13 (Sequential)       (None, 1)             0           lambda_5[0][0]                   
====================================================================================================
Total params: 1596531
____________________________________________________________________________________________________
____________________________________________________________________________________________________
Layer (type)                     Output Shape          Param #     Connected to                     
====================================================================================================
convolution2d_53 (Convolution2D) (None, 16, 16, 16)    304         convolution2d_input_9[0][0]      
____________________________________________________________________________________________________
leakyrelu_53 (LeakyReLU)         (None, 16, 16, 16)    0           convolution2d_53[0][0]           
____________________________________________________________________________________________________
dropout_21 (Dropout)             (None, 16, 16, 16)    0           leakyrelu_53[0][0]               
____________________________________________________________________________________________________
convolution2d_54 (Convolution2D) (None, 32, 8, 8)      4640        dropout_21[0][0]                 
____________________________________________________________________________________________________
leakyrelu_54 (LeakyReLU)         (None, 32, 8, 8)      0           convolution2d_54[0][0]           
____________________________________________________________________________________________________
dropout_22 (Dropout)             (None, 32, 8, 8)      0           leakyrelu_54[0][0]               
____________________________________________________________________________________________________
convolution2d_55 (Convolution2D) (None, 64, 4, 4)      18496       dropout_22[0][0]                 
____________________________________________________________________________________________________
leakyrelu_55 (LeakyReLU)         (None, 64, 4, 4)      0           convolution2d_55[0][0]           
____________________________________________________________________________________________________
dropout_23 (Dropout)             (None, 64, 4, 4)      0           leakyrelu_55[0][0]               
____________________________________________________________________________________________________
convolution2d_56 (Convolution2D) (None, 128, 2, 2)     73856       dropout_23[0][0]                 
____________________________________________________________________________________________________
leakyrelu_56 (LeakyReLU)         (None, 128, 2, 2)     0           convolution2d_56[0][0]           
____________________________________________________________________________________________________
dropout_24 (Dropout)             (None, 128, 2, 2)     0           leakyrelu_56[0][0]               
____________________________________________________________________________________________________
flatten_5 (Flatten)              (None, 512)           0           dropout_24[0][0]                 
____________________________________________________________________________________________________
dense_9 (Dense)                  (None, 256)           131328      flatten_5[0][0]                  
____________________________________________________________________________________________________
leakyrelu_57 (LeakyReLU)         (None, 256)           0           dense_9[0][0]                    
____________________________________________________________________________________________________
dropout_25 (Dropout)             (None, 256)           0           leakyrelu_57[0][0]               
____________________________________________________________________________________________________
dense_10 (Dense)                 (None, 1)             257         dropout_25[0][0]                 
====================================================================================================
Total params: 228881
____________________________________________________________________________________________________
('Epoch', 1, 'of', 50)
('Number of batches', 19)
('GAN loss 0.9929 ', 'GAN acc 0.3008', 'Discriminator loss 0.7117', 'Discriminator accuracy 0.5469', 'Total loss: 1.7045', 'for batch', 0)
…
