----------------------------------
('Training with dataset based on class - ', 'deer', 'with', 5000, 'samples')
----------------------------------
____________________________________________________________________________________________________
Layer (type)                     Output Shape          Param #     Connected to                     
====================================================================================================
sequential_14 (Sequential)       (None, 2, 32, 32)     1367650                                      
____________________________________________________________________________________________________
sequential_13 (Sequential)       (None, 1)             0           lambda_5[0][0]                   
====================================================================================================
Total params: 2806403
____________________________________________________________________________________________________
____________________________________________________________________________________________________
Layer (type)                     Output Shape          Param #     Connected to                     
====================================================================================================
convolution2d_53 (Convolution2D) (None, 32, 16, 16)    608         convolution2d_input_9[0][0]      
____________________________________________________________________________________________________
leakyrelu_53 (LeakyReLU)         (None, 32, 16, 16)    0           convolution2d_53[0][0]           
____________________________________________________________________________________________________
dropout_21 (Dropout)             (None, 32, 16, 16)    0           leakyrelu_53[0][0]               
____________________________________________________________________________________________________
convolution2d_54 (Convolution2D) (None, 64, 8, 8)      18496       dropout_21[0][0]                 
____________________________________________________________________________________________________
leakyrelu_54 (LeakyReLU)         (None, 64, 8, 8)      0           convolution2d_54[0][0]           
____________________________________________________________________________________________________
dropout_22 (Dropout)             (None, 64, 8, 8)      0           leakyrelu_54[0][0]               
____________________________________________________________________________________________________
convolution2d_55 (Convolution2D) (None, 128, 4, 4)     73856       dropout_22[0][0]                 
____________________________________________________________________________________________________
leakyrelu_55 (LeakyReLU)         (None, 128, 4, 4)     0           convolution2d_55[0][0]           
____________________________________________________________________________________________________
dropout_23 (Dropout)             (None, 128, 4, 4)     0           leakyrelu_55[0][0]               
____________________________________________________________________________________________________
convolution2d_56 (Convolution2D) (None, 256, 2, 2)     295168      dropout_23[0][0]                 
____________________________________________________________________________________________________
leakyrelu_56 (LeakyReLU)         (None, 256, 2, 2)     0           convolution2d_56[0][0]           
____________________________________________________________________________________________________
dropout_24 (Dropout)             (None, 256, 2, 2)     0           leakyrelu_56[0][0]               
____________________________________________________________________________________________________
flatten_5 (Flatten)              (None, 1024)          0           dropout_24[0][0]                 
____________________________________________________________________________________________________
dense_9 (Dense)                  (None, 1024)          1049600     flatten_5[0][0]                  
____________________________________________________________________________________________________
leakyrelu_57 (LeakyReLU)         (None, 1024)          0           dense_9[0][0]                    
____________________________________________________________________________________________________
dropout_25 (Dropout)             (None, 1024)          0           leakyrelu_57[0][0]               
____________________________________________________________________________________________________
dense_10 (Dense)                 (None, 1)             1025        dropout_25[0][0]                 
====================================================================================================
Total params: 1438753
____________________________________________________________________________________________________
('Epoch', 1, 'of', 50)
('Number of batches', 19)
('Generator loss 0.2205', 'Generator acc 0.0323', 'for batch', 0)
('Generator loss 0.2105', 'Generator acc 0.0532', 'for batch', 1)
…
('Elapsed time in epoch = ', '0:00:27.077930')
----------------------------------
End of training
Saving histograms
----------------------------------
('Total samples = ', 5000, ' Batch size =', 256, ' Epochs = ', 50)
----------------------------------
---GENERATOR---
____________________________________________________________________________________________________
Layer (type)                     Output Shape          Param #     Connected to                     
====================================================================================================
convolution2d_57 (Convolution2D) (None, 32, 32, 32)    320         convolution2d_input_10[0][0]     
____________________________________________________________________________________________________
leakyrelu_58 (LeakyReLU)         (None, 32, 32, 32)    0           convolution2d_57[0][0]           
____________________________________________________________________________________________________
convolution2d_58 (Convolution2D) (None, 64, 32, 32)    18496       leakyrelu_58[0][0]               
____________________________________________________________________________________________________
batchnormalization_29 (BatchNorma(None, 64, 32, 32)    128         convolution2d_58[0][0]           
____________________________________________________________________________________________________
leakyrelu_59 (LeakyReLU)         (None, 64, 32, 32)    0           batchnormalization_29[0][0]      
____________________________________________________________________________________________________
convolution2d_59 (Convolution2D) (None, 128, 32, 32)   73856       leakyrelu_59[0][0]               
____________________________________________________________________________________________________
batchnormalization_30 (BatchNorma(None, 128, 32, 32)   256         convolution2d_59[0][0]           
____________________________________________________________________________________________________
leakyrelu_60 (LeakyReLU)         (None, 128, 32, 32)   0           batchnormalization_30[0][0]      
____________________________________________________________________________________________________
convolution2d_60 (Convolution2D) (None, 256, 32, 32)   295168      leakyrelu_60[0][0]               
____________________________________________________________________________________________________
batchnormalization_31 (BatchNorma(None, 256, 32, 32)   512         convolution2d_60[0][0]           
____________________________________________________________________________________________________
leakyrelu_61 (LeakyReLU)         (None, 256, 32, 32)   0           batchnormalization_31[0][0]      
____________________________________________________________________________________________________
convolution2d_61 (Convolution2D) (None, 256, 32, 32)   590080      leakyrelu_61[0][0]               
____________________________________________________________________________________________________
batchnormalization_32 (BatchNorma(None, 256, 32, 32)   512         convolution2d_61[0][0]           
____________________________________________________________________________________________________
leakyrelu_62 (LeakyReLU)         (None, 256, 32, 32)   0           batchnormalization_32[0][0]      
____________________________________________________________________________________________________
convolution2d_62 (Convolution2D) (None, 128, 32, 32)   295040      leakyrelu_62[0][0]               
____________________________________________________________________________________________________
batchnormalization_33 (BatchNorma(None, 128, 32, 32)   256         convolution2d_62[0][0]           
____________________________________________________________________________________________________
leakyrelu_63 (LeakyReLU)         (None, 128, 32, 32)   0           batchnormalization_33[0][0]      
____________________________________________________________________________________________________
convolution2d_63 (Convolution2D) (None, 64, 32, 32)    73792       leakyrelu_63[0][0]               
____________________________________________________________________________________________________
batchnormalization_34 (BatchNorma(None, 64, 32, 32)    128         convolution2d_63[0][0]           
____________________________________________________________________________________________________
leakyrelu_64 (LeakyReLU)         (None, 64, 32, 32)    0           batchnormalization_34[0][0]      
____________________________________________________________________________________________________
convolution2d_64 (Convolution2D) (None, 32, 32, 32)    18464       leakyrelu_64[0][0]               
____________________________________________________________________________________________________
batchnormalization_35 (BatchNorma(None, 32, 32, 32)    64          convolution2d_64[0][0]           
____________________________________________________________________________________________________
leakyrelu_65 (LeakyReLU)         (None, 32, 32, 32)    0           batchnormalization_35[0][0]      
____________________________________________________________________________________________________
convolution2d_65 (Convolution2D) (None, 2, 32, 32)     578         leakyrelu_65[0][0]               
____________________________________________________________________________________________________
lambda_5 (Lambda)                (None, 2, 32, 32)     0           convolution2d_65[0][0]           
====================================================================================================
Total params: 1367650
____________________________________________________________________________________________________
None
----------------------------------
('Training with dataset based on class - ', 'dog', 'with', 5000, 'samples')
----------------------------------
____________________________________________________________________________________________________
Layer (type)                     Output Shape          Param #     Connected to                     
====================================================================================================
sequential_17 (Sequential)       (None, 2, 32, 32)     1367650                                      
____________________________________________________________________________________________________
sequential_16 (Sequential)       (None, 1)             0           lambda_6[0][0]                   
====================================================================================================
Total params: 2806403
____________________________________________________________________________________________________
____________________________________________________________________________________________________
Layer (type)                     Output Shape          Param #     Connected to                     
====================================================================================================
convolution2d_66 (Convolution2D) (None, 32, 16, 16)    608         convolution2d_input_11[0][0]     
____________________________________________________________________________________________________
leakyrelu_66 (LeakyReLU)         (None, 32, 16, 16)    0           convolution2d_66[0][0]           
____________________________________________________________________________________________________
dropout_26 (Dropout)             (None, 32, 16, 16)    0           leakyrelu_66[0][0]               
____________________________________________________________________________________________________
convolution2d_67 (Convolution2D) (None, 64, 8, 8)      18496       dropout_26[0][0]                 
____________________________________________________________________________________________________
leakyrelu_67 (LeakyReLU)         (None, 64, 8, 8)      0           convolution2d_67[0][0]           
____________________________________________________________________________________________________
dropout_27 (Dropout)             (None, 64, 8, 8)      0           leakyrelu_67[0][0]               
____________________________________________________________________________________________________
convolution2d_68 (Convolution2D) (None, 128, 4, 4)     73856       dropout_27[0][0]                 
____________________________________________________________________________________________________
leakyrelu_68 (LeakyReLU)         (None, 128, 4, 4)     0           convolution2d_68[0][0]           
____________________________________________________________________________________________________
dropout_28 (Dropout)             (None, 128, 4, 4)     0           leakyrelu_68[0][0]               
____________________________________________________________________________________________________
convolution2d_69 (Convolution2D) (None, 256, 2, 2)     295168      dropout_28[0][0]                 
____________________________________________________________________________________________________
leakyrelu_69 (LeakyReLU)         (None, 256, 2, 2)     0           convolution2d_69[0][0]           
____________________________________________________________________________________________________
dropout_29 (Dropout)             (None, 256, 2, 2)     0           leakyrelu_69[0][0]               
____________________________________________________________________________________________________
flatten_6 (Flatten)              (None, 1024)          0           dropout_29[0][0]                 
____________________________________________________________________________________________________
dense_11 (Dense)                 (None, 1024)          1049600     flatten_6[0][0]                  
____________________________________________________________________________________________________
leakyrelu_70 (LeakyReLU)         (None, 1024)          0           dense_11[0][0]                   
____________________________________________________________________________________________________
dropout_30 (Dropout)             (None, 1024)          0           leakyrelu_70[0][0]               
____________________________________________________________________________________________________
dense_12 (Dense)                 (None, 1)             1025        dropout_30[0][0]                 
====================================================================================================
Total params: 1438753
____________________________________________________________________________________________________
('Epoch', 1, 'of', 50)
('Number of batches', 19)
('Generator loss 0.1631', 'Generator acc 0.0328', 'for batch', 0)
('Generator loss 0.1861', 'Generator acc 0.0460', 'for batch', 1)
…
