----------------------------------
('Training with dataset based on class - ', 'all', 'with', 32768, 'samples')
----------------------------------
____________________________________________________________________________________________________
Layer (type)                     Output Shape          Param #     Connected to                     
====================================================================================================
model_1 (Model)                  (None, 2, 32, 32)     7846626                                      
____________________________________________________________________________________________________
sequential_1 (Sequential)        (None, 1)             0           convolution2d_23[0][0]           
====================================================================================================
Total params: 8760067
____________________________________________________________________________________________________
____________________________________________________________________________________________________
Layer (type)                     Output Shape          Param #     Connected to                     
====================================================================================================
convolution2d_1 (Convolution2D)  (None, 32, 16, 16)    608         convolution2d_input_1[0][0]      
____________________________________________________________________________________________________
leakyrelu_1 (LeakyReLU)          (None, 32, 16, 16)    0           convolution2d_1[0][0]            
____________________________________________________________________________________________________
dropout_1 (Dropout)              (None, 32, 16, 16)    0           leakyrelu_1[0][0]                
____________________________________________________________________________________________________
convolution2d_2 (Convolution2D)  (None, 64, 8, 8)      18496       dropout_1[0][0]                  
____________________________________________________________________________________________________
leakyrelu_2 (LeakyReLU)          (None, 64, 8, 8)      0           convolution2d_2[0][0]            
____________________________________________________________________________________________________
dropout_2 (Dropout)              (None, 64, 8, 8)      0           leakyrelu_2[0][0]                
____________________________________________________________________________________________________
convolution2d_3 (Convolution2D)  (None, 128, 4, 4)     73856       dropout_2[0][0]                  
____________________________________________________________________________________________________
leakyrelu_3 (LeakyReLU)          (None, 128, 4, 4)     0           convolution2d_3[0][0]            
____________________________________________________________________________________________________
dropout_3 (Dropout)              (None, 128, 4, 4)     0           leakyrelu_3[0][0]                
____________________________________________________________________________________________________
convolution2d_4 (Convolution2D)  (None, 256, 2, 2)     295168      dropout_3[0][0]                  
____________________________________________________________________________________________________
leakyrelu_4 (LeakyReLU)          (None, 256, 2, 2)     0           convolution2d_4[0][0]            
____________________________________________________________________________________________________
dropout_4 (Dropout)              (None, 256, 2, 2)     0           leakyrelu_4[0][0]                
____________________________________________________________________________________________________
flatten_1 (Flatten)              (None, 1024)          0           dropout_4[0][0]                  
____________________________________________________________________________________________________
dense_1 (Dense)                  (None, 512)           524800      flatten_1[0][0]                  
____________________________________________________________________________________________________
leakyrelu_5 (LeakyReLU)          (None, 512)           0           dense_1[0][0]                    
____________________________________________________________________________________________________
dropout_5 (Dropout)              (None, 512)           0           leakyrelu_5[0][0]                
____________________________________________________________________________________________________
dense_2 (Dense)                  (None, 1)             513         dropout_5[0][0]                  
====================================================================================================
Total params: 913441
____________________________________________________________________________________________________
('Epoch', 1, 'of', 50)
('Number of batches', 128)
('GAN loss 0.6823 ', 'GAN acc 0.6445', 'Discriminator loss 0.6961', 'Discriminator accuracy 0.5586', 'Total loss: 1.3784', 'for batch', 0)
…
('GAN loss 0.6848 ', 'GAN acc 0.5273', 'Discriminator loss 0.7664', 'Discriminator accuracy 0.3613', 'Total loss: 1.4511', 'for batch', 93)
----------------------------------
('Training with dataset based on class - ', 'all', 'with', 32768, 'samples')
----------------------------------
____________________________________________________________________________________________________
Layer (type)                     Output Shape          Param #     Connected to                     
====================================================================================================
model_1 (Model)                  (None, 2, 32, 32)     7846626                                      
____________________________________________________________________________________________________
sequential_1 (Sequential)        (None, 1)             0           convolution2d_23[0][0]           
====================================================================================================
Total params: 8760067
____________________________________________________________________________________________________
____________________________________________________________________________________________________
Layer (type)                     Output Shape          Param #     Connected to                     
====================================================================================================
convolution2d_1 (Convolution2D)  (None, 32, 16, 16)    608         convolution2d_input_1[0][0]      
____________________________________________________________________________________________________
leakyrelu_1 (LeakyReLU)          (None, 32, 16, 16)    0           convolution2d_1[0][0]            
____________________________________________________________________________________________________
convolution2d_2 (Convolution2D)  (None, 64, 8, 8)      18496       leakyrelu_1[0][0]                
____________________________________________________________________________________________________
leakyrelu_2 (LeakyReLU)          (None, 64, 8, 8)      0           convolution2d_2[0][0]            
____________________________________________________________________________________________________
convolution2d_3 (Convolution2D)  (None, 128, 4, 4)     73856       leakyrelu_2[0][0]                
____________________________________________________________________________________________________
leakyrelu_3 (LeakyReLU)          (None, 128, 4, 4)     0           convolution2d_3[0][0]            
____________________________________________________________________________________________________
dropout_1 (Dropout)              (None, 128, 4, 4)     0           leakyrelu_3[0][0]                
____________________________________________________________________________________________________
convolution2d_4 (Convolution2D)  (None, 256, 2, 2)     295168      dropout_1[0][0]                  
____________________________________________________________________________________________________
leakyrelu_4 (LeakyReLU)          (None, 256, 2, 2)     0           convolution2d_4[0][0]            
____________________________________________________________________________________________________
dropout_2 (Dropout)              (None, 256, 2, 2)     0           leakyrelu_4[0][0]                
____________________________________________________________________________________________________
flatten_1 (Flatten)              (None, 1024)          0           dropout_2[0][0]                  
____________________________________________________________________________________________________
dense_1 (Dense)                  (None, 512)           524800      flatten_1[0][0]                  
____________________________________________________________________________________________________
leakyrelu_5 (LeakyReLU)          (None, 512)           0           dense_1[0][0]                    
____________________________________________________________________________________________________
dropout_3 (Dropout)              (None, 512)           0           leakyrelu_5[0][0]                
____________________________________________________________________________________________________
dense_2 (Dense)                  (None, 1)             513         dropout_3[0][0]                  
====================================================================================================
Total params: 913441
____________________________________________________________________________________________________
('Epoch', 1, 'of', 50)
('Number of batches', 128)
('GAN loss 0.6855 ', 'GAN acc 0.7891', 'Discriminator loss 0.7260', 'Discriminator accuracy 0.4102', 'Total loss: 1.4115', 'for batch', 0)
…
('GAN loss 0.6355 ', 'GAN acc 0.7930', 'Discriminator loss 0.7251', 'Discriminator accuracy 0.4121', 'Total loss: 1.3606', 'for batch', 73)
----------------------------------
('Training with dataset based on class - ', 'all', 'with', 32768, 'samples')
----------------------------------
____________________________________________________________________________________________________
Layer (type)                     Output Shape          Param #     Connected to                     
====================================================================================================
input_1 (InputLayer)             (None, 1, 32, 32)     0                                            
____________________________________________________________________________________________________
convolution2d_5 (Convolution2D)  (None, 32, 32, 32)    320         input_1[0][0]                    
____________________________________________________________________________________________________
convolution2d_6 (Convolution2D)  (None, 32, 32, 32)    9248        convolution2d_5[0][0]            
____________________________________________________________________________________________________
maxpooling2d_1 (MaxPooling2D)    (None, 32, 16, 16)    0           convolution2d_6[0][0]            
____________________________________________________________________________________________________
convolution2d_7 (Convolution2D)  (None, 64, 16, 16)    18496       maxpooling2d_1[0][0]             
____________________________________________________________________________________________________
convolution2d_8 (Convolution2D)  (None, 64, 16, 16)    36928       convolution2d_7[0][0]            
____________________________________________________________________________________________________
maxpooling2d_2 (MaxPooling2D)    (None, 64, 8, 8)      0           convolution2d_8[0][0]            
____________________________________________________________________________________________________
convolution2d_9 (Convolution2D)  (None, 128, 8, 8)     73856       maxpooling2d_2[0][0]             
____________________________________________________________________________________________________
convolution2d_10 (Convolution2D) (None, 128, 8, 8)     147584      convolution2d_9[0][0]            
____________________________________________________________________________________________________
maxpooling2d_3 (MaxPooling2D)    (None, 128, 4, 4)     0           convolution2d_10[0][0]           
____________________________________________________________________________________________________
convolution2d_11 (Convolution2D) (None, 256, 4, 4)     295168      maxpooling2d_3[0][0]             
____________________________________________________________________________________________________
convolution2d_12 (Convolution2D) (None, 256, 4, 4)     590080      convolution2d_11[0][0]           
____________________________________________________________________________________________________
maxpooling2d_4 (MaxPooling2D)    (None, 256, 2, 2)     0           convolution2d_12[0][0]           
____________________________________________________________________________________________________
convolution2d_13 (Convolution2D) (None, 512, 2, 2)     1180160     maxpooling2d_4[0][0]             
____________________________________________________________________________________________________
convolution2d_14 (Convolution2D) (None, 512, 2, 2)     2359808     convolution2d_13[0][0]           
____________________________________________________________________________________________________
upsampling2d_1 (UpSampling2D)    (None, 512, 4, 4)     0           convolution2d_14[0][0]           
____________________________________________________________________________________________________
merge_1 (Merge)                  (None, 768, 4, 4)     0           upsampling2d_1[0][0]             
                                                                   convolution2d_12[0][0]           
____________________________________________________________________________________________________
convolution2d_15 (Convolution2D) (None, 256, 4, 4)     1769728     merge_1[0][0]                    
____________________________________________________________________________________________________
convolution2d_16 (Convolution2D) (None, 256, 4, 4)     590080      convolution2d_15[0][0]           
____________________________________________________________________________________________________
upsampling2d_2 (UpSampling2D)    (None, 256, 8, 8)     0           convolution2d_16[0][0]           
____________________________________________________________________________________________________
merge_2 (Merge)                  (None, 384, 8, 8)     0           upsampling2d_2[0][0]             
                                                                   convolution2d_10[0][0]           
____________________________________________________________________________________________________
convolution2d_17 (Convolution2D) (None, 128, 8, 8)     442496      merge_2[0][0]                    
____________________________________________________________________________________________________
convolution2d_18 (Convolution2D) (None, 128, 8, 8)     147584      convolution2d_17[0][0]           
____________________________________________________________________________________________________
upsampling2d_3 (UpSampling2D)    (None, 128, 16, 16)   0           convolution2d_18[0][0]           
____________________________________________________________________________________________________
merge_3 (Merge)                  (None, 192, 16, 16)   0           upsampling2d_3[0][0]             
                                                                   convolution2d_8[0][0]            
____________________________________________________________________________________________________
convolution2d_19 (Convolution2D) (None, 64, 16, 16)    110656      merge_3[0][0]                    
____________________________________________________________________________________________________
convolution2d_20 (Convolution2D) (None, 64, 16, 16)    36928       convolution2d_19[0][0]           
____________________________________________________________________________________________________
upsampling2d_4 (UpSampling2D)    (None, 64, 32, 32)    0           convolution2d_20[0][0]           
____________________________________________________________________________________________________
merge_4 (Merge)                  (None, 96, 32, 32)    0           upsampling2d_4[0][0]             
                                                                   convolution2d_6[0][0]            
____________________________________________________________________________________________________
convolution2d_21 (Convolution2D) (None, 32, 32, 32)    27680       merge_4[0][0]                    
____________________________________________________________________________________________________
convolution2d_22 (Convolution2D) (None, 32, 32, 32)    9248        convolution2d_21[0][0]           
____________________________________________________________________________________________________
convolution2d_23 (Convolution2D) (None, 2, 32, 32)     578         convolution2d_22[0][0]           
====================================================================================================
Total params: 7846626
____________________________________________________________________________________________________
____________________________________________________________________________________________________
Layer (type)                     Output Shape          Param #     Connected to                     
====================================================================================================
model_1 (Model)                  (None, 2, 32, 32)     7846626                                      
____________________________________________________________________________________________________
sequential_1 (Sequential)        (None, 1)             0           convolution2d_23[0][0]           
====================================================================================================
Total params: 8760067
____________________________________________________________________________________________________
____________________________________________________________________________________________________
Layer (type)                     Output Shape          Param #     Connected to                     
====================================================================================================
convolution2d_1 (Convolution2D)  (None, 32, 16, 16)    608         convolution2d_input_1[0][0]      
____________________________________________________________________________________________________
leakyrelu_1 (LeakyReLU)          (None, 32, 16, 16)    0           convolution2d_1[0][0]            
____________________________________________________________________________________________________
convolution2d_2 (Convolution2D)  (None, 64, 8, 8)      18496       leakyrelu_1[0][0]                
____________________________________________________________________________________________________
leakyrelu_2 (LeakyReLU)          (None, 64, 8, 8)      0           convolution2d_2[0][0]            
____________________________________________________________________________________________________
convolution2d_3 (Convolution2D)  (None, 128, 4, 4)     73856       leakyrelu_2[0][0]                
____________________________________________________________________________________________________
leakyrelu_3 (LeakyReLU)          (None, 128, 4, 4)     0           convolution2d_3[0][0]            
____________________________________________________________________________________________________
dropout_1 (Dropout)              (None, 128, 4, 4)     0           leakyrelu_3[0][0]                
____________________________________________________________________________________________________
convolution2d_4 (Convolution2D)  (None, 256, 2, 2)     295168      dropout_1[0][0]                  
____________________________________________________________________________________________________
leakyrelu_4 (LeakyReLU)          (None, 256, 2, 2)     0           convolution2d_4[0][0]            
____________________________________________________________________________________________________
dropout_2 (Dropout)              (None, 256, 2, 2)     0           leakyrelu_4[0][0]                
____________________________________________________________________________________________________
flatten_1 (Flatten)              (None, 1024)          0           dropout_2[0][0]                  
____________________________________________________________________________________________________
dense_1 (Dense)                  (None, 512)           524800      flatten_1[0][0]                  
____________________________________________________________________________________________________
leakyrelu_5 (LeakyReLU)          (None, 512)           0           dense_1[0][0]                    
____________________________________________________________________________________________________
dropout_3 (Dropout)              (None, 512)           0           leakyrelu_5[0][0]                
____________________________________________________________________________________________________
dense_2 (Dense)                  (None, 1)             513         dropout_3[0][0]                  
====================================================================================================
Total params: 913441
____________________________________________________________________________________________________
('Epoch', 1, 'of', 50)
('Number of batches', 128)
('GAN loss 0.6855 ', 'GAN acc 0.7891', 'Discriminator loss 0.7260', 'Discriminator accuracy 0.4102', 'Total loss: 1.4115', 'for batch', 0)
…
End of training
Saving histograms
----------------------------------
('Total samples = ', 32768, ' Batch size =', 256, ' Epochs = ', 50)
('Generator loss 0.7011 ', 'Discriminator loss 0.6884', 'Total: 1.3896')
----------------------------------
---DISCRIMINATOR---
____________________________________________________________________________________________________
Layer (type)                     Output Shape          Param #     Connected to                     
====================================================================================================
convolution2d_1 (Convolution2D)  (None, 32, 16, 16)    608         convolution2d_input_1[0][0]      
____________________________________________________________________________________________________
leakyrelu_1 (LeakyReLU)          (None, 32, 16, 16)    0           convolution2d_1[0][0]            
____________________________________________________________________________________________________
convolution2d_2 (Convolution2D)  (None, 64, 8, 8)      18496       leakyrelu_1[0][0]                
____________________________________________________________________________________________________
leakyrelu_2 (LeakyReLU)          (None, 64, 8, 8)      0           convolution2d_2[0][0]            
____________________________________________________________________________________________________
convolution2d_3 (Convolution2D)  (None, 128, 4, 4)     73856       leakyrelu_2[0][0]                
____________________________________________________________________________________________________
leakyrelu_3 (LeakyReLU)          (None, 128, 4, 4)     0           convolution2d_3[0][0]            
____________________________________________________________________________________________________
dropout_1 (Dropout)              (None, 128, 4, 4)     0           leakyrelu_3[0][0]                
____________________________________________________________________________________________________
convolution2d_4 (Convolution2D)  (None, 256, 2, 2)     295168      dropout_1[0][0]                  
____________________________________________________________________________________________________
leakyrelu_4 (LeakyReLU)          (None, 256, 2, 2)     0           convolution2d_4[0][0]            
____________________________________________________________________________________________________
dropout_2 (Dropout)              (None, 256, 2, 2)     0           leakyrelu_4[0][0]                
____________________________________________________________________________________________________
flatten_1 (Flatten)              (None, 1024)          0           dropout_2[0][0]                  
____________________________________________________________________________________________________
dense_1 (Dense)                  (None, 512)           524800      flatten_1[0][0]                  
____________________________________________________________________________________________________
leakyrelu_5 (LeakyReLU)          (None, 512)           0           dense_1[0][0]                    
____________________________________________________________________________________________________
dropout_3 (Dropout)              (None, 512)           0           leakyrelu_5[0][0]                
____________________________________________________________________________________________________
dense_2 (Dense)                  (None, 1)             513         dropout_3[0][0]                  
====================================================================================================
Total params: 913441
____________________________________________________________________________________________________
None
----------------------------------
---GENERATOR---
____________________________________________________________________________________________________
Layer (type)                     Output Shape          Param #     Connected to                     
====================================================================================================
input_1 (InputLayer)             (None, 1, 32, 32)     0                                            
____________________________________________________________________________________________________
convolution2d_5 (Convolution2D)  (None, 32, 32, 32)    320         input_1[0][0]                    
____________________________________________________________________________________________________
convolution2d_6 (Convolution2D)  (None, 32, 32, 32)    9248        convolution2d_5[0][0]            
____________________________________________________________________________________________________
maxpooling2d_1 (MaxPooling2D)    (None, 32, 16, 16)    0           convolution2d_6[0][0]            
____________________________________________________________________________________________________
convolution2d_7 (Convolution2D)  (None, 64, 16, 16)    18496       maxpooling2d_1[0][0]             
____________________________________________________________________________________________________
convolution2d_8 (Convolution2D)  (None, 64, 16, 16)    36928       convolution2d_7[0][0]            
____________________________________________________________________________________________________
maxpooling2d_2 (MaxPooling2D)    (None, 64, 8, 8)      0           convolution2d_8[0][0]            
____________________________________________________________________________________________________
convolution2d_9 (Convolution2D)  (None, 128, 8, 8)     73856       maxpooling2d_2[0][0]             
____________________________________________________________________________________________________
convolution2d_10 (Convolution2D) (None, 128, 8, 8)     147584      convolution2d_9[0][0]            
____________________________________________________________________________________________________
maxpooling2d_3 (MaxPooling2D)    (None, 128, 4, 4)     0           convolution2d_10[0][0]           
____________________________________________________________________________________________________
convolution2d_11 (Convolution2D) (None, 256, 4, 4)     295168      maxpooling2d_3[0][0]             
____________________________________________________________________________________________________
convolution2d_12 (Convolution2D) (None, 256, 4, 4)     590080      convolution2d_11[0][0]           
____________________________________________________________________________________________________
maxpooling2d_4 (MaxPooling2D)    (None, 256, 2, 2)     0           convolution2d_12[0][0]           
____________________________________________________________________________________________________
convolution2d_13 (Convolution2D) (None, 512, 2, 2)     1180160     maxpooling2d_4[0][0]             
____________________________________________________________________________________________________
convolution2d_14 (Convolution2D) (None, 512, 2, 2)     2359808     convolution2d_13[0][0]           
____________________________________________________________________________________________________
upsampling2d_1 (UpSampling2D)    (None, 512, 4, 4)     0           convolution2d_14[0][0]           
____________________________________________________________________________________________________
merge_1 (Merge)                  (None, 768, 4, 4)     0           upsampling2d_1[0][0]             
                                                                   convolution2d_12[0][0]           
____________________________________________________________________________________________________
convolution2d_15 (Convolution2D) (None, 256, 4, 4)     1769728     merge_1[0][0]                    
____________________________________________________________________________________________________
convolution2d_16 (Convolution2D) (None, 256, 4, 4)     590080      convolution2d_15[0][0]           
____________________________________________________________________________________________________
upsampling2d_2 (UpSampling2D)    (None, 256, 8, 8)     0           convolution2d_16[0][0]           
____________________________________________________________________________________________________
merge_2 (Merge)                  (None, 384, 8, 8)     0           upsampling2d_2[0][0]             
                                                                   convolution2d_10[0][0]           
____________________________________________________________________________________________________
convolution2d_17 (Convolution2D) (None, 128, 8, 8)     442496      merge_2[0][0]                    
____________________________________________________________________________________________________
convolution2d_18 (Convolution2D) (None, 128, 8, 8)     147584      convolution2d_17[0][0]           
____________________________________________________________________________________________________
upsampling2d_3 (UpSampling2D)    (None, 128, 16, 16)   0           convolution2d_18[0][0]           
____________________________________________________________________________________________________
merge_3 (Merge)                  (None, 192, 16, 16)   0           upsampling2d_3[0][0]             
                                                                   convolution2d_8[0][0]            
____________________________________________________________________________________________________
convolution2d_19 (Convolution2D) (None, 64, 16, 16)    110656      merge_3[0][0]                    
____________________________________________________________________________________________________
convolution2d_20 (Convolution2D) (None, 64, 16, 16)    36928       convolution2d_19[0][0]           
____________________________________________________________________________________________________
upsampling2d_4 (UpSampling2D)    (None, 64, 32, 32)    0           convolution2d_20[0][0]           
____________________________________________________________________________________________________
merge_4 (Merge)                  (None, 96, 32, 32)    0           upsampling2d_4[0][0]             
                                                                   convolution2d_6[0][0]            
____________________________________________________________________________________________________
convolution2d_21 (Convolution2D) (None, 32, 32, 32)    27680       merge_4[0][0]                    
____________________________________________________________________________________________________
convolution2d_22 (Convolution2D) (None, 32, 32, 32)    9248        convolution2d_21[0][0]           
____________________________________________________________________________________________________
convolution2d_23 (Convolution2D) (None, 2, 32, 32)     578         convolution2d_22[0][0]           
====================================================================================================
Total params: 7846626
____________________________________________________________________________________________________
None
----------------------------------
---GAN---
____________________________________________________________________________________________________
Layer (type)                     Output Shape          Param #     Connected to                     
====================================================================================================
model_1 (Model)                  (None, 2, 32, 32)     7846626                                      
____________________________________________________________________________________________________
sequential_1 (Sequential)        (None, 1)             913441      convolution2d_23[0][0]           
====================================================================================================
Total params: 8760067
____________________________________________________________________________________________________
None
