----------------------------------
('Training with dataset based on class - ', 'all', 'with', 32768, 'samples')
----------------------------------
____________________________________________________________________________________________________
Layer (type)                     Output Shape          Param #     Connected to                     
====================================================================================================
sequential_11 (Sequential)       (None, 2, 32, 32)     1367650                                      
____________________________________________________________________________________________________
sequential_10 (Sequential)       (None, 1)             0           lambda_4[0][0]                   
====================================================================================================
Total params: 1887107
____________________________________________________________________________________________________
____________________________________________________________________________________________________
Layer (type)                     Output Shape          Param #     Connected to                     
====================================================================================================
convolution2d_40 (Convolution2D) (None, 32, 16, 16)    608         convolution2d_input_7[0][0]      
____________________________________________________________________________________________________
leakyrelu_40 (LeakyReLU)         (None, 32, 16, 16)    0           convolution2d_40[0][0]           
____________________________________________________________________________________________________
dropout_16 (Dropout)             (None, 32, 16, 16)    0           leakyrelu_40[0][0]               
____________________________________________________________________________________________________
convolution2d_41 (Convolution2D) (None, 64, 8, 8)      18496       dropout_16[0][0]                 
____________________________________________________________________________________________________
leakyrelu_41 (LeakyReLU)         (None, 64, 8, 8)      0           convolution2d_41[0][0]           
____________________________________________________________________________________________________
dropout_17 (Dropout)             (None, 64, 8, 8)      0           leakyrelu_41[0][0]               
____________________________________________________________________________________________________
convolution2d_42 (Convolution2D) (None, 128, 4, 4)     73856       dropout_17[0][0]                 
____________________________________________________________________________________________________
leakyrelu_42 (LeakyReLU)         (None, 128, 4, 4)     0           convolution2d_42[0][0]           
____________________________________________________________________________________________________
dropout_18 (Dropout)             (None, 128, 4, 4)     0           leakyrelu_42[0][0]               
____________________________________________________________________________________________________
convolution2d_43 (Convolution2D) (None, 256, 2, 2)     295168      dropout_18[0][0]                 
____________________________________________________________________________________________________
leakyrelu_43 (LeakyReLU)         (None, 256, 2, 2)     0           convolution2d_43[0][0]           
____________________________________________________________________________________________________
dropout_19 (Dropout)             (None, 256, 2, 2)     0           leakyrelu_43[0][0]               
____________________________________________________________________________________________________
flatten_4 (Flatten)              (None, 1024)          0           dropout_19[0][0]                 
____________________________________________________________________________________________________
dense_7 (Dense)                  (None, 128)           131200      flatten_4[0][0]                  
____________________________________________________________________________________________________
leakyrelu_44 (LeakyReLU)         (None, 128)           0           dense_7[0][0]                    
____________________________________________________________________________________________________
dropout_20 (Dropout)             (None, 128)           0           leakyrelu_44[0][0]               
____________________________________________________________________________________________________
dense_8 (Dense)                  (None, 1)             129         dropout_20[0][0]                 
====================================================================================================
Total params: 519457
____________________________________________________________________________________________________
('Epoch', 1, 'of', 50)
('Number of batches', 128)
('GAN loss 0.7836 ', 'GAN acc 0.4023', 'Discriminator loss 0.7001', 'Discriminator accuracy 0.5820', 'Total loss: 1.4837', 'for batch', 0)
…
