…
----------------------------------
End of training
Saving histograms
----------------------------------
Total samples =  5000  Batch size = 256  Epochs =  50
Generator loss 1.8573  Discriminator loss 0.8084 Total: 2.6657
----------------------------------
---DISCRIMINATOR---
____________________________________________________________________________________________________
Layer (type)                     Output Shape          Param #     Connected to                     
====================================================================================================
convolution2d_97 (Convolution2D) (None, 8, 32, 32)     224         convolution2d_input_17[0][0]     
____________________________________________________________________________________________________
leakyrelu_49 (LeakyReLU)         (None, 8, 32, 32)     0           convolution2d_97[0][0]           
____________________________________________________________________________________________________
maxpooling2d_33 (MaxPooling2D)   (None, 8, 16, 16)     0           leakyrelu_49[0][0]               
____________________________________________________________________________________________________
convolution2d_98 (Convolution2D) (None, 16, 16, 16)    1168        maxpooling2d_33[0][0]            
____________________________________________________________________________________________________
leakyrelu_50 (LeakyReLU)         (None, 16, 16, 16)    0           convolution2d_98[0][0]           
____________________________________________________________________________________________________
maxpooling2d_34 (MaxPooling2D)   (None, 16, 8, 8)      0           leakyrelu_50[0][0]               
____________________________________________________________________________________________________
convolution2d_99 (Convolution2D) (None, 32, 8, 8)      4640        maxpooling2d_34[0][0]            
____________________________________________________________________________________________________
leakyrelu_51 (LeakyReLU)         (None, 32, 8, 8)      0           convolution2d_99[0][0]           
____________________________________________________________________________________________________
maxpooling2d_35 (MaxPooling2D)   (None, 32, 4, 4)      0           leakyrelu_51[0][0]               
____________________________________________________________________________________________________
convolution2d_100 (Convolution2D)(None, 64, 4, 4)      18496       maxpooling2d_35[0][0]            
____________________________________________________________________________________________________
leakyrelu_52 (LeakyReLU)         (None, 64, 4, 4)      0           convolution2d_100[0][0]          
____________________________________________________________________________________________________
maxpooling2d_36 (MaxPooling2D)   (None, 64, 2, 2)      0           leakyrelu_52[0][0]               
____________________________________________________________________________________________________
flatten_9 (Flatten)              (None, 256)           0           maxpooling2d_36[0][0]            
____________________________________________________________________________________________________
dense_25 (Dense)                 (None, 512)           131584      flatten_9[0][0]                  
____________________________________________________________________________________________________
leakyrelu_53 (LeakyReLU)         (None, 512)           0           dense_25[0][0]                   
____________________________________________________________________________________________________
dropout_17 (Dropout)             (None, 512)           0           leakyrelu_53[0][0]               
____________________________________________________________________________________________________
dense_26 (Dense)                 (None, 256)           131328      dropout_17[0][0]                 
____________________________________________________________________________________________________
leakyrelu_54 (LeakyReLU)         (None, 256)           0           dense_26[0][0]                   
____________________________________________________________________________________________________
dropout_18 (Dropout)             (None, 256)           0           leakyrelu_54[0][0]               
____________________________________________________________________________________________________
dense_27 (Dense)                 (None, 1)             257         dropout_18[0][0]                 
====================================================================================================
Total params: 287697
____________________________________________________________________________________________________
None
----------------------------------
---GENERATOR---
____________________________________________________________________________________________________
Layer (type)                     Output Shape          Param #     Connected to                     
====================================================================================================
convolution2d_101 (Convolution2D)(None, 8, 32, 32)     80          convolution2d_input_18[0][0]     
____________________________________________________________________________________________________
convolution2d_102 (Convolution2D)(None, 16, 32, 32)    1168        convolution2d_101[0][0]          
____________________________________________________________________________________________________
convolution2d_103 (Convolution2D)(None, 32, 32, 32)    4640        convolution2d_102[0][0]          
____________________________________________________________________________________________________
batchnormalization_25 (BatchNorma(None, 32, 32, 32)    64          convolution2d_103[0][0]          
____________________________________________________________________________________________________
convolution2d_104 (Convolution2D)(None, 64, 32, 32)    18496       batchnormalization_25[0][0]      
____________________________________________________________________________________________________
batchnormalization_26 (BatchNorma(None, 64, 32, 32)    64          convolution2d_104[0][0]          
____________________________________________________________________________________________________
convolution2d_105 (Convolution2D)(None, 32, 32, 32)    18464       batchnormalization_26[0][0]      
____________________________________________________________________________________________________
batchnormalization_27 (BatchNorma(None, 32, 32, 32)    64          convolution2d_105[0][0]          
____________________________________________________________________________________________________
convolution2d_106 (Convolution2D)(None, 16, 32, 32)    4624        batchnormalization_27[0][0]      
____________________________________________________________________________________________________
convolution2d_107 (Convolution2D)(None, 8, 32, 32)     1160        convolution2d_106[0][0]          
____________________________________________________________________________________________________
convolution2d_108 (Convolution2D)(None, 3, 32, 32)     219         convolution2d_107[0][0]          
____________________________________________________________________________________________________
lambda_9 (Lambda)                (None, 3, 32, 32)     0           convolution2d_108[0][0]          
====================================================================================================
Total params: 49043
____________________________________________________________________________________________________
None
----------------------------------
---GAN---
____________________________________________________________________________________________________
Layer (type)                     Output Shape          Param #     Connected to                     
====================================================================================================
sequential_26 (Sequential)       (None, 3, 32, 32)     49043                                        
____________________________________________________________________________________________________
sequential_25 (Sequential)       (None, 1)             287697      lambda_9[0][0]                   
====================================================================================================
Total params: 336740
____________________________________________________________________________________________________
None
