----------------------------------
('Training with dataset based on class - ', 'dog', 'with', 5000, 'samples')
----------------------------------
____________________________________________________________________________________________________
Layer (type)                     Output Shape          Param #     Connected to                     
====================================================================================================
sequential_17 (Sequential)       (None, 2, 32, 32)     1367650                                      
____________________________________________________________________________________________________
sequential_16 (Sequential)       (None, 1)             0           lambda_6[0][0]                   
====================================================================================================
Total params: 2806403
____________________________________________________________________________________________________
____________________________________________________________________________________________________
Layer (type)                     Output Shape          Param #     Connected to                     
====================================================================================================
convolution2d_66 (Convolution2D) (None, 32, 16, 16)    608         convolution2d_input_11[0][0]     
____________________________________________________________________________________________________
leakyrelu_66 (LeakyReLU)         (None, 32, 16, 16)    0           convolution2d_66[0][0]           
____________________________________________________________________________________________________
dropout_26 (Dropout)             (None, 32, 16, 16)    0           leakyrelu_66[0][0]               
____________________________________________________________________________________________________
convolution2d_67 (Convolution2D) (None, 64, 8, 8)      18496       dropout_26[0][0]                 
____________________________________________________________________________________________________
leakyrelu_67 (LeakyReLU)         (None, 64, 8, 8)      0           convolution2d_67[0][0]           
____________________________________________________________________________________________________
dropout_27 (Dropout)             (None, 64, 8, 8)      0           leakyrelu_67[0][0]               
____________________________________________________________________________________________________
convolution2d_68 (Convolution2D) (None, 128, 4, 4)     73856       dropout_27[0][0]                 
____________________________________________________________________________________________________
leakyrelu_68 (LeakyReLU)         (None, 128, 4, 4)     0           convolution2d_68[0][0]           
____________________________________________________________________________________________________
dropout_28 (Dropout)             (None, 128, 4, 4)     0           leakyrelu_68[0][0]               
____________________________________________________________________________________________________
convolution2d_69 (Convolution2D) (None, 256, 2, 2)     295168      dropout_28[0][0]                 
____________________________________________________________________________________________________
leakyrelu_69 (LeakyReLU)         (None, 256, 2, 2)     0           convolution2d_69[0][0]           
____________________________________________________________________________________________________
dropout_29 (Dropout)             (None, 256, 2, 2)     0           leakyrelu_69[0][0]               
____________________________________________________________________________________________________
flatten_6 (Flatten)              (None, 1024)          0           dropout_29[0][0]                 
____________________________________________________________________________________________________
dense_11 (Dense)                 (None, 1024)          1049600     flatten_6[0][0]                  
____________________________________________________________________________________________________
leakyrelu_70 (LeakyReLU)         (None, 1024)          0           dense_11[0][0]                   
____________________________________________________________________________________________________
dropout_30 (Dropout)             (None, 1024)          0           leakyrelu_70[0][0]               
____________________________________________________________________________________________________
dense_12 (Dense)                 (None, 1)             1025        dropout_30[0][0]                 
====================================================================================================
Total params: 1438753
____________________________________________________________________________________________________
('Epoch', 1, 'of', 50)
('Number of batches', 19)
('Generator loss 0.1631', 'Generator acc 0.0328', 'for batch', 0)
('Generator loss 0.1861', 'Generator acc 0.0460', 'for batch', 1)
…
('Elapsed time in epoch = ', '0:00:27.033356')
----------------------------------
End of training
Saving histograms
----------------------------------
('Total samples = ', 5000, ' Batch size =', 256, ' Epochs = ', 50)
----------------------------------
---GENERATOR---
____________________________________________________________________________________________________
Layer (type)                     Output Shape          Param #     Connected to                     
====================================================================================================
convolution2d_70 (Convolution2D) (None, 32, 32, 32)    320         convolution2d_input_12[0][0]     
____________________________________________________________________________________________________
leakyrelu_71 (LeakyReLU)         (None, 32, 32, 32)    0           convolution2d_70[0][0]           
____________________________________________________________________________________________________
convolution2d_71 (Convolution2D) (None, 64, 32, 32)    18496       leakyrelu_71[0][0]               
____________________________________________________________________________________________________
batchnormalization_36 (BatchNorma(None, 64, 32, 32)    128         convolution2d_71[0][0]           
____________________________________________________________________________________________________
leakyrelu_72 (LeakyReLU)         (None, 64, 32, 32)    0           batchnormalization_36[0][0]      
____________________________________________________________________________________________________
convolution2d_72 (Convolution2D) (None, 128, 32, 32)   73856       leakyrelu_72[0][0]               
____________________________________________________________________________________________________
batchnormalization_37 (BatchNorma(None, 128, 32, 32)   256         convolution2d_72[0][0]           
____________________________________________________________________________________________________
leakyrelu_73 (LeakyReLU)         (None, 128, 32, 32)   0           batchnormalization_37[0][0]      
____________________________________________________________________________________________________
convolution2d_73 (Convolution2D) (None, 256, 32, 32)   295168      leakyrelu_73[0][0]               
____________________________________________________________________________________________________
batchnormalization_38 (BatchNorma(None, 256, 32, 32)   512         convolution2d_73[0][0]           
____________________________________________________________________________________________________
leakyrelu_74 (LeakyReLU)         (None, 256, 32, 32)   0           batchnormalization_38[0][0]      
____________________________________________________________________________________________________
convolution2d_74 (Convolution2D) (None, 256, 32, 32)   590080      leakyrelu_74[0][0]               
____________________________________________________________________________________________________
batchnormalization_39 (BatchNorma(None, 256, 32, 32)   512         convolution2d_74[0][0]           
____________________________________________________________________________________________________
leakyrelu_75 (LeakyReLU)         (None, 256, 32, 32)   0           batchnormalization_39[0][0]      
____________________________________________________________________________________________________
convolution2d_75 (Convolution2D) (None, 128, 32, 32)   295040      leakyrelu_75[0][0]               
____________________________________________________________________________________________________
batchnormalization_40 (BatchNorma(None, 128, 32, 32)   256         convolution2d_75[0][0]           
____________________________________________________________________________________________________
leakyrelu_76 (LeakyReLU)         (None, 128, 32, 32)   0           batchnormalization_40[0][0]      
____________________________________________________________________________________________________
convolution2d_76 (Convolution2D) (None, 64, 32, 32)    73792       leakyrelu_76[0][0]               
____________________________________________________________________________________________________
batchnormalization_41 (BatchNorma(None, 64, 32, 32)    128         convolution2d_76[0][0]           
____________________________________________________________________________________________________
leakyrelu_77 (LeakyReLU)         (None, 64, 32, 32)    0           batchnormalization_41[0][0]      
____________________________________________________________________________________________________
convolution2d_77 (Convolution2D) (None, 32, 32, 32)    18464       leakyrelu_77[0][0]               
____________________________________________________________________________________________________
batchnormalization_42 (BatchNorma(None, 32, 32, 32)    64          convolution2d_77[0][0]           
____________________________________________________________________________________________________
leakyrelu_78 (LeakyReLU)         (None, 32, 32, 32)    0           batchnormalization_42[0][0]      
____________________________________________________________________________________________________
convolution2d_78 (Convolution2D) (None, 2, 32, 32)     578         leakyrelu_78[0][0]               
____________________________________________________________________________________________________
lambda_6 (Lambda)                (None, 2, 32, 32)     0           convolution2d_78[0][0]           
====================================================================================================
Total params: 1367650
____________________________________________________________________________________________________
None
----------------------------------
('Training with dataset based on class - ', 'frog', 'with', 5000, 'samples')
----------------------------------
____________________________________________________________________________________________________
Layer (type)                     Output Shape          Param #     Connected to                     
====================================================================================================
sequential_20 (Sequential)       (None, 2, 32, 32)     1367650                                      
____________________________________________________________________________________________________
sequential_19 (Sequential)       (None, 1)             0           lambda_7[0][0]                   
====================================================================================================
Total params: 2806403
____________________________________________________________________________________________________
____________________________________________________________________________________________________
Layer (type)                     Output Shape          Param #     Connected to                     
====================================================================================================
convolution2d_79 (Convolution2D) (None, 32, 16, 16)    608         convolution2d_input_13[0][0]     
____________________________________________________________________________________________________
leakyrelu_79 (LeakyReLU)         (None, 32, 16, 16)    0           convolution2d_79[0][0]           
____________________________________________________________________________________________________
dropout_31 (Dropout)             (None, 32, 16, 16)    0           leakyrelu_79[0][0]               
____________________________________________________________________________________________________
convolution2d_80 (Convolution2D) (None, 64, 8, 8)      18496       dropout_31[0][0]                 
____________________________________________________________________________________________________
leakyrelu_80 (LeakyReLU)         (None, 64, 8, 8)      0           convolution2d_80[0][0]           
____________________________________________________________________________________________________
dropout_32 (Dropout)             (None, 64, 8, 8)      0           leakyrelu_80[0][0]               
____________________________________________________________________________________________________
convolution2d_81 (Convolution2D) (None, 128, 4, 4)     73856       dropout_32[0][0]                 
____________________________________________________________________________________________________
leakyrelu_81 (LeakyReLU)         (None, 128, 4, 4)     0           convolution2d_81[0][0]           
____________________________________________________________________________________________________
dropout_33 (Dropout)             (None, 128, 4, 4)     0           leakyrelu_81[0][0]               
____________________________________________________________________________________________________
convolution2d_82 (Convolution2D) (None, 256, 2, 2)     295168      dropout_33[0][0]                 
____________________________________________________________________________________________________
leakyrelu_82 (LeakyReLU)         (None, 256, 2, 2)     0           convolution2d_82[0][0]           
____________________________________________________________________________________________________
dropout_34 (Dropout)             (None, 256, 2, 2)     0           leakyrelu_82[0][0]               
____________________________________________________________________________________________________
flatten_7 (Flatten)              (None, 1024)          0           dropout_34[0][0]                 
____________________________________________________________________________________________________
dense_13 (Dense)                 (None, 1024)          1049600     flatten_7[0][0]                  
____________________________________________________________________________________________________
leakyrelu_83 (LeakyReLU)         (None, 1024)          0           dense_13[0][0]                   
____________________________________________________________________________________________________
dropout_35 (Dropout)             (None, 1024)          0           leakyrelu_83[0][0]               
____________________________________________________________________________________________________
dense_14 (Dense)                 (None, 1)             1025        dropout_35[0][0]                 
====================================================================================================
Total params: 1438753
____________________________________________________________________________________________________
('Epoch', 1, 'of', 50)
('Number of batches', 19)
('Generator loss 0.3663', 'Generator acc 0.0289', 'for batch', 0)
('Generator loss 0.2653', 'Generator acc 0.0418', 'for batch', 1)
…
