----------------------------------
('Training with dataset based on class - ', 'bird', 'with', 5000, 'samples')
----------------------------------
____________________________________________________________________________________________________
Layer (type)                     Output Shape          Param #     Connected to                     
====================================================================================================
sequential_8 (Sequential)        (None, 2, 32, 32)     1367650                                      
____________________________________________________________________________________________________
sequential_7 (Sequential)        (None, 1)             0           lambda_3[0][0]                   
====================================================================================================
Total params: 1596531
____________________________________________________________________________________________________
____________________________________________________________________________________________________
Layer (type)                     Output Shape          Param #     Connected to                     
====================================================================================================
convolution2d_27 (Convolution2D) (None, 16, 16, 16)    304         convolution2d_input_5[0][0]      
____________________________________________________________________________________________________
leakyrelu_27 (LeakyReLU)         (None, 16, 16, 16)    0           convolution2d_27[0][0]           
____________________________________________________________________________________________________
dropout_11 (Dropout)             (None, 16, 16, 16)    0           leakyrelu_27[0][0]               
____________________________________________________________________________________________________
convolution2d_28 (Convolution2D) (None, 32, 8, 8)      4640        dropout_11[0][0]                 
____________________________________________________________________________________________________
leakyrelu_28 (LeakyReLU)         (None, 32, 8, 8)      0           convolution2d_28[0][0]           
____________________________________________________________________________________________________
dropout_12 (Dropout)             (None, 32, 8, 8)      0           leakyrelu_28[0][0]               
____________________________________________________________________________________________________
convolution2d_29 (Convolution2D) (None, 64, 4, 4)      18496       dropout_12[0][0]                 
____________________________________________________________________________________________________
leakyrelu_29 (LeakyReLU)         (None, 64, 4, 4)      0           convolution2d_29[0][0]           
____________________________________________________________________________________________________
dropout_13 (Dropout)             (None, 64, 4, 4)      0           leakyrelu_29[0][0]               
____________________________________________________________________________________________________
convolution2d_30 (Convolution2D) (None, 128, 2, 2)     73856       dropout_13[0][0]                 
____________________________________________________________________________________________________
leakyrelu_30 (LeakyReLU)         (None, 128, 2, 2)     0           convolution2d_30[0][0]           
____________________________________________________________________________________________________
dropout_14 (Dropout)             (None, 128, 2, 2)     0           leakyrelu_30[0][0]               
____________________________________________________________________________________________________
flatten_3 (Flatten)              (None, 512)           0           dropout_14[0][0]                 
____________________________________________________________________________________________________
dense_5 (Dense)                  (None, 256)           131328      flatten_3[0][0]                  
____________________________________________________________________________________________________
leakyrelu_31 (LeakyReLU)         (None, 256)           0           dense_5[0][0]                    
____________________________________________________________________________________________________
dropout_15 (Dropout)             (None, 256)           0           leakyrelu_31[0][0]               
____________________________________________________________________________________________________
dense_6 (Dense)                  (None, 1)             257         dropout_15[0][0]                 
====================================================================================================
Total params: 228881
____________________________________________________________________________________________________
('Epoch', 1, 'of', 50)
('Number of batches', 19)
('GAN loss 0.3310 ', 'GAN acc 0.9141', 'Discriminator loss 1.1073', 'Discriminator accuracy 0.4707', 'Total loss: 1.4383', 'for batch', 0)
…
End of training
Saving histograms
----------------------------------
('Total samples = ', 5000, ' Batch size =', 256, ' Epochs = ', 50)
('Generator loss 0.6844 ', 'Discriminator loss 0.6949', 'Total: 1.3793')
----------------------------------
---DISCRIMINATOR---
____________________________________________________________________________________________________
Layer (type)                     Output Shape          Param #     Connected to                     
====================================================================================================
convolution2d_27 (Convolution2D) (None, 16, 16, 16)    304         convolution2d_input_5[0][0]      
____________________________________________________________________________________________________
leakyrelu_27 (LeakyReLU)         (None, 16, 16, 16)    0           convolution2d_27[0][0]           
____________________________________________________________________________________________________
dropout_11 (Dropout)             (None, 16, 16, 16)    0           leakyrelu_27[0][0]               
____________________________________________________________________________________________________
convolution2d_28 (Convolution2D) (None, 32, 8, 8)      4640        dropout_11[0][0]                 
____________________________________________________________________________________________________
leakyrelu_28 (LeakyReLU)         (None, 32, 8, 8)      0           convolution2d_28[0][0]           
____________________________________________________________________________________________________
dropout_12 (Dropout)             (None, 32, 8, 8)      0           leakyrelu_28[0][0]               
____________________________________________________________________________________________________
convolution2d_29 (Convolution2D) (None, 64, 4, 4)      18496       dropout_12[0][0]                 
____________________________________________________________________________________________________
leakyrelu_29 (LeakyReLU)         (None, 64, 4, 4)      0           convolution2d_29[0][0]           
____________________________________________________________________________________________________
dropout_13 (Dropout)             (None, 64, 4, 4)      0           leakyrelu_29[0][0]               
____________________________________________________________________________________________________
convolution2d_30 (Convolution2D) (None, 128, 2, 2)     73856       dropout_13[0][0]                 
____________________________________________________________________________________________________
leakyrelu_30 (LeakyReLU)         (None, 128, 2, 2)     0           convolution2d_30[0][0]           
____________________________________________________________________________________________________
dropout_14 (Dropout)             (None, 128, 2, 2)     0           leakyrelu_30[0][0]               
____________________________________________________________________________________________________
flatten_3 (Flatten)              (None, 512)           0           dropout_14[0][0]                 
____________________________________________________________________________________________________
dense_5 (Dense)                  (None, 256)           131328      flatten_3[0][0]                  
____________________________________________________________________________________________________
leakyrelu_31 (LeakyReLU)         (None, 256)           0           dense_5[0][0]                    
____________________________________________________________________________________________________
dropout_15 (Dropout)             (None, 256)           0           leakyrelu_31[0][0]               
____________________________________________________________________________________________________
dense_6 (Dense)                  (None, 1)             257         dropout_15[0][0]                 
====================================================================================================
Total params: 228881
____________________________________________________________________________________________________
None
----------------------------------
---GENERATOR---
____________________________________________________________________________________________________
Layer (type)                     Output Shape          Param #     Connected to                     
====================================================================================================
convolution2d_31 (Convolution2D) (None, 32, 32, 32)    320         convolution2d_input_6[0][0]      
____________________________________________________________________________________________________
leakyrelu_32 (LeakyReLU)         (None, 32, 32, 32)    0           convolution2d_31[0][0]           
____________________________________________________________________________________________________
convolution2d_32 (Convolution2D) (None, 64, 32, 32)    18496       leakyrelu_32[0][0]               
____________________________________________________________________________________________________
batchnormalization_15 (BatchNorma(None, 64, 32, 32)    128         convolution2d_32[0][0]           
____________________________________________________________________________________________________
leakyrelu_33 (LeakyReLU)         (None, 64, 32, 32)    0           batchnormalization_15[0][0]      
____________________________________________________________________________________________________
convolution2d_33 (Convolution2D) (None, 128, 32, 32)   73856       leakyrelu_33[0][0]               
____________________________________________________________________________________________________
batchnormalization_16 (BatchNorma(None, 128, 32, 32)   256         convolution2d_33[0][0]           
____________________________________________________________________________________________________
leakyrelu_34 (LeakyReLU)         (None, 128, 32, 32)   0           batchnormalization_16[0][0]      
____________________________________________________________________________________________________
convolution2d_34 (Convolution2D) (None, 256, 32, 32)   295168      leakyrelu_34[0][0]               
____________________________________________________________________________________________________
batchnormalization_17 (BatchNorma(None, 256, 32, 32)   512         convolution2d_34[0][0]           
____________________________________________________________________________________________________
leakyrelu_35 (LeakyReLU)         (None, 256, 32, 32)   0           batchnormalization_17[0][0]      
____________________________________________________________________________________________________
convolution2d_35 (Convolution2D) (None, 256, 32, 32)   590080      leakyrelu_35[0][0]               
____________________________________________________________________________________________________
batchnormalization_18 (BatchNorma(None, 256, 32, 32)   512         convolution2d_35[0][0]           
____________________________________________________________________________________________________
leakyrelu_36 (LeakyReLU)         (None, 256, 32, 32)   0           batchnormalization_18[0][0]      
____________________________________________________________________________________________________
convolution2d_36 (Convolution2D) (None, 128, 32, 32)   295040      leakyrelu_36[0][0]               
____________________________________________________________________________________________________
batchnormalization_19 (BatchNorma(None, 128, 32, 32)   256         convolution2d_36[0][0]           
____________________________________________________________________________________________________
leakyrelu_37 (LeakyReLU)         (None, 128, 32, 32)   0           batchnormalization_19[0][0]      
____________________________________________________________________________________________________
convolution2d_37 (Convolution2D) (None, 64, 32, 32)    73792       leakyrelu_37[0][0]               
____________________________________________________________________________________________________
batchnormalization_20 (BatchNorma(None, 64, 32, 32)    128         convolution2d_37[0][0]           
____________________________________________________________________________________________________
leakyrelu_38 (LeakyReLU)         (None, 64, 32, 32)    0           batchnormalization_20[0][0]      
____________________________________________________________________________________________________
convolution2d_38 (Convolution2D) (None, 32, 32, 32)    18464       leakyrelu_38[0][0]               
____________________________________________________________________________________________________
batchnormalization_21 (BatchNorma(None, 32, 32, 32)    64          convolution2d_38[0][0]           
____________________________________________________________________________________________________
leakyrelu_39 (LeakyReLU)         (None, 32, 32, 32)    0           batchnormalization_21[0][0]      
____________________________________________________________________________________________________
convolution2d_39 (Convolution2D) (None, 2, 32, 32)     578         leakyrelu_39[0][0]               
____________________________________________________________________________________________________
lambda_3 (Lambda)                (None, 2, 32, 32)     0           convolution2d_39[0][0]           
====================================================================================================
Total params: 1367650
____________________________________________________________________________________________________
None
----------------------------------
---GAN---
____________________________________________________________________________________________________
Layer (type)                     Output Shape          Param #     Connected to                     
====================================================================================================
sequential_8 (Sequential)        (None, 2, 32, 32)     1367650                                      
____________________________________________________________________________________________________
sequential_7 (Sequential)        (None, 1)             228881      lambda_3[0][0]                   
====================================================================================================
Total params: 1596531
____________________________________________________________________________________________________
None
----------------------------------
('Training with dataset based on class - ', 'cat', 'with', 5000, 'samples')
----------------------------------
____________________________________________________________________________________________________
Layer (type)                     Output Shape          Param #     Connected to                     
====================================================================================================
sequential_11 (Sequential)       (None, 2, 32, 32)     1367650                                      
____________________________________________________________________________________________________
sequential_10 (Sequential)       (None, 1)             0           lambda_4[0][0]                   
====================================================================================================
Total params: 1596531
____________________________________________________________________________________________________
____________________________________________________________________________________________________
Layer (type)                     Output Shape          Param #     Connected to                     
====================================================================================================
convolution2d_40 (Convolution2D) (None, 16, 16, 16)    304         convolution2d_input_7[0][0]      
____________________________________________________________________________________________________
leakyrelu_40 (LeakyReLU)         (None, 16, 16, 16)    0           convolution2d_40[0][0]           
____________________________________________________________________________________________________
dropout_16 (Dropout)             (None, 16, 16, 16)    0           leakyrelu_40[0][0]               
____________________________________________________________________________________________________
convolution2d_41 (Convolution2D) (None, 32, 8, 8)      4640        dropout_16[0][0]                 
____________________________________________________________________________________________________
leakyrelu_41 (LeakyReLU)         (None, 32, 8, 8)      0           convolution2d_41[0][0]           
____________________________________________________________________________________________________
dropout_17 (Dropout)             (None, 32, 8, 8)      0           leakyrelu_41[0][0]               
____________________________________________________________________________________________________
convolution2d_42 (Convolution2D) (None, 64, 4, 4)      18496       dropout_17[0][0]                 
____________________________________________________________________________________________________
leakyrelu_42 (LeakyReLU)         (None, 64, 4, 4)      0           convolution2d_42[0][0]           
____________________________________________________________________________________________________
dropout_18 (Dropout)             (None, 64, 4, 4)      0           leakyrelu_42[0][0]               
____________________________________________________________________________________________________
convolution2d_43 (Convolution2D) (None, 128, 2, 2)     73856       dropout_18[0][0]                 
____________________________________________________________________________________________________
leakyrelu_43 (LeakyReLU)         (None, 128, 2, 2)     0           convolution2d_43[0][0]           
____________________________________________________________________________________________________
dropout_19 (Dropout)             (None, 128, 2, 2)     0           leakyrelu_43[0][0]               
____________________________________________________________________________________________________
flatten_4 (Flatten)              (None, 512)           0           dropout_19[0][0]                 
____________________________________________________________________________________________________
dense_7 (Dense)                  (None, 256)           131328      flatten_4[0][0]                  
____________________________________________________________________________________________________
leakyrelu_44 (LeakyReLU)         (None, 256)           0           dense_7[0][0]                    
____________________________________________________________________________________________________
dropout_20 (Dropout)             (None, 256)           0           leakyrelu_44[0][0]               
____________________________________________________________________________________________________
dense_8 (Dense)                  (None, 1)             257         dropout_20[0][0]                 
====================================================================================================
Total params: 228881
____________________________________________________________________________________________________
('Epoch', 1, 'of', 50)
('Number of batches', 19)
('GAN loss 1.0800 ', 'GAN acc 0.2148', 'Discriminator loss 0.6926', 'Discriminator accuracy 0.5410', 'Total loss: 1.7727', 'for batch', 0)
…
