----------------------------------
('Training with dataset based on class - ', 'airplane', 'with', 5000, 'samples')
----------------------------------
____________________________________________________________________________________________________
Layer (type)                     Output Shape          Param #     Connected to                     
====================================================================================================
sequential_2 (Sequential)        (None, 2, 32, 32)     1367650                                      
____________________________________________________________________________________________________
sequential_1 (Sequential)        (None, 1)             0           lambda_1[0][0]                   
====================================================================================================
Total params: 2018435
____________________________________________________________________________________________________
____________________________________________________________________________________________________
Layer (type)                     Output Shape          Param #     Connected to                     
====================================================================================================
convolution2d_1 (Convolution2D)  (None, 32, 16, 16)    608         convolution2d_input_1[0][0]      
____________________________________________________________________________________________________
leakyrelu_1 (LeakyReLU)          (None, 32, 16, 16)    0           convolution2d_1[0][0]            
____________________________________________________________________________________________________
dropout_1 (Dropout)              (None, 32, 16, 16)    0           leakyrelu_1[0][0]                
____________________________________________________________________________________________________
convolution2d_2 (Convolution2D)  (None, 64, 8, 8)      18496       dropout_1[0][0]                  
____________________________________________________________________________________________________
leakyrelu_2 (LeakyReLU)          (None, 64, 8, 8)      0           convolution2d_2[0][0]            
____________________________________________________________________________________________________
dropout_2 (Dropout)              (None, 64, 8, 8)      0           leakyrelu_2[0][0]                
____________________________________________________________________________________________________
convolution2d_3 (Convolution2D)  (None, 128, 4, 4)     73856       dropout_2[0][0]                  
____________________________________________________________________________________________________
leakyrelu_3 (LeakyReLU)          (None, 128, 4, 4)     0           convolution2d_3[0][0]            
____________________________________________________________________________________________________
dropout_3 (Dropout)              (None, 128, 4, 4)     0           leakyrelu_3[0][0]                
____________________________________________________________________________________________________
convolution2d_4 (Convolution2D)  (None, 256, 2, 2)     295168      dropout_3[0][0]                  
____________________________________________________________________________________________________
leakyrelu_4 (LeakyReLU)          (None, 256, 2, 2)     0           convolution2d_4[0][0]            
____________________________________________________________________________________________________
dropout_4 (Dropout)              (None, 256, 2, 2)     0           leakyrelu_4[0][0]                
____________________________________________________________________________________________________
flatten_1 (Flatten)              (None, 1024)          0           dropout_4[0][0]                  
____________________________________________________________________________________________________
dense_1 (Dense)                  (None, 256)           262400      flatten_1[0][0]                  
_____________________________________________________________________________________----------------------------------
('Training with dataset based on class - ', 'airplane', 'with', 5000, 'samples')
----------------------------------
____________________________________________________________________________________________________
Layer (type)                     Output Shape          Param #     Connected to                     
====================================================================================================
sequential_2 (Sequential)        (None, 2, 32, 32)     1367650                                      
____________________________________________________________________________________________________
sequential_1 (Sequential)        (None, 1)             0           lambda_1[0][0]                   
====================================================================================================
Total params: 2018435
____________________________________________________________________________________________________
____________________________________________________________________________________________________
Layer (type)                     Output Shape          Param #     Connected to                     
====================================================================================================
convolution2d_1 (Convolution2D)  (None, 32, 16, 16)    608         convolution2d_input_1[0][0]      
____________________________________________________________________________________________________
leakyrelu_1 (LeakyReLU)          (None, 32, 16, 16)    0           convolution2d_1[0][0]            
____________________________________________________________________________________________________
dropout_1 (Dropout)              (None, 32, 16, 16)    0           leakyrelu_1[0][0]                
____________________________________________________________________________________________________
convolution2d_2 (Convolution2D)  (None, 64, 8, 8)      18496       dropout_1[0][0]                  
____________________________________________________________________________________________________
leakyrelu_2 (LeakyReLU)          (None, 64, 8, 8)      0           convolution2d_2[0][0]            
____________________________________________________________________________________________________
dropout_2 (Dropout)              (None, 64, 8, 8)      0           leakyrelu_2[0][0]                
____________________________________________________________________________________________________
convolution2d_3 (Convolution2D)  (None, 128, 4, 4)     73856       dropout_2[0][0]                  
____________________________________________________________________________________________________
leakyrelu_3 (LeakyReLU)          (None, 128, 4, 4)     0           convolution2d_3[0][0]            
____________________________________________________________________________________________________
dropout_3 (Dropout)              (None, 128, 4, 4)     0           leakyrelu_3[0][0]                
____________________________________________________________________________________________________
convolution2d_4 (Convolution2D)  (None, 256, 2, 2)     295168      dropout_3[0][0]                  
____________________________________________________________________________________________________
leakyrelu_4 (LeakyReLU)          (None, 256, 2, 2)     0           convolution2d_4[0][0]            
____________________________________________________________________________________________________
dropout_4 (Dropout)              (None, 256, 2, 2)     0           leakyrelu_4[0][0]                
____________________________________________________________________________________________________
flatten_1 (Flatten)              (None, 1024)          0           dropout_4[0][0]                  
____________________________________________________________________________________________________
dense_1 (Dense)                  (None, 256)           262400      flatten_1[0][0]                  
____________________________________________________________________________________________________
leakyrelu_5 (LeakyReLU)          (None, 256)           0           dense_1[0][0]                    
____________________________________________________________________________________________________
dropout_5 (Dropout)              (None, 256)           0           leakyrelu_5[0][0]                
____________________________________________________________________________________________________
dense_2 (Dense)                  (None, 1)             257         dropout_5[0][0]                  
====================================================================================================
Total params: 650785
____________________________________________________________________________________________________
('Epoch', 1, 'of', 50)
('Number of batches', 19)
('GAN loss 0.5621 ', 'GAN acc 0.7305', 'Discriminator loss 4.8536', 'Discriminator accuracy 0.4863', 'Total loss: 5.4157', 'for batch', 0)
…
('GAN loss 1.9270 ', 'GAN acc 0.0000', 'Discriminator loss 0.1552', 'Discriminator accuracy 0.9766', 'Total loss: 2.0823', 'for batch', 3)
----------------------------------
('Training with dataset based on class - ', 'airplane', 'with', 5000, 'samples')
----------------------------------
____________________________________________________________________________________________________
Layer (type)                     Output Shape          Param #     Connected to                     
====================================================================================================
sequential_2 (Sequential)        (None, 2, 32, 32)     1367650                                      
____________________________________________________________________________________________________
sequential_1 (Sequential)        (None, 1)             0           lambda_1[0][0]                   
====================================================================================================
Total params: 2018435
____________________________________________________________________________________________________
____________________________________________________________________________________________________
Layer (type)                     Output Shape          Param #     Connected to                     
====================================================================================================
convolution2d_1 (Convolution2D)  (None, 32, 16, 16)    608         convolution2d_input_1[0][0]      
____________________________________________________________________________________________________
leakyrelu_1 (LeakyReLU)          (None, 32, 16, 16)    0           convolution2d_1[0][0]            
____________________________________________________________________________________________________
dropout_1 (Dropout)              (None, 32, 16, 16)    0           leakyrelu_1[0][0]                
____________________________________________________________________________________________________
convolution2d_2 (Convolution2D)  (None, 64, 8, 8)      18496       dropout_1[0][0]                  
____________________________________________________________________________________________________
leakyrelu_2 (LeakyReLU)          (None, 64, 8, 8)      0           convolution2d_2[0][0]            
____________________________________________________________________________________________________
dropout_2 (Dropout)              (None, 64, 8, 8)      0           leakyrelu_2[0][0]                
____________________________________________________________________________________________________
convolution2d_3 (Convolution2D)  (None, 128, 4, 4)     73856       dropout_2[0][0]                  
____________________________________________________________________________________________________
leakyrelu_3 (LeakyReLU)          (None, 128, 4, 4)     0           convolution2d_3[0][0]            
____________________________________________________________________________________________________
dropout_3 (Dropout)              (None, 128, 4, 4)     0           leakyrelu_3[0][0]                
____________________________________________________________________________________________________
convolution2d_4 (Convolution2D)  (None, 256, 2, 2)     295168      dropout_3[0][0]                  
____________________________________________________________________________________________________
leakyrelu_4 (LeakyReLU)          (None, 256, 2, 2)     0           convolution2d_4[0][0]            
____________________________________________________________________________________________________
dropout_4 (Dropout)              (None, 256, 2, 2)     0           leakyrelu_4[0][0]                
____________________________________________________________________________________________________
flatten_1 (Flatten)              (None, 1024)          0           dropout_4[0][0]                  
____________________________________________________________________________________________________
dense_1 (Dense)                  (None, 256)           262400      flatten_1[0][0]                  
____________________________________________________________________________________________________
leakyrelu_5 (LeakyReLU)          (None, 256)           0           dense_1[0][0]                    
____________________________________________________________________________________________________
dropout_5 (Dropout)              (None, 256)           0           leakyrelu_5[0][0]                
____________________________________________________________________________________________________
dense_2 (Dense)                  (None, 1)             257         dropout_5[0][0]                  
====================================================================================================
Total params: 650785
____________________________________________________________________________________________________
('Epoch', 1, 'of', 50)
('Number of batches', 19)
('GAN loss 0.5621 ', 'GAN acc 0.7305', 'Discriminator loss 4.8536', 'Discriminator accuracy 0.4863', 'Total loss: 5.4157', 'for batch', 0)
…
('GAN loss 0.9967 ', 'GAN acc 0.0820', 'Discriminator loss 0.3102', 'Discriminator accuracy 0.9316', 'Total loss: 1.3069', 'for batch', 14)
----------------------------------
('Training with dataset based on class - ', 'airplane', 'with', 5000, 'samples')
----------------------------------
____________________________________________________________________________________________________
Layer (type)                     Output Shape          Param #     Connected to                     
====================================================================================================
sequential_2 (Sequential)        (None, 2, 32, 32)     1367650                                      
____________________________________________________________________________________________________
sequential_1 (Sequential)        (None, 1)             0           lambda_1[0][0]                   
====================================================================================================
Total params: 2018435
____________________________________________________________________________________________________
____________________________________________________________________________________________________
Layer (type)                     Output Shape          Param #     Connected to                     
====================================================================================================
convolution2d_1 (Convolution2D)  (None, 32, 16, 16)    608         convolution2d_input_1[0][0]      
____________________________________________________________________________________________________
leakyrelu_1 (LeakyReLU)          (None, 32, 16, 16)    0           convolution2d_1[0][0]            
____________________________________________________________________________________________________
dropout_1 (Dropout)              (None, 32, 16, 16)    0           leakyrelu_1[0][0]                
____________________________________________________________________________________________________
convolution2d_2 (Convolution2D)  (None, 64, 8, 8)      18496       dropout_1[0][0]                  
____________________________________________________________________________________________________
leakyrelu_2 (LeakyReLU)          (None, 64, 8, 8)      0           convolution2d_2[0][0]            
____________________________________________________________________________________________________
dropout_2 (Dropout)              (None, 64, 8, 8)      0           leakyrelu_2[0][0]                
____________________________________________________________________________________________________
convolution2d_3 (Convolution2D)  (None, 128, 4, 4)     73856       dropout_2[0][0]                  
____________________________________________________________________________________________________
leakyrelu_3 (LeakyReLU)          (None, 128, 4, 4)     0           convolution2d_3[0][0]            
____________________________________________________________________________________________________
dropout_3 (Dropout)              (None, 128, 4, 4)     0           leakyrelu_3[0][0]                
____________________________________________________________________________________________________
convolution2d_4 (Convolution2D)  (None, 256, 2, 2)     295168      dropout_3[0][0]                  
____________________________________________________________________________________________________
leakyrelu_4 (LeakyReLU)          (None, 256, 2, 2)     0           convolution2d_4[0][0]            
____________________________________________________________________________________________________
dropout_4 (Dropout)              (None, 256, 2, 2)     0           leakyrelu_4[0][0]                
____________________________________________________________________________________________________
flatten_1 (Flatten)              (None, 1024)          0           dropout_4[0][0]                  
____________________________________________________________________________________________________
dense_1 (Dense)                  (None, 256)           262400      flatten_1[0][0]                  
____________________________________________________________________________________________________
leakyrelu_5 (LeakyReLU)          (None, 256)           0           dense_1[0][0]                    
____________________________________________________________________________________________________
dropout_5 (Dropout)              (None, 256)           0           leakyrelu_5[0][0]                
____________________________________________________________________________________________________
dense_2 (Dense)                  (None, 1)             257         dropout_5[0][0]                  
====================================================================================================
Total params: 650785
____________________________________________________________________________________________________
('Epoch', 1, 'of', 50)
('Number of batches', 19)
----------------------------------
('Training with dataset based on class - ', 'airplane', 'with', 5000, 'samples')
----------------------------------
____________________________________________________________________________________________________
Layer (type)                     Output Shape          Param #     Connected to                     
====================================================================================================
sequential_2 (Sequential)        (None, 2, 32, 32)     1367650                                      
____________________________________________________________________________________________________
sequential_1 (Sequential)        (None, 1)             0           lambda_1[0][0]                   
====================================================================================================
Total params: 2018435
____________________________________________________________________________________________________
____________________________________________________________________________________________________
Layer (type)                     Output Shape          Param #     Connected to                     
====================================================================================================
convolution2d_1 (Convolution2D)  (None, 32, 16, 16)    608         convolution2d_input_1[0][0]      
____________________________________________________________________________________________________
leakyrelu_1 (LeakyReLU)          (None, 32, 16, 16)    0           convolution2d_1[0][0]            
____________________________________________________________________________________________________
dropout_1 (Dropout)              (None, 32, 16, 16)    0           leakyrelu_1[0][0]                
____________________________________________________________________________________________________
convolution2d_2 (Convolution2D)  (None, 64, 8, 8)      18496       dropout_1[0][0]                  
____________________________________________________________________________________________________
leakyrelu_2 (LeakyReLU)          (None, 64, 8, 8)      0           convolution2d_2[0][0]            
____________________________________________________________________________________________________
dropout_2 (Dropout)              (None, 64, 8, 8)      0           leakyrelu_2[0][0]                
____________________________________________________________________________________________________
convolution2d_3 (Convolution2D)  (None, 128, 4, 4)     73856       dropout_2[0][0]                  
____________________________________________________________________________________________________
leakyrelu_3 (LeakyReLU)          (None, 128, 4, 4)     0           convolution2d_3[0][0]            
____________________________________________________________________________________________________
dropout_3 (Dropout)              (None, 128, 4, 4)     0           leakyrelu_3[0][0]                
____________________________________________________________________________________________________
convolution2d_4 (Convolution2D)  (None, 256, 2, 2)     295168      dropout_3[0][0]                  
____________________________________________________________________________________________________
leakyrelu_4 (LeakyReLU)          (None, 256, 2, 2)     0           convolution2d_4[0][0]            
____________________________________________________________________________________________________
dropout_4 (Dropout)              (None, 256, 2, 2)     0           leakyrelu_4[0][0]                
____________________________________________________________________________________________________
flatten_1 (Flatten)              (None, 1024)          0           dropout_4[0][0]                  
____________________________________________________________________________________________________
dense_1 (Dense)                  (None, 256)           262400      flatten_1[0][0]                  
____________________________________________________________________________________________________
leakyrelu_5 (LeakyReLU)          (None, 256)           0           dense_1[0][0]                    
____________________________________________________________________________________________________
dropout_5 (Dropout)              (None, 256)           0           leakyrelu_5[0][0]                
____________________________________________________________________________________________________
dense_2 (Dense)                  (None, 1)             257         dropout_5[0][0]                  
====================================================================================================
Total params: 650785
____________________________________________________________________________________________________
('Epoch', 1, 'of', 50)
('Number of batches', 19)
('GAN loss 0.5621 ', 'GAN acc 0.7305', 'Discriminator loss 4.8536', 'Discriminator accuracy 0.4863', 'Total loss: 5.4157', 'for batch', 0)
…
('GAN loss 3.2952 ', 'GAN acc 0.0000', 'Discriminator loss 0.0860', 'Discriminator accuracy 0.9805', 'Total loss: 3.3813', 'for batch', 1)
----------------------------------
('Training with dataset based on class - ', 'airplane', 'with', 5000, 'samples')
----------------------------------
____________________________________________________________________________________________________
Layer (type)                     Output Shape          Param #     Connected to                     
====================================================================================================
sequential_2 (Sequential)        (None, 2, 32, 32)     1367650                                      
____________________________________________________________________________________________________
sequential_1 (Sequential)        (None, 1)             0           lambda_1[0][0]                   
====================================================================================================
Total params: 1596531
____________________________________________________________________________________________________
____________________________________________________________________________________________________
Layer (type)                     Output Shape          Param #     Connected to                     
====================================================================================================
convolution2d_1 (Convolution2D)  (None, 16, 16, 16)    304         convolution2d_input_1[0][0]      
____________________________________________________________________________________________________
leakyrelu_1 (LeakyReLU)          (None, 16, 16, 16)    0           convolution2d_1[0][0]            
____________________________________________________________________________________________________
dropout_1 (Dropout)              (None, 16, 16, 16)    0           leakyrelu_1[0][0]                
____________________________________________________________________________________________________
convolution2d_2 (Convolution2D)  (None, 32, 8, 8)      4640        dropout_1[0][0]                  
____________________________________________________________________________________________________
leakyrelu_2 (LeakyReLU)          (None, 32, 8, 8)      0           convolution2d_2[0][0]            
____________________________________________________________________________________________________
dropout_2 (Dropout)              (None, 32, 8, 8)      0           leakyrelu_2[0][0]                
____________________________________________________________________________________________________
convolution2d_3 (Convolution2D)  (None, 64, 4, 4)      18496       dropout_2[0][0]                  
____________________________________________________________________________________________________
leakyrelu_3 (LeakyReLU)          (None, 64, 4, 4)      0           convolution2d_3[0][0]            
____________________________________________________________________________________________________
dropout_3 (Dropout)              (None, 64, 4, 4)      0           leakyrelu_3[0][0]                
____________________________________________________________________________________________________
convolution2d_4 (Convolution2D)  (None, 128, 2, 2)     73856       dropout_3[0][0]                  
____________________________________________________________________________________________________
leakyrelu_4 (LeakyReLU)          (None, 128, 2, 2)     0           convolution2d_4[0][0]            
____________________________________________________________________________________________________
dropout_4 (Dropout)              (None, 128, 2, 2)     0           leakyrelu_4[0][0]                
____________________________________________________________________________________________________
flatten_1 (Flatten)              (None, 512)           0           dropout_4[0][0]                  
____________________________________________________________________________________________________
dense_1 (Dense)                  (None, 256)           131328      flatten_1[0][0]                  
____________________________________________________________________________________________________
leakyrelu_5 (LeakyReLU)          (None, 256)           0           dense_1[0][0]                    
____________________________________________________________________________________________________
dropout_5 (Dropout)              (None, 256)           0           leakyrelu_5[0][0]                
____________________________________________________________________________________________________
dense_2 (Dense)                  (None, 1)             257         dropout_5[0][0]                  
====================================================================================================
Total params: 228881
____________________________________________________________________________________________________
('Epoch', 1, 'of', 50)
('Number of batches', 19)
('GAN loss 0.5172 ', 'GAN acc 0.7812', 'Discriminator loss 2.4692', 'Discriminator accuracy 0.4824', 'Total loss: 2.9864', 'for batch', 0)
…
End of training
Saving histograms
----------------------------------
('Total samples = ', 5000, ' Batch size =', 256, ' Epochs = ', 50)
('Generator loss 3.2970 ', 'Discriminator loss 0.0461', 'Total: 3.3431')
----------------------------------
---DISCRIMINATOR---
____________________________________________________________________________________________________
Layer (type)                     Output Shape          Param #     Connected to                     
====================================================================================================
convolution2d_1 (Convolution2D)  (None, 16, 16, 16)    304         convolution2d_input_1[0][0]      
____________________________________________________________________________________________________
leakyrelu_1 (LeakyReLU)          (None, 16, 16, 16)    0           convolution2d_1[0][0]            
____________________________________________________________________________________________________
dropout_1 (Dropout)              (None, 16, 16, 16)    0           leakyrelu_1[0][0]                
____________________________________________________________________________________________________
convolution2d_2 (Convolution2D)  (None, 32, 8, 8)      4640        dropout_1[0][0]                  
____________________________________________________________________________________________________
leakyrelu_2 (LeakyReLU)          (None, 32, 8, 8)      0           convolution2d_2[0][0]            
____________________________________________________________________________________________________
dropout_2 (Dropout)              (None, 32, 8, 8)      0           leakyrelu_2[0][0]                
____________________________________________________________________________________________________
convolution2d_3 (Convolution2D)  (None, 64, 4, 4)      18496       dropout_2[0][0]                  
____________________________________________________________________________________________________
leakyrelu_3 (LeakyReLU)          (None, 64, 4, 4)      0           convolution2d_3[0][0]            
____________________________________________________________________________________________________
dropout_3 (Dropout)              (None, 64, 4, 4)      0           leakyrelu_3[0][0]                
____________________________________________________________________________________________________
convolution2d_4 (Convolution2D)  (None, 128, 2, 2)     73856       dropout_3[0][0]                  
____________________________________________________________________________________________________
leakyrelu_4 (LeakyReLU)          (None, 128, 2, 2)     0           convolution2d_4[0][0]            
____________________________________________________________________________________________________
dropout_4 (Dropout)              (None, 128, 2, 2)     0           leakyrelu_4[0][0]                
____________________________________________________________________________________________________
flatten_1 (Flatten)              (None, 512)           0           dropout_4[0][0]                  
____________________________________________________________________________________________________
dense_1 (Dense)                  (None, 256)           131328      flatten_1[0][0]                  
____________________________________________________________________________________________________
leakyrelu_5 (LeakyReLU)          (None, 256)           0           dense_1[0][0]                    
____________________________________________________________________________________________________
dropout_5 (Dropout)              (None, 256)           0           leakyrelu_5[0][0]                
____________________________________________________________________________________________________
dense_2 (Dense)                  (None, 1)             257         dropout_5[0][0]                  
====================================================================================================
Total params: 228881
____________________________________________________________________________________________________
None
----------------------------------
---GENERATOR---
____________________________________________________________________________________________________
Layer (type)                     Output Shape          Param #     Connected to                     
====================================================================================================
convolution2d_5 (Convolution2D)  (None, 32, 32, 32)    320         convolution2d_input_2[0][0]      
____________________________________________________________________________________________________
leakyrelu_6 (LeakyReLU)          (None, 32, 32, 32)    0           convolution2d_5[0][0]            
____________________________________________________________________________________________________
convolution2d_6 (Convolution2D)  (None, 64, 32, 32)    18496       leakyrelu_6[0][0]                
____________________________________________________________________________________________________
batchnormalization_1 (BatchNormal(None, 64, 32, 32)    128         convolution2d_6[0][0]            
____________________________________________________________________________________________________
leakyrelu_7 (LeakyReLU)          (None, 64, 32, 32)    0           batchnormalization_1[0][0]       
____________________________________________________________________________________________________
convolution2d_7 (Convolution2D)  (None, 128, 32, 32)   73856       leakyrelu_7[0][0]                
____________________________________________________________________________________________________
batchnormalization_2 (BatchNormal(None, 128, 32, 32)   256         convolution2d_7[0][0]            
____________________________________________________________________________________________________
leakyrelu_8 (LeakyReLU)          (None, 128, 32, 32)   0           batchnormalization_2[0][0]       
____________________________________________________________________________________________________
convolution2d_8 (Convolution2D)  (None, 256, 32, 32)   295168      leakyrelu_8[0][0]                
____________________________________________________________________________________________________
batchnormalization_3 (BatchNormal(None, 256, 32, 32)   512         convolution2d_8[0][0]            
____________________________________________________________________________________________________
leakyrelu_9 (LeakyReLU)          (None, 256, 32, 32)   0           batchnormalization_3[0][0]       
____________________________________________________________________________________________________
convolution2d_9 (Convolution2D)  (None, 256, 32, 32)   590080      leakyrelu_9[0][0]                
____________________________________________________________________________________________________
batchnormalization_4 (BatchNormal(None, 256, 32, 32)   512         convolution2d_9[0][0]            
____________________________________________________________________________________________________
leakyrelu_10 (LeakyReLU)         (None, 256, 32, 32)   0           batchnormalization_4[0][0]       
____________________________________________________________________________________________________
convolution2d_10 (Convolution2D) (None, 128, 32, 32)   295040      leakyrelu_10[0][0]               
____________________________________________________________________________________________________
batchnormalization_5 (BatchNormal(None, 128, 32, 32)   256         convolution2d_10[0][0]           
____________________________________________________________________________________________________
leakyrelu_11 (LeakyReLU)         (None, 128, 32, 32)   0           batchnormalization_5[0][0]       
____________________________________________________________________________________________________
convolution2d_11 (Convolution2D) (None, 64, 32, 32)    73792       leakyrelu_11[0][0]               
____________________________________________________________________________________________________
batchnormalization_6 (BatchNormal(None, 64, 32, 32)    128         convolution2d_11[0][0]           
____________________________________________________________________________________________________
leakyrelu_12 (LeakyReLU)         (None, 64, 32, 32)    0           batchnormalization_6[0][0]       
____________________________________________________________________________________________________
convolution2d_12 (Convolution2D) (None, 32, 32, 32)    18464       leakyrelu_12[0][0]               
____________________________________________________________________________________________________
batchnormalization_7 (BatchNormal(None, 32, 32, 32)    64          convolution2d_12[0][0]           
____________________________________________________________________________________________________
leakyrelu_13 (LeakyReLU)         (None, 32, 32, 32)    0           batchnormalization_7[0][0]       
____________________________________________________________________________________________________
convolution2d_13 (Convolution2D) (None, 2, 32, 32)     578         leakyrelu_13[0][0]               
____________________________________________________________________________________________________
lambda_1 (Lambda)                (None, 2, 32, 32)     0           convolution2d_13[0][0]           
====================================================================================================
Total params: 1367650
____________________________________________________________________________________________________
None
----------------------------------
---GAN---
____________________________________________________________________________________________________
Layer (type)                     Output Shape          Param #     Connected to                     
====================================================================================================
sequential_2 (Sequential)        (None, 2, 32, 32)     1367650                                      
____________________________________________________________________________________________________
sequential_1 (Sequential)        (None, 1)             0           lambda_1[0][0]                   
====================================================================================================
Total params: 1596531
____________________________________________________________________________________________________
None
----------------------------------
('Training with dataset based on class - ', 'automobile', 'with', 5000, 'samples')
----------------------------------
____________________________________________________________________________________________________
Layer (type)                     Output Shape          Param #     Connected to                     
====================================================================================================
sequential_5 (Sequential)        (None, 2, 32, 32)     1367650                                      
____________________________________________________________________________________________________
sequential_4 (Sequential)        (None, 1)             0           lambda_2[0][0]                   
====================================================================================================
Total params: 1596531
____________________________________________________________________________________________________
____________________________________________________________________________________________________
Layer (type)                     Output Shape          Param #     Connected to                     
====================================================================================================
convolution2d_14 (Convolution2D) (None, 16, 16, 16)    304         convolution2d_input_3[0][0]      
____________________________________________________________________________________________________
leakyrelu_14 (LeakyReLU)         (None, 16, 16, 16)    0           convolution2d_14[0][0]           
____________________________________________________________________________________________________
dropout_6 (Dropout)              (None, 16, 16, 16)    0           leakyrelu_14[0][0]               
____________________________________________________________________________________________________
convolution2d_15 (Convolution2D) (None, 32, 8, 8)      4640        dropout_6[0][0]                  
____________________________________________________________________________________________________
leakyrelu_15 (LeakyReLU)         (None, 32, 8, 8)      0           convolution2d_15[0][0]           
____________________________________________________________________________________________________
dropout_7 (Dropout)              (None, 32, 8, 8)      0           leakyrelu_15[0][0]               
____________________________________________________________________________________________________
convolution2d_16 (Convolution2D) (None, 64, 4, 4)      18496       dropout_7[0][0]                  
____________________________________________________________________________________________________
leakyrelu_16 (LeakyReLU)         (None, 64, 4, 4)      0           convolution2d_16[0][0]           
____________________________________________________________________________________________________
dropout_8 (Dropout)              (None, 64, 4, 4)      0           leakyrelu_16[0][0]               
____________________________________________________________________________________________________
convolution2d_17 (Convolution2D) (None, 128, 2, 2)     73856       dropout_8[0][0]                  
____________________________________________________________________________________________________
leakyrelu_17 (LeakyReLU)         (None, 128, 2, 2)     0           convolution2d_17[0][0]           
____________________________________________________________________________________________________
dropout_9 (Dropout)              (None, 128, 2, 2)     0           leakyrelu_17[0][0]               
____________________________________________________________________________________________________
flatten_2 (Flatten)              (None, 512)           0           dropout_9[0][0]                  
____________________________________________________________________________________________________
dense_3 (Dense)                  (None, 256)           131328      flatten_2[0][0]                  
____________________________________________________________________________________________________
leakyrelu_18 (LeakyReLU)         (None, 256)           0           dense_3[0][0]                    
____________________________________________________________________________________________________
dropout_10 (Dropout)             (None, 256)           0           leakyrelu_18[0][0]               
____________________________________________________________________________________________________
dense_4 (Dense)                  (None, 1)             257         dropout_10[0][0]                 
====================================================================================================
Total params: 228881
____________________________________________________________________________________________________
('Epoch', 1, 'of', 50)
('Number of batches', 19)
('GAN loss 0.4596 ', 'GAN acc 0.8281', 'Discriminator loss 2.0424', 'Discriminator accuracy 0.5078', 'Total loss: 2.5020', 'for batch', 0)
…
End of training
Saving histograms
----------------------------------
('Total samples = ', 5000, ' Batch size =', 256, ' Epochs = ', 50)
('Generator loss 0.6913 ', 'Discriminator loss 0.6930', 'Total: 1.3842')
----------------------------------
---DISCRIMINATOR---
____________________________________________________________________________________________________
Layer (type)                     Output Shape          Param #     Connected to                     
====================================================================================================
convolution2d_1 (Convolution2D)  (None, 16, 16, 16)    304         convolution2d_input_1[0][0]      
____________________________________________________________________________________________________
leakyrelu_1 (LeakyReLU)          (None, 16, 16, 16)    0           convolution2d_1[0][0]            
____________________________________________________________________________________________________
dropout_1 (Dropout)              (None, 16, 16, 16)    0           leakyrelu_1[0][0]                
____________________________________________________________________________________________________
convolution2d_2 (Convolution2D)  (None, 32, 8, 8)      4640        dropout_1[0][0]                  
____________________________________________________________________________________________________
leakyrelu_2 (LeakyReLU)          (None, 32, 8, 8)      0           convolution2d_2[0][0]            
____________________________________________________________________________________________________
dropout_2 (Dropout)              (None, 32, 8, 8)      0           leakyrelu_2[0][0]                
____________________________________________________________________________________________________
convolution2d_3 (Convolution2D)  (None, 64, 4, 4)      18496       dropout_2[0][0]                  
____________________________________________________________________________________________________
leakyrelu_3 (LeakyReLU)          (None, 64, 4, 4)      0           convolution2d_3[0][0]            
____________________________________________________________________________________________________
dropout_3 (Dropout)              (None, 64, 4, 4)      0           leakyrelu_3[0][0]                
____________________________________________________________________________________________________
convolution2d_4 (Convolution2D)  (None, 128, 2, 2)     73856       dropout_3[0][0]                  
____________________________________________________________________________________________________
leakyrelu_4 (LeakyReLU)          (None, 128, 2, 2)     0           convolution2d_4[0][0]            
____________________________________________________________________________________________________
dropout_4 (Dropout)              (None, 128, 2, 2)     0           leakyrelu_4[0][0]                
____________________________________________________________________________________________________
flatten_1 (Flatten)              (None, 512)           0           dropout_4[0][0]                  
____________________________________________________________________________________________________
dense_1 (Dense)                  (None, 256)           131328      flatten_1[0][0]                  
____________________________________________________________________________________________________
leakyrelu_5 (LeakyReLU)          (None, 256)           0           dense_1[0][0]                    
____________________________________________________________________________________________________
dropout_5 (Dropout)              (None, 256)           0           leakyrelu_5[0][0]                
____________________________________________________________________________________________________
dense_2 (Dense)                  (None, 1)             257         dropout_5[0][0]                  
====================================================================================================
Total params: 228881
____________________________________________________________________________________________________
None
----------------------------------
---GENERATOR---
____________________________________________________________________________________________________
Layer (type)                     Output Shape          Param #     Connected to                     
====================================================================================================
convolution2d_5 (Convolution2D)  (None, 32, 32, 32)    320         convolution2d_input_2[0][0]      
____________________________________________________________________________________________________
leakyrelu_6 (LeakyReLU)          (None, 32, 32, 32)    0           convolution2d_5[0][0]            
____________________________________________________________________________________________________
convolution2d_6 (Convolution2D)  (None, 64, 32, 32)    18496       leakyrelu_6[0][0]                
____________________________________________________________________________________________________
batchnormalization_1 (BatchNormal(None, 64, 32, 32)    128         convolution2d_6[0][0]            
____________________________________________________________________________________________________
leakyrelu_7 (LeakyReLU)          (None, 64, 32, 32)    0           batchnormalization_1[0][0]       
____________________________________________________________________________________________________
convolution2d_7 (Convolution2D)  (None, 128, 32, 32)   73856       leakyrelu_7[0][0]                
____________________________________________________________________________________________________
batchnormalization_2 (BatchNormal(None, 128, 32, 32)   256         convolution2d_7[0][0]            
____________________________________________________________________________________________________
leakyrelu_8 (LeakyReLU)          (None, 128, 32, 32)   0           batchnormalization_2[0][0]       
____________________________________________________________________________________________________
convolution2d_8 (Convolution2D)  (None, 256, 32, 32)   295168      leakyrelu_8[0][0]                
____________________________________________________________________________________________________
batchnormalization_3 (BatchNormal(None, 256, 32, 32)   512         convolution2d_8[0][0]            
____________________________________________________________________________________________________
leakyrelu_9 (LeakyReLU)          (None, 256, 32, 32)   0           batchnormalization_3[0][0]       
____________________________________________________________________________________________________
convolution2d_9 (Convolution2D)  (None, 256, 32, 32)   590080      leakyrelu_9[0][0]                
____________________________________________________________________________________________________
batchnormalization_4 (BatchNormal(None, 256, 32, 32)   512         convolution2d_9[0][0]            
____________________________________________________________________________________________________
leakyrelu_10 (LeakyReLU)         (None, 256, 32, 32)   0           batchnormalization_4[0][0]       
____________________________________________________________________________________________________
convolution2d_10 (Convolution2D) (None, 128, 32, 32)   295040      leakyrelu_10[0][0]               
____________________________________________________________________________________________________
batchnormalization_5 (BatchNormal(None, 128, 32, 32)   256         convolution2d_10[0][0]           
____________________________________________________________________________________________________
leakyrelu_11 (LeakyReLU)         (None, 128, 32, 32)   0           batchnormalization_5[0][0]       
____________________________________________________________________________________________________
convolution2d_11 (Convolution2D) (None, 64, 32, 32)    73792       leakyrelu_11[0][0]               
____________________________________________________________________________________________________
batchnormalization_6 (BatchNormal(None, 64, 32, 32)    128         convolution2d_11[0][0]           
____________________________________________________________________________________________________
leakyrelu_12 (LeakyReLU)         (None, 64, 32, 32)    0           batchnormalization_6[0][0]       
____________________________________________________________________________________________________
convolution2d_12 (Convolution2D) (None, 32, 32, 32)    18464       leakyrelu_12[0][0]               
____________________________________________________________________________________________________
batchnormalization_7 (BatchNormal(None, 32, 32, 32)    64          convolution2d_12[0][0]           
____________________________________________________________________________________________________
leakyrelu_13 (LeakyReLU)         (None, 32, 32, 32)    0           batchnormalization_7[0][0]       
____________________________________________________________________________________________________
convolution2d_13 (Convolution2D) (None, 2, 32, 32)     578         leakyrelu_13[0][0]               
____________________________________________________________________________________________________
lambda_1 (Lambda)                (None, 2, 32, 32)     0           convolution2d_13[0][0]           
====================================================================================================
Total params: 1367650
____________________________________________________________________________________________________
None
----------------------------------
---GAN---
____________________________________________________________________________________________________
Layer (type)                     Output Shape          Param #     Connected to                     
====================================================================================================
sequential_2 (Sequential)        (None, 2, 32, 32)     1367650                                      
____________________________________________________________________________________________________
sequential_1 (Sequential)        (None, 1)             228881      lambda_1[0][0]                   
====================================================================================================
Total params: 1596531
____________________________________________________________________________________________________
None
----------------------------------
('Training with dataset based on class - ', 'automobile', 'with', 5000, 'samples')
----------------------------------
____________________________________________________________________________________________________
Layer (type)                     Output Shape          Param #     Connected to                     
====================================================================================================
sequential_5 (Sequential)        (None, 2, 32, 32)     1367650                                      
____________________________________________________________________________________________________
sequential_4 (Sequential)        (None, 1)             0           lambda_2[0][0]                   
====================================================================================================
Total params: 1596531
____________________________________________________________________________________________________
____________________________________________________________________________________________________
Layer (type)                     Output Shape          Param #     Connected to                     
====================================================================================================
convolution2d_14 (Convolution2D) (None, 16, 16, 16)    304         convolution2d_input_3[0][0]      
____________________________________________________________________________________________________
leakyrelu_14 (LeakyReLU)         (None, 16, 16, 16)    0           convolution2d_14[0][0]           
____________________________________________________________________________________________________
dropout_6 (Dropout)              (None, 16, 16, 16)    0           leakyrelu_14[0][0]               
____________________________________________________________________________________________________
convolution2d_15 (Convolution2D) (None, 32, 8, 8)      4640        dropout_6[0][0]                  
____________________________________________________________________________________________________
leakyrelu_15 (LeakyReLU)         (None, 32, 8, 8)      0           convolution2d_15[0][0]           
____________________________________________________________________________________________________
dropout_7 (Dropout)              (None, 32, 8, 8)      0           leakyrelu_15[0][0]               
____________________________________________________________________________________________________
convolution2d_16 (Convolution2D) (None, 64, 4, 4)      18496       dropout_7[0][0]                  
____________________________________________________________________________________________________
leakyrelu_16 (LeakyReLU)         (None, 64, 4, 4)      0           convolution2d_16[0][0]           
____________________________________________________________________________________________________
dropout_8 (Dropout)              (None, 64, 4, 4)      0           leakyrelu_16[0][0]               
____________________________________________________________________________________________________
convolution2d_17 (Convolution2D) (None, 128, 2, 2)     73856       dropout_8[0][0]                  
____________________________________________________________________________________________________
leakyrelu_17 (LeakyReLU)         (None, 128, 2, 2)     0           convolution2d_17[0][0]           
____________________________________________________________________________________________________
dropout_9 (Dropout)              (None, 128, 2, 2)     0           leakyrelu_17[0][0]               
____________________________________________________________________________________________________
flatten_2 (Flatten)              (None, 512)           0           dropout_9[0][0]                  
____________________________________________________________________________________________________
dense_3 (Dense)                  (None, 256)           131328      flatten_2[0][0]                  
____________________________________________________________________________________________________
leakyrelu_18 (LeakyReLU)         (None, 256)           0           dense_3[0][0]                    
____________________________________________________________________________________________________
dropout_10 (Dropout)             (None, 256)           0           leakyrelu_18[0][0]               
____________________________________________________________________________________________________
dense_4 (Dense)                  (None, 1)             257         dropout_10[0][0]                 
====================================================================================================
Total params: 228881
____________________________________________________________________________________________________
('Epoch', 1, 'of', 50)
('Number of batches', 19)
('GAN loss 0.5869 ', 'GAN acc 0.7305', 'Discriminator loss 0.7932', 'Discriminator accuracy 0.4551', 'Total loss: 1.3801', 'for batch', 0)
…
