Total samples =  1  Batch size = 256  Epochs =  50
MSE = 0.0105667198077  val_MSE = 0.0364252403378  loss = 0.0105667198077  val_loss = 0.0105667198077
----------------------------------
____________________________________________________________________________________________________
Layer (type)                     Output Shape          Param #     Connected to                     
====================================================================================================
convolution2d_1 (Convolution2D)  (None, 8, 32, 32)     80          convolution2d_input_1[0][0]      
____________________________________________________________________________________________________
convolution2d_2 (Convolution2D)  (None, 16, 32, 32)    1168        convolution2d_1[0][0]            
____________________________________________________________________________________________________
convolution2d_3 (Convolution2D)  (None, 32, 32, 32)    4640        convolution2d_2[0][0]            
____________________________________________________________________________________________________
convolution2d_4 (Convolution2D)  (None, 64, 32, 32)    18496       convolution2d_3[0][0]            
____________________________________________________________________________________________________
convolution2d_5 (Convolution2D)  (None, 32, 32, 32)    18464       convolution2d_4[0][0]            
____________________________________________________________________________________________________
convolution2d_6 (Convolution2D)  (None, 16, 32, 32)    4624        convolution2d_5[0][0]            
____________________________________________________________________________________________________
convolution2d_7 (Convolution2D)  (None, 8, 32, 32)     1160        convolution2d_6[0][0]            
____________________________________________________________________________________________________
convolution2d_8 (Convolution2D)  (None, 3, 32, 32)     219         convolution2d_7[0][0]            
____________________________________________________________________________________________________
lambda_1 (Lambda)                (None, 3, 32, 32)     0           convolution2d_8[0][0]            
====================================================================================================
Total params: 48851
____________________________________________________________________________________________________
None
----------------------------------
