----------------------------------
('Training with dataset based on class - ', 'horse', 'with', 5000, 'samples')
----------------------------------
____________________________________________________________________________________________________
Layer (type)                     Output Shape          Param #     Connected to                     
====================================================================================================
sequential_2 (Sequential)        (None, 2, 32, 32)     1367650                                      
____________________________________________________________________________________________________
sequential_1 (Sequential)        (None, 1)             0           lambda_1[0][0]                   
====================================================================================================
Total params: 2281091
____________________________________________________________________________________________________
____________________________________________________________________________________________________
Layer (type)                     Output Shape          Param #     Connected to                     
====================================================================================================
convolution2d_1 (Convolution2D)  (None, 32, 16, 16)    608         convolution2d_input_1[0][0]      
____________________________________________________________________________________________________
leakyrelu_1 (LeakyReLU)          (None, 32, 16, 16)    0           convolution2d_1[0][0]            
____________________________________________________________________________________________________
convolution2d_2 (Convolution2D)  (None, 64, 8, 8)      18496       leakyrelu_1[0][0]                
____________________________________________________________________________________________________
leakyrelu_2 (LeakyReLU)          (None, 64, 8, 8)      0           convolution2d_2[0][0]            
____________________________________________________________________________________________________
convolution2d_3 (Convolution2D)  (None, 128, 4, 4)     73856       leakyrelu_2[0][0]                
____________________________________________________________________________________________________
leakyrelu_3 (LeakyReLU)          (None, 128, 4, 4)     0           convolution2d_3[0][0]            
____________________________________________________________________________________________________
dropout_1 (Dropout)              (None, 128, 4, 4)     0           leakyrelu_3[0][0]                
____________________________________________________________________________________________________
convolution2d_4 (Convolution2D)  (None, 256, 2, 2)     295168      dropout_1[0][0]                  
____________________________________________________________________________________________________
leakyrelu_4 (LeakyReLU)          (None, 256, 2, 2)     0           convolution2d_4[0][0]            
____________________________________________________________________________________________________
dropout_2 (Dropout)              (None, 256, 2, 2)     0           leakyrelu_4[0][0]                
____________________________________________________________________________________________________
flatten_1 (Flatten)              (None, 1024)          0           dropout_2[0][0]                  
____________________________________________________________________________________________________
dense_1 (Dense)                  (None, 512)           524800      flatten_1[0][0]                  
____________________________________________________________________________________________________
leakyrelu_5 (LeakyReLU)          (None, 512)           0           dense_1[0][0]                    
____________________________________________________________________________________________________
dropout_3 (Dropout)              (None, 512)           0           leakyrelu_5[0][0]                
____________________________________________________________________________________________________
dense_2 (Dense)                  (None, 1)             513         dropout_3[0][0]                  
====================================================================================================
Total params: 913441
____________________________________________________________________________________________________
('Epoch', 1, 'of', 50)
('Number of batches', 19)
('GAN loss 1.0811 ', 'GAN acc 0.1250', 'Discriminator loss 0.6284', 'Discriminator accuracy 0.6602', 'Total loss: 1.7095', 'for batch', 0)
…
End of training
Saving histograms
----------------------------------
('Total samples = ', 5000, ' Batch size =', 256, ' Epochs = ', 50)
('Generator loss 0.7002 ', 'Discriminator loss 0.6916', 'Total: 1.3918')
----------------------------------
---DISCRIMINATOR---
____________________________________________________________________________________________________
Layer (type)                     Output Shape          Param #     Connected to                     
====================================================================================================
convolution2d_1 (Convolution2D)  (None, 32, 16, 16)    608         convolution2d_input_1[0][0]      
____________________________________________________________________________________________________
leakyrelu_1 (LeakyReLU)          (None, 32, 16, 16)    0           convolution2d_1[0][0]            
____________________________________________________________________________________________________
convolution2d_2 (Convolution2D)  (None, 64, 8, 8)      18496       leakyrelu_1[0][0]                
____________________________________________________________________________________________________
leakyrelu_2 (LeakyReLU)          (None, 64, 8, 8)      0           convolution2d_2[0][0]            
____________________________________________________________________________________________________
convolution2d_3 (Convolution2D)  (None, 128, 4, 4)     73856       leakyrelu_2[0][0]                
____________________________________________________________________________________________________
leakyrelu_3 (LeakyReLU)          (None, 128, 4, 4)     0           convolution2d_3[0][0]            
____________________________________________________________________________________________________
dropout_1 (Dropout)              (None, 128, 4, 4)     0           leakyrelu_3[0][0]                
____________________________________________________________________________________________________
convolution2d_4 (Convolution2D)  (None, 256, 2, 2)     295168      dropout_1[0][0]                  
____________________________________________________________________________________________________
leakyrelu_4 (LeakyReLU)          (None, 256, 2, 2)     0           convolution2d_4[0][0]            
____________________________________________________________________________________________________
dropout_2 (Dropout)              (None, 256, 2, 2)     0           leakyrelu_4[0][0]                
____________________________________________________________________________________________________
flatten_1 (Flatten)              (None, 1024)          0           dropout_2[0][0]                  
____________________________________________________________________________________________________
dense_1 (Dense)                  (None, 512)           524800      flatten_1[0][0]                  
____________________________________________________________________________________________________
leakyrelu_5 (LeakyReLU)          (None, 512)           0           dense_1[0][0]                    
____________________________________________________________________________________________________
dropout_3 (Dropout)              (None, 512)           0           leakyrelu_5[0][0]                
____________________________________________________________________________________________________
dense_2 (Dense)                  (None, 1)             513         dropout_3[0][0]                  
====================================================================================================
Total params: 913441
____________________________________________________________________________________________________
None
----------------------------------
---GENERATOR---
____________________________________________________________________________________________________
Layer (type)                     Output Shape          Param #     Connected to                     
====================================================================================================
convolution2d_5 (Convolution2D)  (None, 32, 32, 32)    320         convolution2d_input_2[0][0]      
____________________________________________________________________________________________________
leakyrelu_6 (LeakyReLU)          (None, 32, 32, 32)    0           convolution2d_5[0][0]            
____________________________________________________________________________________________________
convolution2d_6 (Convolution2D)  (None, 64, 32, 32)    18496       leakyrelu_6[0][0]                
____________________________________________________________________________________________________
batchnormalization_1 (BatchNormal(None, 64, 32, 32)    128         convolution2d_6[0][0]            
____________________________________________________________________________________________________
leakyrelu_7 (LeakyReLU)          (None, 64, 32, 32)    0           batchnormalization_1[0][0]       
____________________________________________________________________________________________________
convolution2d_7 (Convolution2D)  (None, 128, 32, 32)   73856       leakyrelu_7[0][0]                
____________________________________________________________________________________________________
batchnormalization_2 (BatchNormal(None, 128, 32, 32)   256         convolution2d_7[0][0]            
____________________________________________________________________________________________________
leakyrelu_8 (LeakyReLU)          (None, 128, 32, 32)   0           batchnormalization_2[0][0]       
____________________________________________________________________________________________________
convolution2d_8 (Convolution2D)  (None, 256, 32, 32)   295168      leakyrelu_8[0][0]                
____________________________________________________________________________________________________
batchnormalization_3 (BatchNormal(None, 256, 32, 32)   512         convolution2d_8[0][0]            
____________________________________________________________________________________________________
leakyrelu_9 (LeakyReLU)          (None, 256, 32, 32)   0           batchnormalization_3[0][0]       
____________________________________________________________________________________________________
convolution2d_9 (Convolution2D)  (None, 256, 32, 32)   590080      leakyrelu_9[0][0]                
____________________________________________________________________________________________________
batchnormalization_4 (BatchNormal(None, 256, 32, 32)   512         convolution2d_9[0][0]            
____________________________________________________________________________________________________
leakyrelu_10 (LeakyReLU)         (None, 256, 32, 32)   0           batchnormalization_4[0][0]       
____________________________________________________________________________________________________
convolution2d_10 (Convolution2D) (None, 128, 32, 32)   295040      leakyrelu_10[0][0]               
____________________________________________________________________________________________________
batchnormalization_5 (BatchNormal(None, 128, 32, 32)   256         convolution2d_10[0][0]           
____________________________________________________________________________________________________
leakyrelu_11 (LeakyReLU)         (None, 128, 32, 32)   0           batchnormalization_5[0][0]       
____________________________________________________________________________________________________
convolution2d_11 (Convolution2D) (None, 64, 32, 32)    73792       leakyrelu_11[0][0]               
____________________________________________________________________________________________________
batchnormalization_6 (BatchNormal(None, 64, 32, 32)    128         convolution2d_11[0][0]           
____________________________________________________________________________________________________
leakyrelu_12 (LeakyReLU)         (None, 64, 32, 32)    0           batchnormalization_6[0][0]       
____________________________________________________________________________________________________
convolution2d_12 (Convolution2D) (None, 32, 32, 32)    18464       leakyrelu_12[0][0]               
____________________________________________________________________________________________________
batchnormalization_7 (BatchNormal(None, 32, 32, 32)    64          convolution2d_12[0][0]           
____________________________________________________________________________________________________
leakyrelu_13 (LeakyReLU)         (None, 32, 32, 32)    0           batchnormalization_7[0][0]       
____________________________________________________________________________________________________
convolution2d_13 (Convolution2D) (None, 2, 32, 32)     578         leakyrelu_13[0][0]               
____________________________________________________________________________________________________
lambda_1 (Lambda)                (None, 2, 32, 32)     0           convolution2d_13[0][0]           
====================================================================================================
Total params: 1367650
____________________________________________________________________________________________________
None
----------------------------------
---GAN---
____________________________________________________________________________________________________
Layer (type)                     Output Shape          Param #     Connected to                     
====================================================================================================
sequential_2 (Sequential)        (None, 2, 32, 32)     1367650                                      
____________________________________________________________________________________________________
sequential_1 (Sequential)        (None, 1)             913441      lambda_1[0][0]                   
====================================================================================================
Total params: 2281091
____________________________________________________________________________________________________
None
----------------------------------
('Training with dataset based on class - ', 'ship', 'with', 5000, 'samples')
----------------------------------
____________________________________________________________________________________________________
Layer (type)                     Output Shape          Param #     Connected to                     
====================================================================================================
sequential_5 (Sequential)        (None, 2, 32, 32)     1367650                                      
____________________________________________________________________________________________________
sequential_4 (Sequential)        (None, 1)             0           lambda_2[0][0]                   
====================================================================================================
Total params: 2281091
____________________________________________________________________________________________________
____________________________________________________________________________________________________
Layer (type)                     Output Shape          Param #     Connected to                     
====================================================================================================
convolution2d_14 (Convolution2D) (None, 32, 16, 16)    608         convolution2d_input_3[0][0]      
____________________________________________________________________________________________________
leakyrelu_14 (LeakyReLU)         (None, 32, 16, 16)    0           convolution2d_14[0][0]           
____________________________________________________________________________________________________
convolution2d_15 (Convolution2D) (None, 64, 8, 8)      18496       leakyrelu_14[0][0]               
____________________________________________________________________________________________________
leakyrelu_15 (LeakyReLU)         (None, 64, 8, 8)      0           convolution2d_15[0][0]           
____________________________________________________________________________________________________
convolution2d_16 (Convolution2D) (None, 128, 4, 4)     73856       leakyrelu_15[0][0]               
____________________________________________________________________________________________________
leakyrelu_16 (LeakyReLU)         (None, 128, 4, 4)     0           convolution2d_16[0][0]           
____________________________________________________________________________________________________
dropout_4 (Dropout)              (None, 128, 4, 4)     0           leakyrelu_16[0][0]               
____________________________________________________________________________________________________
convolution2d_17 (Convolution2D) (None, 256, 2, 2)     295168      dropout_4[0][0]                  
____________________________________________________________________________________________________
leakyrelu_17 (LeakyReLU)         (None, 256, 2, 2)     0           convolution2d_17[0][0]           
____________________________________________________________________________________________________
dropout_5 (Dropout)              (None, 256, 2, 2)     0           leakyrelu_17[0][0]               
____________________________________________________________________________________________________
flatten_2 (Flatten)              (None, 1024)          0           dropout_5[0][0]                  
____________________________________________________________________________________________________
dense_3 (Dense)                  (None, 512)           524800      flatten_2[0][0]                  
____________________________________________________________________________________________________
leakyrelu_18 (LeakyReLU)         (None, 512)           0           dense_3[0][0]                    
____________________________________________________________________________________________________
dropout_6 (Dropout)              (None, 512)           0           leakyrelu_18[0][0]               
____________________________________________________________________________________________________
dense_4 (Dense)                  (None, 1)             513         dropout_6[0][0]                  
====================================================================================================
Total params: 913441
____________________________________________________________________________________________________
('Epoch', 1, 'of', 50)
('Number of batches', 19)
('GAN loss 0.9781 ', 'GAN acc 0.2812', 'Discriminator loss 0.6272', 'Discriminator accuracy 0.6426', 'Total loss: 1.6053', 'for batch', 0)
…
