----------------------------------
('Training with dataset based on class - ', 'ship', 'with', 5000, 'samples')
----------------------------------
____________________________________________________________________________________________________
Layer (type)                     Output Shape          Param #     Connected to                     
====================================================================================================
sequential_5 (Sequential)        (None, 2, 32, 32)     1367650                                      
____________________________________________________________________________________________________
sequential_4 (Sequential)        (None, 1)             0           lambda_2[0][0]                   
====================================================================================================
Total params: 1887107
____________________________________________________________________________________________________
____________________________________________________________________________________________________
Layer (type)                     Output Shape          Param #     Connected to                     
====================================================================================================
convolution2d_14 (Convolution2D) (None, 32, 16, 16)    608         convolution2d_input_3[0][0]      
____________________________________________________________________________________________________
leakyrelu_14 (LeakyReLU)         (None, 32, 16, 16)    0           convolution2d_14[0][0]           
____________________________________________________________________________________________________
dropout_6 (Dropout)              (None, 32, 16, 16)    0           leakyrelu_14[0][0]               
____________________________________________________________________________________________________
convolution2d_15 (Convolution2D) (None, 64, 8, 8)      18496       dropout_6[0][0]                  
____________________________________________________________________________________________________
leakyrelu_15 (LeakyReLU)         (None, 64, 8, 8)      0           convolution2d_15[0][0]           
____________________________________________________________________________________________________
dropout_7 (Dropout)              (None, 64, 8, 8)      0           leakyrelu_15[0][0]               
____________________________________________________________________________________________________
convolution2d_16 (Convolution2D) (None, 128, 4, 4)     73856       dropout_7[0][0]                  
____________________________________________________________________________________________________
leakyrelu_16 (LeakyReLU)         (None, 128, 4, 4)     0           convolution2d_16[0][0]           
____________________________________________________________________________________________________
dropout_8 (Dropout)              (None, 128, 4, 4)     0           leakyrelu_16[0][0]               
____________________________________________________________________________________________________
convolution2d_17 (Convolution2D) (None, 256, 2, 2)     295168      dropout_8[0][0]                  
____________________________________________________________________________________________________
leakyrelu_17 (LeakyReLU)         (None, 256, 2, 2)     0           convolution2d_17[0][0]           
____________________________________________________________________________________________________
dropout_9 (Dropout)              (None, 256, 2, 2)     0           leakyrelu_17[0][0]               
____________________________________________________________________________________________________
flatten_2 (Flatten)              (None, 1024)          0           dropout_9[0][0]                  
____________________________________________________________________________________________________
dense_3 (Dense)                  (None, 128)           131200      flatten_2[0][0]                  
____________________________________________________________________________________________________
leakyrelu_18 (LeakyReLU)         (None, 128)           0           dense_3[0][0]                    
____________________________________________________________________________________________________
dropout_10 (Dropout)             (None, 128)           0           leakyrelu_18[0][0]               
____________________________________________________________________________________________________
dense_4 (Dense)                  (None, 1)             129         dropout_10[0][0]                 
====================================================================================================
Total params: 519457
____________________________________________________________________________________________________
('Epoch', 1, 'of', 50)
('Number of batches', 19)
('GAN loss 0.6431 ', 'GAN acc 0.6445', 'Discriminator loss 0.8050', 'Discriminator accuracy 0.4590', 'Total loss: 1.4481', 'for batch', 0)
…
