----------------------------------
('Training with dataset based on class - ', 'ship', 'with', 5000, 'samples')
----------------------------------
____________________________________________________________________________________________________
Layer (type)                     Output Shape          Param #     Connected to                     
====================================================================================================
model_2 (Model)                  (None, 2, 32, 32)     7846626                                      
____________________________________________________________________________________________________
sequential_3 (Sequential)        (None, 1)             0           convolution2d_46[0][0]           
====================================================================================================
Total params: 8366083
____________________________________________________________________________________________________
____________________________________________________________________________________________________
Layer (type)                     Output Shape          Param #     Connected to                     
====================================================================================================
convolution2d_24 (Convolution2D) (None, 32, 16, 16)    608         convolution2d_input_2[0][0]      
____________________________________________________________________________________________________
leakyrelu_6 (LeakyReLU)          (None, 32, 16, 16)    0           convolution2d_24[0][0]           
____________________________________________________________________________________________________
dropout_6 (Dropout)              (None, 32, 16, 16)    0           leakyrelu_6[0][0]                
____________________________________________________________________________________________________
convolution2d_25 (Convolution2D) (None, 64, 8, 8)      18496       dropout_6[0][0]                  
____________________________________________________________________________________________________
leakyrelu_7 (LeakyReLU)          (None, 64, 8, 8)      0           convolution2d_25[0][0]           
____________________________________________________________________________________________________
dropout_7 (Dropout)              (None, 64, 8, 8)      0           leakyrelu_7[0][0]                
____________________________________________________________________________________________________
convolution2d_26 (Convolution2D) (None, 128, 4, 4)     73856       dropout_7[0][0]                  
____________________________________________________________________________________________________
leakyrelu_8 (LeakyReLU)          (None, 128, 4, 4)     0           convolution2d_26[0][0]           
____________________________________________________________________________________________________
dropout_8 (Dropout)              (None, 128, 4, 4)     0           leakyrelu_8[0][0]                
____________________________________________________________________________________________________
convolution2d_27 (Convolution2D) (None, 256, 2, 2)     295168      dropout_8[0][0]                  
____________________________________________________________________________________________________
leakyrelu_9 (LeakyReLU)          (None, 256, 2, 2)     0           convolution2d_27[0][0]           
____________________________________________________________________________________________________
dropout_9 (Dropout)              (None, 256, 2, 2)     0           leakyrelu_9[0][0]                
____________________________________________________________________________________________________
flatten_2 (Flatten)              (None, 1024)          0           dropout_9[0][0]                  
____________________________________________________________________________________________________
dense_3 (Dense)                  (None, 128)           131200      flatten_2[0][0]                  
____________________________________________________________________________________________________
leakyrelu_10 (LeakyReLU)         (None, 128)           0           dense_3[0][0]                    
____________________________________________________________________________________________________
dropout_10 (Dropout)             (None, 128)           0           leakyrelu_10[0][0]               
____________________________________________________________________________________________________
dense_4 (Dense)                  (None, 1)             129         dropout_10[0][0]                 
====================================================================================================
Total params: 519457
____________________________________________________________________________________________________
('Epoch', 1, 'of', 50)
('Number of batches', 19)
('GAN loss 0.6811 ', 'GAN acc 0.7266', 'Discriminator loss 0.6370', 'Discriminator accuracy 0.5762', 'Total loss: 1.3181', 'for batch', 0)
…
