----------------------------------
('Training with dataset based on class - ', 'ship', 'with', 5000, 'samples')
----------------------------------
____________________________________________________________________________________________________
Layer (type)                     Output Shape          Param #     Connected to                     
====================================================================================================
sequential_26 (Sequential)       (None, 2, 32, 32)     1367650                                      
____________________________________________________________________________________________________
sequential_25 (Sequential)       (None, 1)             0           lambda_9[0][0]                   
====================================================================================================
Total params: 1596531
____________________________________________________________________________________________________
____________________________________________________________________________________________________
Layer (type)                     Output Shape          Param #     Connected to                     
====================================================================================================
convolution2d_105 (Convolution2D)(None, 16, 16, 16)    304         convolution2d_input_17[0][0]     
____________________________________________________________________________________________________
leakyrelu_105 (LeakyReLU)        (None, 16, 16, 16)    0           convolution2d_105[0][0]          
____________________________________________________________________________________________________
dropout_41 (Dropout)             (None, 16, 16, 16)    0           leakyrelu_105[0][0]              
____________________________________________________________________________________________________
convolution2d_106 (Convolution2D)(None, 32, 8, 8)      4640        dropout_41[0][0]                 
____________________________________________________________________________________________________
leakyrelu_106 (LeakyReLU)        (None, 32, 8, 8)      0           convolution2d_106[0][0]          
____________________________________________________________________________________________________
dropout_42 (Dropout)             (None, 32, 8, 8)      0           leakyrelu_106[0][0]              
____________________________________________________________________________________________________
convolution2d_107 (Convolution2D)(None, 64, 4, 4)      18496       dropout_42[0][0]                 
____________________________________________________________________________________________________
leakyrelu_107 (LeakyReLU)        (None, 64, 4, 4)      0           convolution2d_107[0][0]          
____________________________________________________________________________________________________
dropout_43 (Dropout)             (None, 64, 4, 4)      0           leakyrelu_107[0][0]              
____________________________________________________________________________________________________
convolution2d_108 (Convolution2D)(None, 128, 2, 2)     73856       dropout_43[0][0]                 
____________________________________________________________________________________________________
leakyrelu_108 (LeakyReLU)        (None, 128, 2, 2)     0           convolution2d_108[0][0]          
____________________________________________________________________________________________________
dropout_44 (Dropout)             (None, 128, 2, 2)     0           leakyrelu_108[0][0]              
____________________________________________________________________________________________________
flatten_9 (Flatten)              (None, 512)           0           dropout_44[0][0]                 
____________________________________________________________________________________________________
dense_17 (Dense)                 (None, 256)           131328      flatten_9[0][0]                  
____________________________________________________________________________________________________
leakyrelu_109 (LeakyReLU)        (None, 256)           0           dense_17[0][0]                   
____________________________________________________________________________________________________
dropout_45 (Dropout)             (None, 256)           0           leakyrelu_109[0][0]              
____________________________________________________________________________________________________
dense_18 (Dense)                 (None, 1)             257         dropout_45[0][0]                 
====================================================================================================
Total params: 228881
____________________________________________________________________________________________________
('Epoch', 1, 'of', 50)
('Number of batches', 19)
('GAN loss 0.8023 ', 'GAN acc 0.5078', 'Discriminator loss 0.7781', 'Discriminator accuracy 0.5137', 'Total loss: 1.5804', 'for batch', 0)
…
End of training
Saving histograms
----------------------------------
('Total samples = ', 5000, ' Batch size =', 256, ' Epochs = ', 50)
('Generator loss 0.6942 ', 'Discriminator loss 0.6938', 'Total: 1.3880')
----------------------------------
---DISCRIMINATOR---
____________________________________________________________________________________________________
Layer (type)                     Output Shape          Param #     Connected to                     
====================================================================================================
convolution2d_14 (Convolution2D) (None, 16, 16, 16)    304         convolution2d_input_3[0][0]      
____________________________________________________________________________________________________
leakyrelu_14 (LeakyReLU)         (None, 16, 16, 16)    0           convolution2d_14[0][0]           
____________________________________________________________________________________________________
dropout_6 (Dropout)              (None, 16, 16, 16)    0           leakyrelu_14[0][0]               
____________________________________________________________________________________________________
convolution2d_15 (Convolution2D) (None, 32, 8, 8)      4640        dropout_6[0][0]                  
____________________________________________________________________________________________________
leakyrelu_15 (LeakyReLU)         (None, 32, 8, 8)      0           convolution2d_15[0][0]           
____________________________________________________________________________________________________
dropout_7 (Dropout)              (None, 32, 8, 8)      0           leakyrelu_15[0][0]               
____________________________________________________________________________________________________
convolution2d_16 (Convolution2D) (None, 64, 4, 4)      18496       dropout_7[0][0]                  
____________________________________________________________________________________________________
leakyrelu_16 (LeakyReLU)         (None, 64, 4, 4)      0           convolution2d_16[0][0]           
____________________________________________________________________________________________________
dropout_8 (Dropout)              (None, 64, 4, 4)      0           leakyrelu_16[0][0]               
____________________________________________________________________________________________________
convolution2d_17 (Convolution2D) (None, 128, 2, 2)     73856       dropout_8[0][0]                  
____________________________________________________________________________________________________
leakyrelu_17 (LeakyReLU)         (None, 128, 2, 2)     0           convolution2d_17[0][0]           
____________________________________________________________________________________________________
dropout_9 (Dropout)              (None, 128, 2, 2)     0           leakyrelu_17[0][0]               
____________________________________________________________________________________________________
flatten_2 (Flatten)              (None, 512)           0           dropout_9[0][0]                  
____________________________________________________________________________________________________
dense_3 (Dense)                  (None, 256)           131328      flatten_2[0][0]                  
____________________________________________________________________________________________________
leakyrelu_18 (LeakyReLU)         (None, 256)           0           dense_3[0][0]                    
____________________________________________________________________________________________________
dropout_10 (Dropout)             (None, 256)           0           leakyrelu_18[0][0]               
____________________________________________________________________________________________________
dense_4 (Dense)                  (None, 1)             257         dropout_10[0][0]                 
====================================================================================================
Total params: 228881
____________________________________________________________________________________________________
None
----------------------------------
---GENERATOR---
____________________________________________________________________________________________________
Layer (type)                     Output Shape          Param #     Connected to                     
====================================================================================================
convolution2d_18 (Convolution2D) (None, 32, 32, 32)    320         convolution2d_input_4[0][0]      
____________________________________________________________________________________________________
leakyrelu_19 (LeakyReLU)         (None, 32, 32, 32)    0           convolution2d_18[0][0]           
____________________________________________________________________________________________________
convolution2d_19 (Convolution2D) (None, 64, 32, 32)    18496       leakyrelu_19[0][0]               
____________________________________________________________________________________________________
batchnormalization_8 (BatchNormal(None, 64, 32, 32)    128         convolution2d_19[0][0]           
____________________________________________________________________________________________________
leakyrelu_20 (LeakyReLU)         (None, 64, 32, 32)    0           batchnormalization_8[0][0]       
____________________________________________________________________________________________________
convolution2d_20 (Convolution2D) (None, 128, 32, 32)   73856       leakyrelu_20[0][0]               
____________________________________________________________________________________________________
batchnormalization_9 (BatchNormal(None, 128, 32, 32)   256         convolution2d_20[0][0]           
____________________________________________________________________________________________________
leakyrelu_21 (LeakyReLU)         (None, 128, 32, 32)   0           batchnormalization_9[0][0]       
____________________________________________________________________________________________________
convolution2d_21 (Convolution2D) (None, 256, 32, 32)   295168      leakyrelu_21[0][0]               
____________________________________________________________________________________________________
batchnormalization_10 (BatchNorma(None, 256, 32, 32)   512         convolution2d_21[0][0]           
____________________________________________________________________________________________________
leakyrelu_22 (LeakyReLU)         (None, 256, 32, 32)   0           batchnormalization_10[0][0]      
____________________________________________________________________________________________________
convolution2d_22 (Convolution2D) (None, 256, 32, 32)   590080      leakyrelu_22[0][0]               
____________________________________________________________________________________________________
batchnormalization_11 (BatchNorma(None, 256, 32, 32)   512         convolution2d_22[0][0]           
____________________________________________________________________________________________________
leakyrelu_23 (LeakyReLU)         (None, 256, 32, 32)   0           batchnormalization_11[0][0]      
____________________________________________________________________________________________________
convolution2d_23 (Convolution2D) (None, 128, 32, 32)   295040      leakyrelu_23[0][0]               
____________________________________________________________________________________________________
batchnormalization_12 (BatchNorma(None, 128, 32, 32)   256         convolution2d_23[0][0]           
____________________________________________________________________________________________________
leakyrelu_24 (LeakyReLU)         (None, 128, 32, 32)   0           batchnormalization_12[0][0]      
____________________________________________________________________________________________________
convolution2d_24 (Convolution2D) (None, 64, 32, 32)    73792       leakyrelu_24[0][0]               
____________________________________________________________________________________________________
batchnormalization_13 (BatchNorma(None, 64, 32, 32)    128         convolution2d_24[0][0]           
____________________________________________________________________________________________________
leakyrelu_25 (LeakyReLU)         (None, 64, 32, 32)    0           batchnormalization_13[0][0]      
____________________________________________________________________________________________________
convolution2d_25 (Convolution2D) (None, 32, 32, 32)    18464       leakyrelu_25[0][0]               
____________________________________________________________________________________________________
batchnormalization_14 (BatchNorma(None, 32, 32, 32)    64          convolution2d_25[0][0]           
____________________________________________________________________________________________________
leakyrelu_26 (LeakyReLU)         (None, 32, 32, 32)    0           batchnormalization_14[0][0]      
____________________________________________________________________________________________________
convolution2d_26 (Convolution2D) (None, 2, 32, 32)     578         leakyrelu_26[0][0]               
____________________________________________________________________________________________________
lambda_2 (Lambda)                (None, 2, 32, 32)     0           convolution2d_26[0][0]           
====================================================================================================
Total params: 1367650
____________________________________________________________________________________________________
None
----------------------------------
---GAN---
____________________________________________________________________________________________________
Layer (type)                     Output Shape          Param #     Connected to                     
====================================================================================================
sequential_5 (Sequential)        (None, 2, 32, 32)     1367650                                      
____________________________________________________________________________________________________
sequential_4 (Sequential)        (None, 1)             228881      lambda_2[0][0]                   
====================================================================================================
Total params: 1596531
____________________________________________________________________________________________________
None
----------------------------------
('Training with dataset based on class - ', 'truck', 'with', 5000, 'samples')
----------------------------------
____________________________________________________________________________________________________
Layer (type)                     Output Shape          Param #     Connected to                     
====================================================================================================
sequential_8 (Sequential)        (None, 2, 32, 32)     1367650                                      
____________________________________________________________________________________________________
sequential_7 (Sequential)        (None, 1)             0           lambda_3[0][0]                   
====================================================================================================
Total params: 1596531
____________________________________________________________________________________________________
____________________________________________________________________________________________________
Layer (type)                     Output Shape          Param #     Connected to                     
====================================================================================================
convolution2d_27 (Convolution2D) (None, 16, 16, 16)    304         convolution2d_input_5[0][0]      
____________________________________________________________________________________________________
leakyrelu_27 (LeakyReLU)         (None, 16, 16, 16)    0           convolution2d_27[0][0]           
____________________________________________________________________________________________________
dropout_11 (Dropout)             (None, 16, 16, 16)    0           leakyrelu_27[0][0]               
____________________________________________________________________________________________________
convolution2d_28 (Convolution2D) (None, 32, 8, 8)      4640        dropout_11[0][0]                 
____________________________________________________________________________________________________
leakyrelu_28 (LeakyReLU)         (None, 32, 8, 8)      0           convolution2d_28[0][0]           
____________________________________________________________________________________________________
dropout_12 (Dropout)             (None, 32, 8, 8)      0           leakyrelu_28[0][0]               
____________________________________________________________________________________________________
convolution2d_29 (Convolution2D) (None, 64, 4, 4)      18496       dropout_12[0][0]                 
____________________________________________________________________________________________________
leakyrelu_29 (LeakyReLU)         (None, 64, 4, 4)      0           convolution2d_29[0][0]           
____________________________________________________________________________________________________
dropout_13 (Dropout)             (None, 64, 4, 4)      0           leakyrelu_29[0][0]               
____________________________________________________________________________________________________
convolution2d_30 (Convolution2D) (None, 128, 2, 2)     73856       dropout_13[0][0]                 
____________________________________________________________________________________________________
leakyrelu_30 (LeakyReLU)         (None, 128, 2, 2)     0           convolution2d_30[0][0]           
____________________________________________________________________________________________________
dropout_14 (Dropout)             (None, 128, 2, 2)     0           leakyrelu_30[0][0]               
____________________________________________________________________________________________________
flatten_3 (Flatten)              (None, 512)           0           dropout_14[0][0]                 
____________________________________________________________________________________________________
dense_5 (Dense)                  (None, 256)           131328      flatten_3[0][0]                  
____________________________________________________________________________________________________
leakyrelu_31 (LeakyReLU)         (None, 256)           0           dense_5[0][0]                    
____________________________________________________________________________________________________
dropout_15 (Dropout)             (None, 256)           0           leakyrelu_31[0][0]               
____________________________________________________________________________________________________
dense_6 (Dense)                  (None, 1)             257         dropout_15[0][0]                 
====================================================================================================
Total params: 228881
____________________________________________________________________________________________________
('Epoch', 1, 'of', 50)
('Number of batches', 19)
('GAN loss 0.5002 ', 'GAN acc 0.7617', 'Discriminator loss 0.8773', 'Discriminator accuracy 0.5312', 'Total loss: 1.3775', 'for batch', 0)
…
