----------------------------------
('Training with dataset based on class - ', 'ship', 'with', 5000, 'samples')
----------------------------------
____________________________________________________________________________________________________
Layer (type)                     Output Shape          Param #     Connected to                     
====================================================================================================
sequential_26 (Sequential)       (None, 2, 32, 32)     1367650                                      
____________________________________________________________________________________________________
sequential_25 (Sequential)       (None, 1)             0           lambda_9[0][0]                   
====================================================================================================
Total params: 1596531
____________________________________________________________________________________________________
____________________________________________________________________________________________________
Layer (type)                     Output Shape          Param #     Connected to                     
====================================================================================================
convolution2d_105 (Convolution2D)(None, 16, 16, 16)    304         convolution2d_input_17[0][0]     
____________________________________________________________________________________________________
leakyrelu_105 (LeakyReLU)        (None, 16, 16, 16)    0           convolution2d_105[0][0]          
____________________________________________________________________________________________________
dropout_41 (Dropout)             (None, 16, 16, 16)    0           leakyrelu_105[0][0]              
____________________________________________________________________________________________________
convolution2d_106 (Convolution2D)(None, 32, 8, 8)      4640        dropout_41[0][0]                 
____________________________________________________________________________________________________
leakyrelu_106 (LeakyReLU)        (None, 32, 8, 8)      0           convolution2d_106[0][0]          
____________________________________________________________________________________________________
dropout_42 (Dropout)             (None, 32, 8, 8)      0           leakyrelu_106[0][0]              
____________________________________________________________________________________________________
convolution2d_107 (Convolution2D)(None, 64, 4, 4)      18496       dropout_42[0][0]                 
____________________________________________________________________________________________________
leakyrelu_107 (LeakyReLU)        (None, 64, 4, 4)      0           convolution2d_107[0][0]          
____________________________________________________________________________________________________
dropout_43 (Dropout)             (None, 64, 4, 4)      0           leakyrelu_107[0][0]              
____________________________________________________________________________________________________
convolution2d_108 (Convolution2D)(None, 128, 2, 2)     73856       dropout_43[0][0]                 
____________________________________________________________________________________________________
leakyrelu_108 (LeakyReLU)        (None, 128, 2, 2)     0           convolution2d_108[0][0]          
____________________________________________________________________________________________________
dropout_44 (Dropout)             (None, 128, 2, 2)     0           leakyrelu_108[0][0]              
____________________________________________________________________________________________________
flatten_9 (Flatten)              (None, 512)           0           dropout_44[0][0]                 
____________________________________________________________________________________________________
dense_17 (Dense)                 (None, 256)           131328      flatten_9[0][0]                  
____________________________________________________________________________________________________
leakyrelu_109 (LeakyReLU)        (None, 256)           0           dense_17[0][0]                   
____________________________________________________________________________________________________
dropout_45 (Dropout)             (None, 256)           0           leakyrelu_109[0][0]              
____________________________________________________________________________________________________
dense_18 (Dense)                 (None, 1)             257         dropout_45[0][0]                 
====================================================================================================
Total params: 228881
____________________________________________________________________________________________________
('Epoch', 1, 'of', 50)
('Number of batches', 19)
('GAN loss 0.8023 ', 'GAN acc 0.5078', 'Discriminator loss 0.7781', 'Discriminator accuracy 0.5137', 'Total loss: 1.5804', 'for batch', 0)
…
