----------------------------------
('Training with dataset based on class - ', 'truck', 'with', 5000, 'samples')
----------------------------------
____________________________________________________________________________________________________
Layer (type)                     Output Shape          Param #     Connected to                     
====================================================================================================
sequential_8 (Sequential)        (None, 2, 32, 32)     777058                                       
____________________________________________________________________________________________________
sequential_7 (Sequential)        (None, 1)             0           lambda_3[0][0]                   
====================================================================================================
Total params: 2215811
____________________________________________________________________________________________________
____________________________________________________________________________________________________
Layer (type)                     Output Shape          Param #     Connected to                     
====================================================================================================
convolution2d_25 (Convolution2D) (None, 32, 16, 16)    608         convolution2d_input_5[0][0]      
____________________________________________________________________________________________________
leakyrelu_25 (LeakyReLU)         (None, 32, 16, 16)    0           convolution2d_25[0][0]           
____________________________________________________________________________________________________
dropout_11 (Dropout)             (None, 32, 16, 16)    0           leakyrelu_25[0][0]               
____________________________________________________________________________________________________
convolution2d_26 (Convolution2D) (None, 64, 8, 8)      18496       dropout_11[0][0]                 
____________________________________________________________________________________________________
leakyrelu_26 (LeakyReLU)         (None, 64, 8, 8)      0           convolution2d_26[0][0]           
____________________________________________________________________________________________________
dropout_12 (Dropout)             (None, 64, 8, 8)      0           leakyrelu_26[0][0]               
____________________________________________________________________________________________________
convolution2d_27 (Convolution2D) (None, 128, 4, 4)     73856       dropout_12[0][0]                 
____________________________________________________________________________________________________
leakyrelu_27 (LeakyReLU)         (None, 128, 4, 4)     0           convolution2d_27[0][0]           
____________________________________________________________________________________________________
dropout_13 (Dropout)             (None, 128, 4, 4)     0           leakyrelu_27[0][0]               
____________________________________________________________________________________________________
convolution2d_28 (Convolution2D) (None, 256, 2, 2)     295168      dropout_13[0][0]                 
____________________________________________________________________________________________________
leakyrelu_28 (LeakyReLU)         (None, 256, 2, 2)     0           convolution2d_28[0][0]           
____________________________________________________________________________________________________
dropout_14 (Dropout)             (None, 256, 2, 2)     0           leakyrelu_28[0][0]               
____________________________________________________________________________________________________
flatten_3 (Flatten)              (None, 1024)          0           dropout_14[0][0]                 
____________________________________________________________________________________________________
dense_5 (Dense)                  (None, 1024)          1049600     flatten_3[0][0]                  
____________________________________________________________________________________________________
leakyrelu_29 (LeakyReLU)         (None, 1024)          0           dense_5[0][0]                    
____________________________________________________________________________________________________
dropout_15 (Dropout)             (None, 1024)          0           leakyrelu_29[0][0]               
____________________________________________________________________________________________________
dense_6 (Dense)                  (None, 1)             1025        dropout_15[0][0]                 
====================================================================================================
Total params: 1438753
____________________________________________________________________________________________________
('Epoch', 1, 'of', 50)
('Number of batches', 19)
('GAN loss 1.7748 ', 'GAN acc 0.0117', 'Discriminator loss 0.7808', 'Discriminator accuracy 0.4961', 'Total loss: 2.5556', 'for batch', 0)
…
End of training
Saving histograms
----------------------------------
('Total samples = ', 5000, ' Batch size =', 256, ' Epochs = ', 50)
('Generator loss 4.0121 ', 'Discriminator loss 0.0337', 'Total: 4.0458')
----------------------------------
---DISCRIMINATOR---
____________________________________________________________________________________________________
Layer (type)                     Output Shape          Param #     Connected to                     
====================================================================================================
convolution2d_25 (Convolution2D) (None, 32, 16, 16)    608         convolution2d_input_5[0][0]      
____________________________________________________________________________________________________
leakyrelu_25 (LeakyReLU)         (None, 32, 16, 16)    0           convolution2d_25[0][0]           
____________________________________________________________________________________________________
dropout_11 (Dropout)             (None, 32, 16, 16)    0           leakyrelu_25[0][0]               
____________________________________________________________________________________________________
convolution2d_26 (Convolution2D) (None, 64, 8, 8)      18496       dropout_11[0][0]                 
____________________________________________________________________________________________________
leakyrelu_26 (LeakyReLU)         (None, 64, 8, 8)      0           convolution2d_26[0][0]           
____________________________________________________________________________________________________
dropout_12 (Dropout)             (None, 64, 8, 8)      0           leakyrelu_26[0][0]               
____________________________________________________________________________________________________
convolution2d_27 (Convolution2D) (None, 128, 4, 4)     73856       dropout_12[0][0]                 
____________________________________________________________________________________________________
leakyrelu_27 (LeakyReLU)         (None, 128, 4, 4)     0           convolution2d_27[0][0]           
____________________________________________________________________________________________________
dropout_13 (Dropout)             (None, 128, 4, 4)     0           leakyrelu_27[0][0]               
____________________________________________________________________________________________________
convolution2d_28 (Convolution2D) (None, 256, 2, 2)     295168      dropout_13[0][0]                 
____________________________________________________________________________________________________
leakyrelu_28 (LeakyReLU)         (None, 256, 2, 2)     0           convolution2d_28[0][0]           
____________________________________________________________________________________________________
dropout_14 (Dropout)             (None, 256, 2, 2)     0           leakyrelu_28[0][0]               
____________________________________________________________________________________________________
flatten_3 (Flatten)              (None, 1024)          0           dropout_14[0][0]                 
____________________________________________________________________________________________________
dense_5 (Dense)                  (None, 1024)          1049600     flatten_3[0][0]                  
____________________________________________________________________________________________________
leakyrelu_29 (LeakyReLU)         (None, 1024)          0           dense_5[0][0]                    
____________________________________________________________________________________________________
dropout_15 (Dropout)             (None, 1024)          0           leakyrelu_29[0][0]               
____________________________________________________________________________________________________
dense_6 (Dense)                  (None, 1)             1025        dropout_15[0][0]                 
====================================================================================================
Total params: 1438753
____________________________________________________________________________________________________
None
----------------------------------
---GENERATOR---
____________________________________________________________________________________________________
Layer (type)                     Output Shape          Param #     Connected to                     
====================================================================================================
convolution2d_29 (Convolution2D) (None, 32, 32, 32)    320         convolution2d_input_6[0][0]      
____________________________________________________________________________________________________
leakyrelu_30 (LeakyReLU)         (None, 32, 32, 32)    0           convolution2d_29[0][0]           
____________________________________________________________________________________________________
convolution2d_30 (Convolution2D) (None, 64, 32, 32)    18496       leakyrelu_30[0][0]               
____________________________________________________________________________________________________
batchnormalization_13 (BatchNorma(None, 64, 32, 32)    128         convolution2d_30[0][0]           
____________________________________________________________________________________________________
leakyrelu_31 (LeakyReLU)         (None, 64, 32, 32)    0           batchnormalization_13[0][0]      
____________________________________________________________________________________________________
convolution2d_31 (Convolution2D) (None, 128, 32, 32)   73856       leakyrelu_31[0][0]               
____________________________________________________________________________________________________
batchnormalization_14 (BatchNorma(None, 128, 32, 32)   256         convolution2d_31[0][0]           
____________________________________________________________________________________________________
leakyrelu_32 (LeakyReLU)         (None, 128, 32, 32)   0           batchnormalization_14[0][0]      
____________________________________________________________________________________________________
convolution2d_32 (Convolution2D) (None, 256, 32, 32)   295168      leakyrelu_32[0][0]               
____________________________________________________________________________________________________
batchnormalization_15 (BatchNorma(None, 256, 32, 32)   512         convolution2d_32[0][0]           
____________________________________________________________________________________________________
leakyrelu_33 (LeakyReLU)         (None, 256, 32, 32)   0           batchnormalization_15[0][0]      
____________________________________________________________________________________________________
convolution2d_33 (Convolution2D) (None, 128, 32, 32)   295040      leakyrelu_33[0][0]               
____________________________________________________________________________________________________
batchnormalization_16 (BatchNorma(None, 128, 32, 32)   256         convolution2d_33[0][0]           
____________________________________________________________________________________________________
leakyrelu_34 (LeakyReLU)         (None, 128, 32, 32)   0           batchnormalization_16[0][0]      
____________________________________________________________________________________________________
convolution2d_34 (Convolution2D) (None, 64, 32, 32)    73792       leakyrelu_34[0][0]               
____________________________________________________________________________________________________
batchnormalization_17 (BatchNorma(None, 64, 32, 32)    128         convolution2d_34[0][0]           
____________________________________________________________________________________________________
leakyrelu_35 (LeakyReLU)         (None, 64, 32, 32)    0           batchnormalization_17[0][0]      
____________________________________________________________________________________________________
convolution2d_35 (Convolution2D) (None, 32, 32, 32)    18464       leakyrelu_35[0][0]               
____________________________________________________________________________________________________
batchnormalization_18 (BatchNorma(None, 32, 32, 32)    64          convolution2d_35[0][0]           
____________________________________________________________________________________________________
leakyrelu_36 (LeakyReLU)         (None, 32, 32, 32)    0           batchnormalization_18[0][0]      
____________________________________________________________________________________________________
convolution2d_36 (Convolution2D) (None, 2, 32, 32)     578         leakyrelu_36[0][0]               
____________________________________________________________________________________________________
lambda_3 (Lambda)                (None, 2, 32, 32)     0           convolution2d_36[0][0]           
====================================================================================================
Total params: 777058
____________________________________________________________________________________________________
None
----------------------------------
---GAN---
____________________________________________________________________________________________________
Layer (type)                     Output Shape          Param #     Connected to                     
====================================================================================================
sequential_8 (Sequential)        (None, 2, 32, 32)     777058                                       
____________________________________________________________________________________________________
sequential_7 (Sequential)        (None, 1)             0           lambda_3[0][0]                   
====================================================================================================
Total params: 2215811
____________________________________________________________________________________________________
None
----------------------------------
('Training with dataset based on class - ', 'truck', 'with', 5000, 'samples')
----------------------------------
----------------------------------
('Training with dataset based on class - ', 'truck', 'with', 5000, 'samples')
----------------------------------
____________________________________________________________________________________________________
Layer (type)                     Output Shape          Param #     Connected to                     
====================================================================================================
sequential_2 (Sequential)        (None, 2, 32, 32)     3138658                                      
____________________________________________________________________________________________________
sequential_1 (Sequential)        (None, 1)             0           lambda_1[0][0]                   
====================================================================================================
Total params: 4577411
____________________________________________________________________________________________________
____________________________________________________________________________________________________
Layer (type)                     Output Shape          Param #     Connected to                     
====================================================================================================
convolution2d_1 (Convolution2D)  (None, 32, 16, 16)    608         convolution2d_input_1[0][0]      
____________________________________________________________________________________________________
leakyrelu_1 (LeakyReLU)          (None, 32, 16, 16)    0           convolution2d_1[0][0]            
____________________________________________________________________________________________________
dropout_1 (Dropout)              (None, 32, 16, 16)    0           leakyrelu_1[0][0]                
____________________________________________________________________________________________________
convolution2d_2 (Convolution2D)  (None, 64, 8, 8)      18496       dropout_1[0][0]                  
____________________________________________________________________________________________________
leakyrelu_2 (LeakyReLU)          (None, 64, 8, 8)      0           convolution2d_2[0][0]            
____________________________________________________________________________________________________
dropout_2 (Dropout)              (None, 64, 8, 8)      0           leakyrelu_2[0][0]                
____________________________________________________________________________________________________
convolution2d_3 (Convolution2D)  (None, 128, 4, 4)     73856       dropout_2[0][0]                  
____________________________________________________________________________________________________
leakyrelu_3 (LeakyReLU)          (None, 128, 4, 4)     0           convolution2d_3[0][0]            
____________________________________________________________________________________________________
dropout_3 (Dropout)              (None, 128, 4, 4)     0           leakyrelu_3[0][0]                
____________________________________________________________________________________________________
convolution2d_4 (Convolution2D)  (None, 256, 2, 2)     295168      dropout_3[0][0]                  
____________________________________________________________________________________________________
leakyrelu_4 (LeakyReLU)          (None, 256, 2, 2)     0           convolution2d_4[0][0]            
____________________________________________________________________________________________________
dropout_4 (Dropout)              (None, 256, 2, 2)     0           leakyrelu_4[0][0]                
____________________________________________________________________________________________________
flatten_1 (Flatten)              (None, 1024)          0           dropout_4[0][0]                  
____________________________________________________________________________________________________
dense_1 (Dense)                  (None, 1024)          1049600     flatten_1[0][0]                  
____________________________________________________________________________________________________
leakyrelu_5 (LeakyReLU)          (None, 1024)          0           dense_1[0][0]                    
____________________________________________________________________________________________________
dropout_5 (Dropout)              (None, 1024)          0           leakyrelu_5[0][0]                
____________________________________________________________________________________________________
dense_2 (Dense)                  (None, 1)             1025        dropout_5[0][0]                  
====================================================================================================
Total params: 1438753
____________________________________________________________________________________________________
('Epoch', 1, 'of', 50)
('Number of batches', 19)
----------------------------------
('Training with dataset based on class - ', 'truck', 'with', 5000, 'samples')
----------------------------------
____________________________________________________________________________________________________
Layer (type)                     Output Shape          Param #     Connected to                     
====================================================================================================
sequential_2 (Sequential)        (None, 2, 32, 32)     1367650                                      
____________________________________________________________________________________________________
sequential_1 (Sequential)        (None, 1)             0           lambda_1[0][0]                   
====================================================================================================
Total params: 2806403
____________________________________________________________________________________________________
____________________________________________________________________________________________________
Layer (type)                     Output Shape          Param #     Connected to                     
====================================================================================================
convolution2d_1 (Convolution2D)  (None, 32, 16, 16)    608         convolution2d_input_1[0][0]      
____________________________________________________________________________________________________
leakyrelu_1 (LeakyReLU)          (None, 32, 16, 16)    0           convolution2d_1[0][0]            
____________________________________________________________________________________________________
dropout_1 (Dropout)              (None, 32, 16, 16)    0           leakyrelu_1[0][0]                
____________________________________________________________________________________________________
convolution2d_2 (Convolution2D)  (None, 64, 8, 8)      18496       dropout_1[0][0]                  
____________________________________________________________________________________________________
leakyrelu_2 (LeakyReLU)          (None, 64, 8, 8)      0           convolution2d_2[0][0]            
____________________________________________________________________________________________________
dropout_2 (Dropout)              (None, 64, 8, 8)      0           leakyrelu_2[0][0]                
____________________________________________________________________________________________________
convolution2d_3 (Convolution2D)  (None, 128, 4, 4)     73856       dropout_2[0][0]                  
____________________________________________________________________________________________________
leakyrelu_3 (LeakyReLU)          (None, 128, 4, 4)     0           convolution2d_3[0][0]            
____________________________________________________________________________________________________
dropout_3 (Dropout)              (None, 128, 4, 4)     0           leakyrelu_3[0][0]                
____________________________________________________________________________________________________
convolution2d_4 (Convolution2D)  (None, 256, 2, 2)     295168      dropout_3[0][0]                  
____________________________________________________________________________________________________
leakyrelu_4 (LeakyReLU)          (None, 256, 2, 2)     0           convolution2d_4[0][0]            
____________________________________________________________________________________________________
dropout_4 (Dropout)              (None, 256, 2, 2)     0           leakyrelu_4[0][0]                
____________________________________________________________________________________________________
flatten_1 (Flatten)              (None, 1024)          0           dropout_4[0][0]                  
____________________________________________________________________________________________________
dense_1 (Dense)                  (None, 1024)          1049600     flatten_1[0][0]                  
____________________________________________________________________________________________________
leakyrelu_5 (LeakyReLU)          (None, 1024)          0           dense_1[0][0]                    
____________________________________________________________________________________________________
dropout_5 (Dropout)              (None, 1024)          0           leakyrelu_5[0][0]                
____________________________________________________________________________________________________
dense_2 (Dense)                  (None, 1)             1025        dropout_5[0][0]                  
====================================================================================================
Total params: 1438753
____________________________________________________________________________________________________
('Epoch', 1, 'of', 50)
('Number of batches', 19)
('GAN loss 1.4332 ', 'GAN acc 0.0234', 'Discriminator loss 0.7190', 'Discriminator accuracy 0.4004', 'Total loss: 2.1522', 'for batch', 0)
…
End of training
Saving histograms
----------------------------------
('Total samples = ', 5000, ' Batch size =', 256, ' Epochs = ', 50)
('Generator loss 5.9983 ', 'Discriminator loss 0.0527', 'Total: 6.0510')
----------------------------------
---DISCRIMINATOR---
____________________________________________________________________________________________________
Layer (type)                     Output Shape          Param #     Connected to                     
====================================================================================================
convolution2d_1 (Convolution2D)  (None, 32, 16, 16)    608         convolution2d_input_1[0][0]      
____________________________________________________________________________________________________
leakyrelu_1 (LeakyReLU)          (None, 32, 16, 16)    0           convolution2d_1[0][0]            
____________________________________________________________________________________________________
dropout_1 (Dropout)              (None, 32, 16, 16)    0           leakyrelu_1[0][0]                
____________________________________________________________________________________________________
convolution2d_2 (Convolution2D)  (None, 64, 8, 8)      18496       dropout_1[0][0]                  
____________________________________________________________________________________________________
leakyrelu_2 (LeakyReLU)          (None, 64, 8, 8)      0           convolution2d_2[0][0]            
____________________________________________________________________________________________________
dropout_2 (Dropout)              (None, 64, 8, 8)      0           leakyrelu_2[0][0]                
____________________________________________________________________________________________________
convolution2d_3 (Convolution2D)  (None, 128, 4, 4)     73856       dropout_2[0][0]                  
____________________________________________________________________________________________________
leakyrelu_3 (LeakyReLU)          (None, 128, 4, 4)     0           convolution2d_3[0][0]            
____________________________________________________________________________________________________
dropout_3 (Dropout)              (None, 128, 4, 4)     0           leakyrelu_3[0][0]                
____________________________________________________________________________________________________
convolution2d_4 (Convolution2D)  (None, 256, 2, 2)     295168      dropout_3[0][0]                  
____________________________________________________________________________________________________
leakyrelu_4 (LeakyReLU)          (None, 256, 2, 2)     0           convolution2d_4[0][0]            
____________________________________________________________________________________________________
dropout_4 (Dropout)              (None, 256, 2, 2)     0           leakyrelu_4[0][0]                
____________________________________________________________________________________________________
flatten_1 (Flatten)              (None, 1024)          0           dropout_4[0][0]                  
____________________________________________________________________________________________________
dense_1 (Dense)                  (None, 1024)          1049600     flatten_1[0][0]                  
____________________________________________________________________________________________________
leakyrelu_5 (LeakyReLU)          (None, 1024)          0           dense_1[0][0]                    
____________________________________________________________________________________________________
dropout_5 (Dropout)              (None, 1024)          0           leakyrelu_5[0][0]                
____________________________________________________________________________________________________
dense_2 (Dense)                  (None, 1)             1025        dropout_5[0][0]                  
====================================================================================================
Total params: 1438753
____________________________________________________________________________________________________
None
----------------------------------
---GENERATOR---
____________________________________________________________________________________________________
Layer (type)                     Output Shape          Param #     Connected to                     
====================================================================================================
convolution2d_5 (Convolution2D)  (None, 32, 32, 32)    320         convolution2d_input_2[0][0]      
____________________________________________________________________________________________________
leakyrelu_6 (LeakyReLU)          (None, 32, 32, 32)    0           convolution2d_5[0][0]            
____________________________________________________________________________________________________
convolution2d_6 (Convolution2D)  (None, 64, 32, 32)    18496       leakyrelu_6[0][0]                
____________________________________________________________________________________________________
batchnormalization_1 (BatchNormal(None, 64, 32, 32)    128         convolution2d_6[0][0]            
____________________________________________________________________________________________________
leakyrelu_7 (LeakyReLU)          (None, 64, 32, 32)    0           batchnormalization_1[0][0]       
____________________________________________________________________________________________________
convolution2d_7 (Convolution2D)  (None, 128, 32, 32)   73856       leakyrelu_7[0][0]                
____________________________________________________________________________________________________
batchnormalization_2 (BatchNormal(None, 128, 32, 32)   256         convolution2d_7[0][0]            
____________________________________________________________________________________________________
leakyrelu_8 (LeakyReLU)          (None, 128, 32, 32)   0           batchnormalization_2[0][0]       
____________________________________________________________________________________________________
convolution2d_8 (Convolution2D)  (None, 256, 32, 32)   295168      leakyrelu_8[0][0]                
____________________________________________________________________________________________________
batchnormalization_3 (BatchNormal(None, 256, 32, 32)   512         convolution2d_8[0][0]            
____________________________________________________________________________________________________
leakyrelu_9 (LeakyReLU)          (None, 256, 32, 32)   0           batchnormalization_3[0][0]       
____________________________________________________________________________________________________
convolution2d_9 (Convolution2D)  (None, 256, 32, 32)   590080      leakyrelu_9[0][0]                
____________________________________________________________________________________________________
batchnormalization_4 (BatchNormal(None, 256, 32, 32)   512         convolution2d_9[0][0]            
____________________________________________________________________________________________________
leakyrelu_10 (LeakyReLU)         (None, 256, 32, 32)   0           batchnormalization_4[0][0]       
____________________________________________________________________________________________________
convolution2d_10 (Convolution2D) (None, 128, 32, 32)   295040      leakyrelu_10[0][0]               
____________________________________________________________________________________________________
batchnormalization_5 (BatchNormal(None, 128, 32, 32)   256         convolution2d_10[0][0]           
____________________________________________________________________________________________________
leakyrelu_11 (LeakyReLU)         (None, 128, 32, 32)   0           batchnormalization_5[0][0]       
____________________________________________________________________________________________________
convolution2d_11 (Convolution2D) (None, 64, 32, 32)    73792       leakyrelu_11[0][0]               
____________________________________________________________________________________________________
batchnormalization_6 (BatchNormal(None, 64, 32, 32)    128         convolution2d_11[0][0]           
____________________________________________________________________________________________________
leakyrelu_12 (LeakyReLU)         (None, 64, 32, 32)    0           batchnormalization_6[0][0]       
____________________________________________________________________________________________________
convolution2d_12 (Convolution2D) (None, 32, 32, 32)    18464       leakyrelu_12[0][0]               
____________________________________________________________________________________________________
batchnormalization_7 (BatchNormal(None, 32, 32, 32)    64          convolution2d_12[0][0]           
____________________________________________________________________________________________________
leakyrelu_13 (LeakyReLU)         (None, 32, 32, 32)    0           batchnormalization_7[0][0]       
____________________________________________________________________________________________________
convolution2d_13 (Convolution2D) (None, 2, 32, 32)     578         leakyrelu_13[0][0]               
____________________________________________________________________________________________________
lambda_1 (Lambda)                (None, 2, 32, 32)     0           convolution2d_13[0][0]           
====================================================================================================
Total params: 1367650
____________________________________________________________________________________________________
None
----------------------------------
---GAN---
____________________________________________________________________________________________________
Layer (type)                     Output Shape          Param #     Connected to                     
====================================================================================================
sequential_2 (Sequential)        (None, 2, 32, 32)     1367650                                      
____________________________________________________________________________________________________
sequential_1 (Sequential)        (None, 1)             0           lambda_1[0][0]                   
====================================================================================================
Total params: 2806403
____________________________________________________________________________________________________
None
