…
----------------------------------
End of training
Saving histograms
----------------------------------
Total samples =  5000  Batch size = 256  Epochs =  50
Generator loss 1.5443  Discriminator loss 0.6738 Total: 2.2181
----------------------------------
---DISCRIMINATOR---
____________________________________________________________________________________________________
Layer (type)                     Output Shape          Param #     Connected to                     
====================================================================================================
convolution2d_61 (Convolution2D) (None, 8, 32, 32)     224         convolution2d_input_11[0][0]     
____________________________________________________________________________________________________
leakyrelu_31 (LeakyReLU)         (None, 8, 32, 32)     0           convolution2d_61[0][0]           
____________________________________________________________________________________________________
maxpooling2d_21 (MaxPooling2D)   (None, 8, 16, 16)     0           leakyrelu_31[0][0]               
____________________________________________________________________________________________________
convolution2d_62 (Convolution2D) (None, 16, 16, 16)    1168        maxpooling2d_21[0][0]            
____________________________________________________________________________________________________
leakyrelu_32 (LeakyReLU)         (None, 16, 16, 16)    0           convolution2d_62[0][0]           
____________________________________________________________________________________________________
maxpooling2d_22 (MaxPooling2D)   (None, 16, 8, 8)      0           leakyrelu_32[0][0]               
____________________________________________________________________________________________________
convolution2d_63 (Convolution2D) (None, 32, 8, 8)      4640        maxpooling2d_22[0][0]            
____________________________________________________________________________________________________
leakyrelu_33 (LeakyReLU)         (None, 32, 8, 8)      0           convolution2d_63[0][0]           
____________________________________________________________________________________________________
maxpooling2d_23 (MaxPooling2D)   (None, 32, 4, 4)      0           leakyrelu_33[0][0]               
____________________________________________________________________________________________________
convolution2d_64 (Convolution2D) (None, 64, 4, 4)      18496       maxpooling2d_23[0][0]            
____________________________________________________________________________________________________
leakyrelu_34 (LeakyReLU)         (None, 64, 4, 4)      0           convolution2d_64[0][0]           
____________________________________________________________________________________________________
maxpooling2d_24 (MaxPooling2D)   (None, 64, 2, 2)      0           leakyrelu_34[0][0]               
____________________________________________________________________________________________________
flatten_6 (Flatten)              (None, 256)           0           maxpooling2d_24[0][0]            
____________________________________________________________________________________________________
dense_16 (Dense)                 (None, 512)           131584      flatten_6[0][0]                  
____________________________________________________________________________________________________
leakyrelu_35 (LeakyReLU)         (None, 512)           0           dense_16[0][0]                   
____________________________________________________________________________________________________
dropout_11 (Dropout)             (None, 512)           0           leakyrelu_35[0][0]               
____________________________________________________________________________________________________
dense_17 (Dense)                 (None, 256)           131328      dropout_11[0][0]                 
____________________________________________________________________________________________________
leakyrelu_36 (LeakyReLU)         (None, 256)           0           dense_17[0][0]                   
____________________________________________________________________________________________________
dropout_12 (Dropout)             (None, 256)           0           leakyrelu_36[0][0]               
____________________________________________________________________________________________________
dense_18 (Dense)                 (None, 1)             257         dropout_12[0][0]                 
====================================================================================================
Total params: 287697
____________________________________________________________________________________________________
None
----------------------------------
---GENERATOR---
____________________________________________________________________________________________________
Layer (type)                     Output Shape          Param #     Connected to                     
====================================================================================================
convolution2d_65 (Convolution2D) (None, 8, 32, 32)     80          convolution2d_input_12[0][0]     
____________________________________________________________________________________________________
convolution2d_66 (Convolution2D) (None, 16, 32, 32)    1168        convolution2d_65[0][0]           
____________________________________________________________________________________________________
convolution2d_67 (Convolution2D) (None, 32, 32, 32)    4640        convolution2d_66[0][0]           
____________________________________________________________________________________________________
batchnormalization_16 (BatchNorma(None, 32, 32, 32)    64          convolution2d_67[0][0]           
____________________________________________________________________________________________________
convolution2d_68 (Convolution2D) (None, 64, 32, 32)    18496       batchnormalization_16[0][0]      
____________________________________________________________________________________________________
batchnormalization_17 (BatchNorma(None, 64, 32, 32)    64          convolution2d_68[0][0]           
____________________________________________________________________________________________________
convolution2d_69 (Convolution2D) (None, 32, 32, 32)    18464       batchnormalization_17[0][0]      
____________________________________________________________________________________________________
batchnormalization_18 (BatchNorma(None, 32, 32, 32)    64          convolution2d_69[0][0]           
____________________________________________________________________________________________________
convolution2d_70 (Convolution2D) (None, 16, 32, 32)    4624        batchnormalization_18[0][0]      
____________________________________________________________________________________________________
convolution2d_71 (Convolution2D) (None, 8, 32, 32)     1160        convolution2d_70[0][0]           
____________________________________________________________________________________________________
convolution2d_72 (Convolution2D) (None, 3, 32, 32)     219         convolution2d_71[0][0]           
____________________________________________________________________________________________________
lambda_6 (Lambda)                (None, 3, 32, 32)     0           convolution2d_72[0][0]           
====================================================================================================
Total params: 49043
____________________________________________________________________________________________________
None
----------------------------------
---GAN---
____________________________________________________________________________________________________
Layer (type)                     Output Shape          Param #     Connected to                     
====================================================================================================
sequential_17 (Sequential)       (None, 3, 32, 32)     49043                                        
____________________________________________________________________________________________________
sequential_16 (Sequential)       (None, 1)             287697      lambda_6[0][0]                   
====================================================================================================
Total params: 336740
____________________________________________________________________________________________________
None
----------------------------------
Training with dataset based on class -  horse with 5000 samples
----------------------------------
…
