----------------------------------
('Training with dataset based on class - ', 'all', 'with', 32768, 'samples')
----------------------------------
____________________________________________________________________________________________________
Layer (type)                     Output Shape          Param #     Connected to                     
====================================================================================================
sequential_11 (Sequential)       (None, 2, 32, 32)     1367650                                      
____________________________________________________________________________________________________
sequential_10 (Sequential)       (None, 1)             0           lambda_4[0][0]                   
====================================================================================================
Total params: 2281091
____________________________________________________________________________________________________
____________________________________________________________________________________________________
Layer (type)                     Output Shape          Param #     Connected to                     
====================================================================================================
convolution2d_40 (Convolution2D) (None, 32, 16, 16)    608         convolution2d_input_7[0][0]      
____________________________________________________________________________________________________
leakyrelu_40 (LeakyReLU)         (None, 32, 16, 16)    0           convolution2d_40[0][0]           
____________________________________________________________________________________________________
convolution2d_41 (Convolution2D) (None, 64, 8, 8)      18496       leakyrelu_40[0][0]               
____________________________________________________________________________________________________
leakyrelu_41 (LeakyReLU)         (None, 64, 8, 8)      0           convolution2d_41[0][0]           
____________________________________________________________________________________________________
convolution2d_42 (Convolution2D) (None, 128, 4, 4)     73856       leakyrelu_41[0][0]               
____________________________________________________________________________________________________
leakyrelu_42 (LeakyReLU)         (None, 128, 4, 4)     0           convolution2d_42[0][0]           
____________________________________________________________________________________________________
dropout_10 (Dropout)             (None, 128, 4, 4)     0           leakyrelu_42[0][0]               
____________________________________________________________________________________________________
convolution2d_43 (Convolution2D) (None, 256, 2, 2)     295168      dropout_10[0][0]                 
____________________________________________________________________________________________________
leakyrelu_43 (LeakyReLU)         (None, 256, 2, 2)     0           convolution2d_43[0][0]           
____________________________________________________________________________________________________
dropout_11 (Dropout)             (None, 256, 2, 2)     0           leakyrelu_43[0][0]               
____________________________________________________________________________________________________
flatten_4 (Flatten)              (None, 1024)          0           dropout_11[0][0]                 
____________________________________________________________________________________________________
dense_7 (Dense)                  (None, 512)           524800      flatten_4[0][0]                  
____________________________________________________________________________________________________
leakyrelu_44 (LeakyReLU)         (None, 512)           0           dense_7[0][0]                    
____________________________________________________________________________________________________
dropout_12 (Dropout)             (None, 512)           0           leakyrelu_44[0][0]               
____________________________________________________________________________________________________
dense_8 (Dense)                  (None, 1)             513         dropout_12[0][0]                 
====================================================================================================
Total params: 913441
____________________________________________________________________________________________________
('Epoch', 1, 'of', 50)
('Number of batches', 128)
('GAN loss 0.7957 ', 'GAN acc 0.4883', 'Discriminator loss 0.6952', 'Discriminator accuracy 0.5547', 'Total loss: 1.4909', 'for batch', 0)
…
End of training
Saving histograms
----------------------------------
('Total samples = ', 32768, ' Batch size =', 256, ' Epochs = ', 50)
('Generator loss 0.7455 ', 'Discriminator loss 0.6479', 'Total: 1.3935')
----------------------------------
---DISCRIMINATOR---
____________________________________________________________________________________________________
Layer (type)                     Output Shape          Param #     Connected to                     
====================================================================================================
convolution2d_40 (Convolution2D) (None, 32, 16, 16)    608         convolution2d_input_7[0][0]      
____________________________________________________________________________________________________
leakyrelu_40 (LeakyReLU)         (None, 32, 16, 16)    0           convolution2d_40[0][0]           
____________________________________________________________________________________________________
convolution2d_41 (Convolution2D) (None, 64, 8, 8)      18496       leakyrelu_40[0][0]               
____________________________________________________________________________________________________
leakyrelu_41 (LeakyReLU)         (None, 64, 8, 8)      0           convolution2d_41[0][0]           
____________________________________________________________________________________________________
convolution2d_42 (Convolution2D) (None, 128, 4, 4)     73856       leakyrelu_41[0][0]               
____________________________________________________________________________________________________
leakyrelu_42 (LeakyReLU)         (None, 128, 4, 4)     0           convolution2d_42[0][0]           
____________________________________________________________________________________________________
dropout_10 (Dropout)             (None, 128, 4, 4)     0           leakyrelu_42[0][0]               
____________________________________________________________________________________________________
convolution2d_43 (Convolution2D) (None, 256, 2, 2)     295168      dropout_10[0][0]                 
____________________________________________________________________________________________________
leakyrelu_43 (LeakyReLU)         (None, 256, 2, 2)     0           convolution2d_43[0][0]           
____________________________________________________________________________________________________
dropout_11 (Dropout)             (None, 256, 2, 2)     0           leakyrelu_43[0][0]               
____________________________________________________________________________________________________
flatten_4 (Flatten)              (None, 1024)          0           dropout_11[0][0]                 
____________________________________________________________________________________________________
dense_7 (Dense)                  (None, 512)           524800      flatten_4[0][0]                  
____________________________________________________________________________________________________
leakyrelu_44 (LeakyReLU)         (None, 512)           0           dense_7[0][0]                    
____________________________________________________________________________________________________
dropout_12 (Dropout)             (None, 512)           0           leakyrelu_44[0][0]               
____________________________________________________________________________________________________
dense_8 (Dense)                  (None, 1)             513         dropout_12[0][0]                 
====================================================================================================
Total params: 913441
____________________________________________________________________________________________________
None
----------------------------------
---GENERATOR---
____________________________________________________________________________________________________
Layer (type)                     Output Shape          Param #     Connected to                     
====================================================================================================
convolution2d_44 (Convolution2D) (None, 32, 32, 32)    320         convolution2d_input_8[0][0]      
____________________________________________________________________________________________________
leakyrelu_45 (LeakyReLU)         (None, 32, 32, 32)    0           convolution2d_44[0][0]           
____________________________________________________________________________________________________
convolution2d_45 (Convolution2D) (None, 64, 32, 32)    18496       leakyrelu_45[0][0]               
____________________________________________________________________________________________________
batchnormalization_22 (BatchNorma(None, 64, 32, 32)    128         convolution2d_45[0][0]           
____________________________________________________________________________________________________
leakyrelu_46 (LeakyReLU)         (None, 64, 32, 32)    0           batchnormalization_22[0][0]      
____________________________________________________________________________________________________
convolution2d_46 (Convolution2D) (None, 128, 32, 32)   73856       leakyrelu_46[0][0]               
____________________________________________________________________________________________________
batchnormalization_23 (BatchNorma(None, 128, 32, 32)   256         convolution2d_46[0][0]           
____________________________________________________________________________________________________
leakyrelu_47 (LeakyReLU)         (None, 128, 32, 32)   0           batchnormalization_23[0][0]      
____________________________________________________________________________________________________
convolution2d_47 (Convolution2D) (None, 256, 32, 32)   295168      leakyrelu_47[0][0]               
____________________________________________________________________________________________________
batchnormalization_24 (BatchNorma(None, 256, 32, 32)   512         convolution2d_47[0][0]           
____________________________________________________________________________________________________
leakyrelu_48 (LeakyReLU)         (None, 256, 32, 32)   0           batchnormalization_24[0][0]      
____________________________________________________________________________________________________
convolution2d_48 (Convolution2D) (None, 256, 32, 32)   590080      leakyrelu_48[0][0]               
____________________________________________________________________________________________________
batchnormalization_25 (BatchNorma(None, 256, 32, 32)   512         convolution2d_48[0][0]           
____________________________________________________________________________________________________
leakyrelu_49 (LeakyReLU)         (None, 256, 32, 32)   0           batchnormalization_25[0][0]      
____________________________________________________________________________________________________
convolution2d_49 (Convolution2D) (None, 128, 32, 32)   295040      leakyrelu_49[0][0]               
____________________________________________________________________________________________________
batchnormalization_26 (BatchNorma(None, 128, 32, 32)   256         convolution2d_49[0][0]           
____________________________________________________________________________________________________
leakyrelu_50 (LeakyReLU)         (None, 128, 32, 32)   0           batchnormalization_26[0][0]      
____________________________________________________________________________________________________
convolution2d_50 (Convolution2D) (None, 64, 32, 32)    73792       leakyrelu_50[0][0]               
____________________________________________________________________________________________________
batchnormalization_27 (BatchNorma(None, 64, 32, 32)    128         convolution2d_50[0][0]           
____________________________________________________________________________________________________
leakyrelu_51 (LeakyReLU)         (None, 64, 32, 32)    0           batchnormalization_27[0][0]      
____________________________________________________________________________________________________
convolution2d_51 (Convolution2D) (None, 32, 32, 32)    18464       leakyrelu_51[0][0]               
____________________________________________________________________________________________________
batchnormalization_28 (BatchNorma(None, 32, 32, 32)    64          convolution2d_51[0][0]           
____________________________________________________________________________________________________
leakyrelu_52 (LeakyReLU)         (None, 32, 32, 32)    0           batchnormalization_28[0][0]      
____________________________________________________________________________________________________
convolution2d_52 (Convolution2D) (None, 2, 32, 32)     578         leakyrelu_52[0][0]               
____________________________________________________________________________________________________
lambda_4 (Lambda)                (None, 2, 32, 32)     0           convolution2d_52[0][0]           
====================================================================================================
Total params: 1367650
____________________________________________________________________________________________________
None
----------------------------------
---GAN---
____________________________________________________________________________________________________
Layer (type)                     Output Shape          Param #     Connected to                     
====================================================================================================
sequential_11 (Sequential)       (None, 2, 32, 32)     1367650                                      
____________________________________________________________________________________________________
sequential_10 (Sequential)       (None, 1)             0           lambda_4[0][0]                   
====================================================================================================
Total params: 2281091
____________________________________________________________________________________________________
None
----------------------------------
('Training with dataset based on class - ', 'all', 'with', 32768, 'samples')
----------------------------------
____________________________________________________________________________________________________
Layer (type)                     Output Shape          Param #     Connected to                     
====================================================================================================
convolution2d_44 (Convolution2D) (None, 32, 32, 32)    320         convolution2d_input_8[0][0]      
____________________________________________________________________________________________________
leakyrelu_45 (LeakyReLU)         (None, 32, 32, 32)    0           convolution2d_44[0][0]           
____________________________________________________________________________________________________
convolution2d_45 (Convolution2D) (None, 64, 32, 32)    18496       leakyrelu_45[0][0]               
____________________________________________________________________________________________________
batchnormalization_22 (BatchNorma(None, 64, 32, 32)    128         convolution2d_45[0][0]           
____________________________________________________________________________________________________
leakyrelu_46 (LeakyReLU)         (None, 64, 32, 32)    0           batchnormalization_22[0][0]      
____________________________________________________________________________________________________
convolution2d_46 (Convolution2D) (None, 128, 32, 32)   73856       leakyrelu_46[0][0]               
____________________________________________________________________________________________________
batchnormalization_23 (BatchNorma(None, 128, 32, 32)   256         convolution2d_46[0][0]           
____________________________________________________________________________________________________
leakyrelu_47 (LeakyReLU)         (None, 128, 32, 32)   0           batchnormalization_23[0][0]      
____________________________________________________________________________________________________
convolution2d_47 (Convolution2D) (None, 256, 32, 32)   295168      leakyrelu_47[0][0]               
____________________________________________________________________________________________________
batchnormalization_24 (BatchNorma(None, 256, 32, 32)   512         convolution2d_47[0][0]           
____________________________________________________________________________________________________
leakyrelu_48 (LeakyReLU)         (None, 256, 32, 32)   0           batchnormalization_24[0][0]      
____________________________________________________________________________________________________
convolution2d_48 (Convolution2D) (None, 256, 32, 32)   590080      leakyrelu_48[0][0]               
____________________________________________________________________________________________________
batchnormalization_25 (BatchNorma(None, 256, 32, 32)   512         convolution2d_48[0][0]           
____________________________________________________________________________________________________
leakyrelu_49 (LeakyReLU)         (None, 256, 32, 32)   0           batchnormalization_25[0][0]      
____________________________________________________________________________________________________
convolution2d_49 (Convolution2D) (None, 128, 32, 32)   295040      leakyrelu_49[0][0]               
____________________________________________________________________________________________________
batchnormalization_26 (BatchNorma(None, 128, 32, 32)   256         convolution2d_49[0][0]           
____________________________________________________________________________________________________
leakyrelu_50 (LeakyReLU)         (None, 128, 32, 32)   0           batchnormalization_26[0][0]      
____________________________________________________________________________________________________
convolution2d_50 (Convolution2D) (None, 64, 32, 32)    73792       leakyrelu_50[0][0]               
____________________________________________________________________________________________________
batchnormalization_27 (BatchNorma(None, 64, 32, 32)    128         convolution2d_50[0][0]           
____________________________________________________________________________________________________
leakyrelu_51 (LeakyReLU)         (None, 64, 32, 32)    0           batchnormalization_27[0][0]      
____________________________________________________________________________________________________
convolution2d_51 (Convolution2D) (None, 32, 32, 32)    18464       leakyrelu_51[0][0]               
____________________________________________________________________________________________________
batchnormalization_28 (BatchNorma(None, 32, 32, 32)    64          convolution2d_51[0][0]           
____________________________________________________________________________________________________
leakyrelu_52 (LeakyReLU)         (None, 32, 32, 32)    0           batchnormalization_28[0][0]      
____________________________________________________________________________________________________
convolution2d_52 (Convolution2D) (None, 2, 32, 32)     578         leakyrelu_52[0][0]               
____________________________________________________________________________________________________
lambda_4 (Lambda)                (None, 2, 32, 32)     0           convolution2d_52[0][0]           
====================================================================================================
Total params: 1367650
____________________________________________________________________________________________________
____________________________________________________________________________________________________
Layer (type)                     Output Shape          Param #     Connected to                     
====================================================================================================
sequential_11 (Sequential)       (None, 2, 32, 32)     1367650                                      
____________________________________________________________________________________________________
sequential_10 (Sequential)       (None, 1)             0           lambda_4[0][0]                   
====================================================================================================
Total params: 2281091
____________________________________________________________________________________________________
____________________________________________________________________________________________________
Layer (type)                     Output Shape          Param #     Connected to                     
====================================================================================================
convolution2d_40 (Convolution2D) (None, 32, 16, 16)    608         convolution2d_input_7[0][0]      
____________________________________________________________________________________________________
leakyrelu_40 (LeakyReLU)         (None, 32, 16, 16)    0           convolution2d_40[0][0]           
____________________________________________________________________________________________________
convolution2d_41 (Convolution2D) (None, 64, 8, 8)      18496       leakyrelu_40[0][0]               
____________________________________________________________________________________________________
leakyrelu_41 (LeakyReLU)         (None, 64, 8, 8)      0           convolution2d_41[0][0]           
____________________________________________________________________________________________________
convolution2d_42 (Convolution2D) (None, 128, 4, 4)     73856       leakyrelu_41[0][0]               
____________________________________________________________________________________________________
leakyrelu_42 (LeakyReLU)         (None, 128, 4, 4)     0           convolution2d_42[0][0]           
____________________________________________________________________________________________________
dropout_10 (Dropout)             (None, 128, 4, 4)     0           leakyrelu_42[0][0]               
____________________________________________________________________________________________________
convolution2d_43 (Convolution2D) (None, 256, 2, 2)     295168      dropout_10[0][0]                 
____________________________________________________________________________________________________
leakyrelu_43 (LeakyReLU)         (None, 256, 2, 2)     0           convolution2d_43[0][0]           
____________________________________________________________________________________________________
dropout_11 (Dropout)             (None, 256, 2, 2)     0           leakyrelu_43[0][0]               
____________________________________________________________________________________________________
flatten_4 (Flatten)              (None, 1024)          0           dropout_11[0][0]                 
____________________________________________________________________________________________________
dense_7 (Dense)                  (None, 512)           524800      flatten_4[0][0]                  
____________________________________________________________________________________________________
leakyrelu_44 (LeakyReLU)         (None, 512)           0           dense_7[0][0]                    
____________________________________________________________________________________________________
dropout_12 (Dropout)             (None, 512)           0           leakyrelu_44[0][0]               
____________________________________________________________________________________________________
dense_8 (Dense)                  (None, 1)             513         dropout_12[0][0]                 
====================================================================================================
Total params: 913441
____________________________________________________________________________________________________
('Epoch', 1, 'of', 50)
('Number of batches', 128)
('GAN loss 0.7957 ', 'GAN acc 0.4883', 'Discriminator loss 0.6952', 'Discriminator accuracy 0.5547', 'Total loss: 1.4909', 'for batch', 0)
…
----------------------------------
Save generator model
----------------------------------
('Total samples = ', 32768, ' Batch size =', 256, ' Epochs = ', 50)
('Generator loss 0.8429 ', 'Discriminator loss 0.6400', 'Total: 1.4828')
----------------------------------
---DISCRIMINATOR---
____________________________________________________________________________________________________
Layer (type)                     Output Shape          Param #     Connected to                     
====================================================================================================
convolution2d_40 (Convolution2D) (None, 32, 16, 16)    608         convolution2d_input_7[0][0]      
____________________________________________________________________________________________________
leakyrelu_40 (LeakyReLU)         (None, 32, 16, 16)    0           convolution2d_40[0][0]           
____________________________________________________________________________________________________
convolution2d_41 (Convolution2D) (None, 64, 8, 8)      18496       leakyrelu_40[0][0]               
____________________________________________________________________________________________________
leakyrelu_41 (LeakyReLU)         (None, 64, 8, 8)      0           convolution2d_41[0][0]           
____________________________________________________________________________________________________
convolution2d_42 (Convolution2D) (None, 128, 4, 4)     73856       leakyrelu_41[0][0]               
____________________________________________________________________________________________________
leakyrelu_42 (LeakyReLU)         (None, 128, 4, 4)     0           convolution2d_42[0][0]           
____________________________________________________________________________________________________
dropout_10 (Dropout)             (None, 128, 4, 4)     0           leakyrelu_42[0][0]               
____________________________________________________________________________________________________
convolution2d_43 (Convolution2D) (None, 256, 2, 2)     295168      dropout_10[0][0]                 
____________________________________________________________________________________________________
leakyrelu_43 (LeakyReLU)         (None, 256, 2, 2)     0           convolution2d_43[0][0]           
____________________________________________________________________________________________________
dropout_11 (Dropout)             (None, 256, 2, 2)     0           leakyrelu_43[0][0]               
____________________________________________________________________________________________________
flatten_4 (Flatten)              (None, 1024)          0           dropout_11[0][0]                 
____________________________________________________________________________________________________
dense_7 (Dense)                  (None, 512)           524800      flatten_4[0][0]                  
____________________________________________________________________________________________________
leakyrelu_44 (LeakyReLU)         (None, 512)           0           dense_7[0][0]                    
____________________________________________________________________________________________________
dropout_12 (Dropout)             (None, 512)           0           leakyrelu_44[0][0]               
____________________________________________________________________________________________________
dense_8 (Dense)                  (None, 1)             513         dropout_12[0][0]                 
====================================================================================================
Total params: 913441
____________________________________________________________________________________________________
None
----------------------------------
---GENERATOR---
____________________________________________________________________________________________________
Layer (type)                     Output Shape          Param #     Connected to                     
====================================================================================================
convolution2d_44 (Convolution2D) (None, 32, 32, 32)    320         convolution2d_input_8[0][0]      
____________________________________________________________________________________________________
leakyrelu_45 (LeakyReLU)         (None, 32, 32, 32)    0           convolution2d_44[0][0]           
____________________________________________________________________________________________________
convolution2d_45 (Convolution2D) (None, 64, 32, 32)    18496       leakyrelu_45[0][0]               
____________________________________________________________________________________________________
batchnormalization_22 (BatchNorma(None, 64, 32, 32)    128         convolution2d_45[0][0]           
____________________________________________________________________________________________________
leakyrelu_46 (LeakyReLU)         (None, 64, 32, 32)    0           batchnormalization_22[0][0]      
____________________________________________________________________________________________________
convolution2d_46 (Convolution2D) (None, 128, 32, 32)   73856       leakyrelu_46[0][0]               
____________________________________________________________________________________________________
batchnormalization_23 (BatchNorma(None, 128, 32, 32)   256         convolution2d_46[0][0]           
____________________________________________________________________________________________________
leakyrelu_47 (LeakyReLU)         (None, 128, 32, 32)   0           batchnormalization_23[0][0]      
____________________________________________________________________________________________________
convolution2d_47 (Convolution2D) (None, 256, 32, 32)   295168      leakyrelu_47[0][0]               
____________________________________________________________________________________________________
batchnormalization_24 (BatchNorma(None, 256, 32, 32)   512         convolution2d_47[0][0]           
____________________________________________________________________________________________________
leakyrelu_48 (LeakyReLU)         (None, 256, 32, 32)   0           batchnormalization_24[0][0]      
____________________________________________________________________________________________________
convolution2d_48 (Convolution2D) (None, 256, 32, 32)   590080      leakyrelu_48[0][0]               
____________________________________________________________________________________________________
batchnormalization_25 (BatchNorma(None, 256, 32, 32)   512         convolution2d_48[0][0]           
____________________________________________________________________________________________________
leakyrelu_49 (LeakyReLU)         (None, 256, 32, 32)   0           batchnormalization_25[0][0]      
____________________________________________________________________________________________________
convolution2d_49 (Convolution2D) (None, 128, 32, 32)   295040      leakyrelu_49[0][0]               
____________________________________________________________________________________________________
batchnormalization_26 (BatchNorma(None, 128, 32, 32)   256         convolution2d_49[0][0]           
____________________________________________________________________________________________________
leakyrelu_50 (LeakyReLU)         (None, 128, 32, 32)   0           batchnormalization_26[0][0]      
____________________________________________________________________________________________________
convolution2d_50 (Convolution2D) (None, 64, 32, 32)    73792       leakyrelu_50[0][0]               
____________________________________________________________________________________________________
batchnormalization_27 (BatchNorma(None, 64, 32, 32)    128         convolution2d_50[0][0]           
____________________________________________________________________________________________________
leakyrelu_51 (LeakyReLU)         (None, 64, 32, 32)    0           batchnormalization_27[0][0]      
____________________________________________________________________________________________________
convolution2d_51 (Convolution2D) (None, 32, 32, 32)    18464       leakyrelu_51[0][0]               
____________________________________________________________________________________________________
batchnormalization_28 (BatchNorma(None, 32, 32, 32)    64          convolution2d_51[0][0]           
____________________________________________________________________________________________________
leakyrelu_52 (LeakyReLU)         (None, 32, 32, 32)    0           batchnormalization_28[0][0]      
____________________________________________________________________________________________________
convolution2d_52 (Convolution2D) (None, 2, 32, 32)     578         leakyrelu_52[0][0]               
____________________________________________________________________________________________________
lambda_4 (Lambda)                (None, 2, 32, 32)     0           convolution2d_52[0][0]           
====================================================================================================
Total params: 1367650
____________________________________________________________________________________________________
None
----------------------------------
---GAN---
____________________________________________________________________________________________________
Layer (type)                     Output Shape          Param #     Connected to                     
====================================================================================================
sequential_11 (Sequential)       (None, 2, 32, 32)     1367650                                      
____________________________________________________________________________________________________
sequential_10 (Sequential)       (None, 1)             913441      lambda_4[0][0]                   
====================================================================================================
Total params: 2281091
____________________________________________________________________________________________________
None
