----------------------------------
('Training with dataset based on class - ', 'truck', 'with', 5000, 'samples')
----------------------------------
____________________________________________________________________________________________________
Layer (type)                     Output Shape          Param #     Connected to                     
====================================================================================================
sequential_8 (Sequential)        (None, 2, 32, 32)     1367650                                      
____________________________________________________________________________________________________
sequential_7 (Sequential)        (None, 1)             0           lambda_3[0][0]                   
====================================================================================================
Total params: 1596531
____________________________________________________________________________________________________
____________________________________________________________________________________________________
Layer (type)                     Output Shape          Param #     Connected to                     
====================================================================================================
convolution2d_27 (Convolution2D) (None, 16, 16, 16)    304         convolution2d_input_5[0][0]      
____________________________________________________________________________________________________
leakyrelu_27 (LeakyReLU)         (None, 16, 16, 16)    0           convolution2d_27[0][0]           
____________________________________________________________________________________________________
dropout_11 (Dropout)             (None, 16, 16, 16)    0           leakyrelu_27[0][0]               
____________________________________________________________________________________________________
convolution2d_28 (Convolution2D) (None, 32, 8, 8)      4640        dropout_11[0][0]                 
____________________________________________________________________________________________________
leakyrelu_28 (LeakyReLU)         (None, 32, 8, 8)      0           convolution2d_28[0][0]           
____________________________________________________________________________________________________
dropout_12 (Dropout)             (None, 32, 8, 8)      0           leakyrelu_28[0][0]               
____________________________________________________________________________________________________
convolution2d_29 (Convolution2D) (None, 64, 4, 4)      18496       dropout_12[0][0]                 
____________________________________________________________________________________________________
leakyrelu_29 (LeakyReLU)         (None, 64, 4, 4)      0           convolution2d_29[0][0]           
____________________________________________________________________________________________________
dropout_13 (Dropout)             (None, 64, 4, 4)      0           leakyrelu_29[0][0]               
____________________________________________________________________________________________________
convolution2d_30 (Convolution2D) (None, 128, 2, 2)     73856       dropout_13[0][0]                 
____________________________________________________________________________________________________
leakyrelu_30 (LeakyReLU)         (None, 128, 2, 2)     0           convolution2d_30[0][0]           
____________________________________________________________________________________________________
dropout_14 (Dropout)             (None, 128, 2, 2)     0           leakyrelu_30[0][0]               
____________________________________________________________________________________________________
flatten_3 (Flatten)              (None, 512)           0           dropout_14[0][0]                 
____________________________________________________________________________________________________
dense_5 (Dense)                  (None, 256)           131328      flatten_3[0][0]                  
____________________________________________________________________________________________________
leakyrelu_31 (LeakyReLU)         (None, 256)           0           dense_5[0][0]                    
____________________________________________________________________________________________________
dropout_15 (Dropout)             (None, 256)           0           leakyrelu_31[0][0]               
____________________________________________________________________________________________________
dense_6 (Dense)                  (None, 1)             257         dropout_15[0][0]                 
====================================================================================================
Total params: 228881
____________________________________________________________________________________________________
('Epoch', 1, 'of', 50)
('Number of batches', 19)
('GAN loss 0.5002 ', 'GAN acc 0.7617', 'Discriminator loss 0.8773', 'Discriminator accuracy 0.5312', 'Total loss: 1.3775', 'for batch', 0)
…
