----------------------------------
('Training with dataset based on class - ', 'truck', 'with', 5000, 'samples')
----------------------------------
____________________________________________________________________________________________________
Layer (type)                     Output Shape          Param #     Connected to                     
====================================================================================================
sequential_8 (Sequential)        (None, 2, 32, 32)     1367650                                      
____________________________________________________________________________________________________
sequential_7 (Sequential)        (None, 1)             0           lambda_3[0][0]                   
====================================================================================================
Total params: 1887107
____________________________________________________________________________________________________
____________________________________________________________________________________________________
Layer (type)                     Output Shape          Param #     Connected to                     
====================================================================================================
convolution2d_27 (Convolution2D) (None, 32, 16, 16)    608         convolution2d_input_5[0][0]      
____________________________________________________________________________________________________
leakyrelu_27 (LeakyReLU)         (None, 32, 16, 16)    0           convolution2d_27[0][0]           
____________________________________________________________________________________________________
dropout_11 (Dropout)             (None, 32, 16, 16)    0           leakyrelu_27[0][0]               
____________________________________________________________________________________________________
convolution2d_28 (Convolution2D) (None, 64, 8, 8)      18496       dropout_11[0][0]                 
____________________________________________________________________________________________________
leakyrelu_28 (LeakyReLU)         (None, 64, 8, 8)      0           convolution2d_28[0][0]           
____________________________________________________________________________________________________
dropout_12 (Dropout)             (None, 64, 8, 8)      0           leakyrelu_28[0][0]               
____________________________________________________________________________________________________
convolution2d_29 (Convolution2D) (None, 128, 4, 4)     73856       dropout_12[0][0]                 
____________________________________________________________________________________________________
leakyrelu_29 (LeakyReLU)         (None, 128, 4, 4)     0           convolution2d_29[0][0]           
____________________________________________________________________________________________________
dropout_13 (Dropout)             (None, 128, 4, 4)     0           leakyrelu_29[0][0]               
____________________________________________________________________________________________________
convolution2d_30 (Convolution2D) (None, 256, 2, 2)     295168      dropout_13[0][0]                 
____________________________________________________________________________________________________
leakyrelu_30 (LeakyReLU)         (None, 256, 2, 2)     0           convolution2d_30[0][0]           
____________________________________________________________________________________________________
dropout_14 (Dropout)             (None, 256, 2, 2)     0           leakyrelu_30[0][0]               
____________________________________________________________________________________________________
flatten_3 (Flatten)              (None, 1024)          0           dropout_14[0][0]                 
____________________________________________________________________________________________________
dense_5 (Dense)                  (None, 128)           131200      flatten_3[0][0]                  
________________________________________________________________________________________