----------------------------------
('Training with dataset based on class - ', 'all', 'with', 32768, 'samples')
----------------------------------
____________________________________________________________________________________________________
Layer (type)                     Output Shape          Param #     Connected to                     
====================================================================================================
model_4 (Model)                  (None, 2, 32, 32)     7846626                                      
____________________________________________________________________________________________________
sequential_7 (Sequential)        (None, 1)             0           convolution2d_92[0][0]           
====================================================================================================
Total params: 8366083
____________________________________________________________________________________________________
____________________________________________________________________________________________________
Layer (type)                     Output Shape          Param #     Connected to                     
====================================================================================================
convolution2d_70 (Convolution2D) (None, 32, 16, 16)    608         convolution2d_input_4[0][0]      
____________________________________________________________________________________________________
leakyrelu_16 (LeakyReLU)         (None, 32, 16, 16)    0           convolution2d_70[0][0]           
____________________________________________________________________________________________________
dropout_16 (Dropout)             (None, 32, 16, 16)    0           leakyrelu_16[0][0]               
____________________________________________________________________________________________________
convolution2d_71 (Convolution2D) (None, 64, 8, 8)      18496       dropout_16[0][0]                 
____________________________________________________________________________________________________
leakyrelu_17 (LeakyReLU)         (None, 64, 8, 8)      0           convolution2d_71[0][0]           
____________________________________________________________________________________________________
dropout_17 (Dropout)             (None, 64, 8, 8)      0           leakyrelu_17[0][0]               
____________________________________________________________________________________________________
convolution2d_72 (Convolution2D) (None, 128, 4, 4)     73856       dropout_17[0][0]                 
____________________________________________________________________________________________________
leakyrelu_18 (LeakyReLU)         (None, 128, 4, 4)     0           convolution2d_72[0][0]           
____________________________________________________________________________________________________
dropout_18 (Dropout)             (None, 128, 4, 4)     0           leakyrelu_18[0][0]               
____________________________________________________________________________________________________
convolution2d_73 (Convolution2D) (None, 256, 2, 2)     295168      dropout_18[0][0]                 
____________________________________________________________________________________________________
leakyrelu_19 (LeakyReLU)         (None, 256, 2, 2)     0           convolution2d_73[0][0]           
____________________________________________________________________________________________________
dropout_19 (Dropout)             (None, 256, 2, 2)     0           leakyrelu_19[0][0]               
____________________________________________________________________________________________________
flatten_4 (Flatten)              (None, 1024)          0           dropout_19[0][0]                 
____________________________________________________________________________________________________
dense_7 (Dense)                  (None, 128)           131200      flatten_4[0][0]                  
____________________________________________________________________________________________________
leakyrelu_20 (LeakyReLU)         (None, 128)           0           dense_7[0][0]                    
____________________________________________________________________________________________________
dropout_20 (Dropout)             (None, 128)           0           leakyrelu_20[0][0]               
____________________________________________________________________________________________________
dense_8 (Dense)                  (None, 1)             129         dropout_20[0][0]                 
====================================================================================================
Total params: 519457
____________________________________________________________________________________________________
('Epoch', 1, 'of', 50)
('Number of batches', 128)
('GAN loss 0.6895 ', 'GAN acc 0.5625', 'Discriminator loss 0.6851', 'Discriminator accuracy 0.4746', 'Total loss: 1.3746', 'for batch', 0)
…
