…
----------------------------------
End of training
Saving histograms
----------------------------------
Total samples =  5000  Batch size = 256  Epochs =  50
Generator loss 1.4309  Discriminator loss 1.3440 Total: 2.7749
----------------------------------
---DISCRIMINATOR---
____________________________________________________________________________________________________
Layer (type)                     Output Shape          Param #     Connected to                     
====================================================================================================
convolution2d_1 (Convolution2D)  (None, 8, 32, 32)     224         convolution2d_input_1[0][0]      
____________________________________________________________________________________________________
leakyrelu_1 (LeakyReLU)          (None, 8, 32, 32)     0           convolution2d_1[0][0]            
____________________________________________________________________________________________________
maxpooling2d_1 (MaxPooling2D)    (None, 8, 16, 16)     0           leakyrelu_1[0][0]                
____________________________________________________________________________________________________
convolution2d_2 (Convolution2D)  (None, 16, 16, 16)    1168        maxpooling2d_1[0][0]             
____________________________________________________________________________________________________
leakyrelu_2 (LeakyReLU)          (None, 16, 16, 16)    0           convolution2d_2[0][0]            
____________________________________________________________________________________________________
maxpooling2d_2 (MaxPooling2D)    (None, 16, 8, 8)      0           leakyrelu_2[0][0]                
____________________________________________________________________________________________________
convolution2d_3 (Convolution2D)  (None, 32, 8, 8)      4640        maxpooling2d_2[0][0]             
____________________________________________________________________________________________________
leakyrelu_3 (LeakyReLU)          (None, 32, 8, 8)      0           convolution2d_3[0][0]            
____________________________________________________________________________________________________
maxpooling2d_3 (MaxPooling2D)    (None, 32, 4, 4)      0           leakyrelu_3[0][0]                
____________________________________________________________________________________________________
convolution2d_4 (Convolution2D)  (None, 64, 4, 4)      18496       maxpooling2d_3[0][0]             
____________________________________________________________________________________________________
leakyrelu_4 (LeakyReLU)          (None, 64, 4, 4)      0           convolution2d_4[0][0]            
____________________________________________________________________________________________________
maxpooling2d_4 (MaxPooling2D)    (None, 64, 2, 2)      0           leakyrelu_4[0][0]                
____________________________________________________________________________________________________
flatten_1 (Flatten)              (None, 256)           0           maxpooling2d_4[0][0]             
____________________________________________________________________________________________________
dense_1 (Dense)                  (None, 512)           131584      flatten_1[0][0]                  
____________________________________________________________________________________________________
leakyrelu_5 (LeakyReLU)          (None, 512)           0           dense_1[0][0]                    
____________________________________________________________________________________________________
dropout_1 (Dropout)              (None, 512)           0           leakyrelu_5[0][0]                
____________________________________________________________________________________________________
dense_2 (Dense)                  (None, 256)           131328      dropout_1[0][0]                  
____________________________________________________________________________________________________
leakyrelu_6 (LeakyReLU)          (None, 256)           0           dense_2[0][0]                    
____________________________________________________________________________________________________
dropout_2 (Dropout)              (None, 256)           0           leakyrelu_6[0][0]                
____________________________________________________________________________________________________
dense_3 (Dense)                  (None, 1)             257         dropout_2[0][0]                  
====================================================================================================
Total params: 287697
____________________________________________________________________________________________________
None
----------------------------------
---GENERATOR---
____________________________________________________________________________________________________
Layer (type)                     Output Shape          Param #     Connected to                     
====================================================================================================
convolution2d_5 (Convolution2D)  (None, 8, 32, 32)     80          convolution2d_input_2[0][0]      
____________________________________________________________________________________________________
convolution2d_6 (Convolution2D)  (None, 16, 32, 32)    1168        convolution2d_5[0][0]            
____________________________________________________________________________________________________
convolution2d_7 (Convolution2D)  (None, 32, 32, 32)    4640        convolution2d_6[0][0]            
____________________________________________________________________________________________________
batchnormalization_1 (BatchNormal(None, 32, 32, 32)    64          convolution2d_7[0][0]            
____________________________________________________________________________________________________
convolution2d_8 (Convolution2D)  (None, 64, 32, 32)    18496       batchnormalization_1[0][0]       
____________________________________________________________________________________________________
batchnormalization_2 (BatchNormal(None, 64, 32, 32)    64          convolution2d_8[0][0]            
____________________________________________________________________________________________________
convolution2d_9 (Convolution2D)  (None, 32, 32, 32)    18464       batchnormalization_2[0][0]       
____________________________________________________________________________________________________
batchnormalization_3 (BatchNormal(None, 32, 32, 32)    64          convolution2d_9[0][0]            
____________________________________________________________________________________________________
convolution2d_10 (Convolution2D) (None, 16, 32, 32)    4624        batchnormalization_3[0][0]       
____________________________________________________________________________________________________
convolution2d_11 (Convolution2D) (None, 8, 32, 32)     1160        convolution2d_10[0][0]           
____________________________________________________________________________________________________
convolution2d_12 (Convolution2D) (None, 3, 32, 32)     219         convolution2d_11[0][0]           
____________________________________________________________________________________________________
lambda_1 (Lambda)                (None, 3, 32, 32)     0           convolution2d_12[0][0]           
====================================================================================================
Total params: 49043
____________________________________________________________________________________________________
None
----------------------------------
---GAN---
____________________________________________________________________________________________________
Layer (type)                     Output Shape          Param #     Connected to                     
====================================================================================================
sequential_2 (Sequential)        (None, 3, 32, 32)     49043                                        
____________________________________________________________________________________________________
sequential_1 (Sequential)        (None, 1)             287697      lambda_1[0][0]                   
====================================================================================================
Total params: 336740
____________________________________________________________________________________________________
None
----------------------------------
Training with dataset based on class -  ship with 5000 samples
----------------------------------
…
----------------------------------
End of training
Saving histograms
----------------------------------
Total samples =  5000  Batch size = 256  Epochs =  50
Generator loss 8.3722  Discriminator loss 0.9401 Total: 9.3123
----------------------------------
---DISCRIMINATOR---
____________________________________________________________________________________________________
Layer (type)                     Output Shape          Param #     Connected to                     
====================================================================================================
convolution2d_13 (Convolution2D) (None, 8, 32, 32)     224         convolution2d_input_3[0][0]      
____________________________________________________________________________________________________
leakyrelu_7 (LeakyReLU)          (None, 8, 32, 32)     0           convolution2d_13[0][0]           
____________________________________________________________________________________________________
maxpooling2d_5 (MaxPooling2D)    (None, 8, 16, 16)     0           leakyrelu_7[0][0]                
____________________________________________________________________________________________________
convolution2d_14 (Convolution2D) (None, 16, 16, 16)    1168        maxpooling2d_5[0][0]             
____________________________________________________________________________________________________
leakyrelu_8 (LeakyReLU)          (None, 16, 16, 16)    0           convolution2d_14[0][0]           
____________________________________________________________________________________________________
maxpooling2d_6 (MaxPooling2D)    (None, 16, 8, 8)      0           leakyrelu_8[0][0]                
____________________________________________________________________________________________________
convolution2d_15 (Convolution2D) (None, 32, 8, 8)      4640        maxpooling2d_6[0][0]             
____________________________________________________________________________________________________
leakyrelu_9 (LeakyReLU)          (None, 32, 8, 8)      0           convolution2d_15[0][0]           
____________________________________________________________________________________________________
maxpooling2d_7 (MaxPooling2D)    (None, 32, 4, 4)      0           leakyrelu_9[0][0]                
____________________________________________________________________________________________________
convolution2d_16 (Convolution2D) (None, 64, 4, 4)      18496       maxpooling2d_7[0][0]             
____________________________________________________________________________________________________
leakyrelu_10 (LeakyReLU)         (None, 64, 4, 4)      0           convolution2d_16[0][0]           
____________________________________________________________________________________________________
maxpooling2d_8 (MaxPooling2D)    (None, 64, 2, 2)      0           leakyrelu_10[0][0]               
____________________________________________________________________________________________________
flatten_2 (Flatten)              (None, 256)           0           maxpooling2d_8[0][0]             
____________________________________________________________________________________________________
dense_4 (Dense)                  (None, 512)           131584      flatten_2[0][0]                  
____________________________________________________________________________________________________
leakyrelu_11 (LeakyReLU)         (None, 512)           0           dense_4[0][0]                    
____________________________________________________________________________________________________
dropout_3 (Dropout)              (None, 512)           0           leakyrelu_11[0][0]               
____________________________________________________________________________________________________
dense_5 (Dense)                  (None, 256)           131328      dropout_3[0][0]                  
____________________________________________________________________________________________________
leakyrelu_12 (LeakyReLU)         (None, 256)           0           dense_5[0][0]                    
____________________________________________________________________________________________________
dropout_4 (Dropout)              (None, 256)           0           leakyrelu_12[0][0]               
____________________________________________________________________________________________________
dense_6 (Dense)                  (None, 1)             257         dropout_4[0][0]                  
====================================================================================================
Total params: 287697
____________________________________________________________________________________________________
None
----------------------------------
---GENERATOR---
____________________________________________________________________________________________________
Layer (type)                     Output Shape          Param #     Connected to                     
====================================================================================================
convolution2d_17 (Convolution2D) (None, 8, 32, 32)     80          convolution2d_input_4[0][0]      
____________________________________________________________________________________________________
convolution2d_18 (Convolution2D) (None, 16, 32, 32)    1168        convolution2d_17[0][0]           
____________________________________________________________________________________________________
convolution2d_19 (Convolution2D) (None, 32, 32, 32)    4640        convolution2d_18[0][0]           
____________________________________________________________________________________________________
batchnormalization_4 (BatchNormal(None, 32, 32, 32)    64          convolution2d_19[0][0]           
____________________________________________________________________________________________________
convolution2d_20 (Convolution2D) (None, 64, 32, 32)    18496       batchnormalization_4[0][0]       
____________________________________________________________________________________________________
batchnormalization_5 (BatchNormal(None, 64, 32, 32)    64          convolution2d_20[0][0]           
____________________________________________________________________________________________________
convolution2d_21 (Convolution2D) (None, 32, 32, 32)    18464       batchnormalization_5[0][0]       
____________________________________________________________________________________________________
batchnormalization_6 (BatchNormal(None, 32, 32, 32)    64          convolution2d_21[0][0]           
____________________________________________________________________________________________________
convolution2d_22 (Convolution2D) (None, 16, 32, 32)    4624        batchnormalization_6[0][0]       
____________________________________________________________________________________________________
convolution2d_23 (Convolution2D) (None, 8, 32, 32)     1160        convolution2d_22[0][0]           
____________________________________________________________________________________________________
convolution2d_24 (Convolution2D) (None, 3, 32, 32)     219         convolution2d_23[0][0]           
____________________________________________________________________________________________________
lambda_2 (Lambda)                (None, 3, 32, 32)     0           convolution2d_24[0][0]           
====================================================================================================
Total params: 49043
____________________________________________________________________________________________________
None
----------------------------------
---GAN---
____________________________________________________________________________________________________
Layer (type)                     Output Shape          Param #     Connected to                     
====================================================================================================
sequential_5 (Sequential)        (None, 3, 32, 32)     49043                                        
____________________________________________________________________________________________________
sequential_4 (Sequential)        (None, 1)             0           lambda_2[0][0]                   
====================================================================================================
Total params: 49043
____________________________________________________________________________________________________
None
----------------------------------
Training with dataset based on class -  truck with 5000 samples
----------------------------------
…
