----------------------------------
('Training with dataset based on class - ', 'all', 'with', 32768, 'samples')
----------------------------------
____________________________________________________________________________________________________
Layer (type)                     Output Shape          Param #     Connected to                     
====================================================================================================
input_1 (InputLayer)             (None, 1, 32, 32)     0                                            
____________________________________________________________________________________________________
convolution2d_5 (Convolution2D)  (None, 32, 16, 16)    320         input_1[0][0]                    
____________________________________________________________________________________________________
batchnormalization_1 (BatchNormal(None, 32, 16, 16)    64          convolution2d_5[0][0]            
____________________________________________________________________________________________________
leakyrelu_6 (LeakyReLU)          (None, 32, 16, 16)    0           batchnormalization_1[0][0]       
____________________________________________________________________________________________________
convolution2d_6 (Convolution2D)  (None, 64, 8, 8)      18496       leakyrelu_6[0][0]                
____________________________________________________________________________________________________
batchnormalization_2 (BatchNormal(None, 64, 8, 8)      128         convolution2d_6[0][0]            
____________________________________________________________________________________________________
leakyrelu_7 (LeakyReLU)          (None, 64, 8, 8)      0           batchnormalization_2[0][0]       
____________________________________________________________________________________________________
convolution2d_7 (Convolution2D)  (None, 128, 4, 4)     73856       leakyrelu_7[0][0]                
____________________________________________________________________________________________________
batchnormalization_3 (BatchNormal(None, 128, 4, 4)     256         convolution2d_7[0][0]            
____________________________________________________________________________________________________
leakyrelu_8 (LeakyReLU)          (None, 128, 4, 4)     0           batchnormalization_3[0][0]       
____________________________________________________________________________________________________
convolution2d_8 (Convolution2D)  (None, 256, 2, 2)     295168      leakyrelu_8[0][0]                
____________________________________________________________________________________________________
batchnormalization_4 (BatchNormal(None, 256, 2, 2)     512         convolution2d_8[0][0]            
____________________________________________________________________________________________________
leakyrelu_9 (LeakyReLU)          (None, 256, 2, 2)     0           batchnormalization_4[0][0]       
____________________________________________________________________________________________________
convolution2d_9 (Convolution2D)  (None, 512, 1, 1)     1180160     leakyrelu_9[0][0]                
____________________________________________________________________________________________________
batchnormalization_5 (BatchNormal(None, 512, 1, 1)     1024        convolution2d_9[0][0]            
____________________________________________________________________________________________________
leakyrelu_10 (LeakyReLU)         (None, 512, 1, 1)     0           batchnormalization_5[0][0]       
____________________________________________________________________________________________________
deconvolution2d_1 (Deconvolution2(None, 256, 2, 2)     1179904     leakyrelu_10[0][0]               
____________________________________________________________________________________________________
batchnormalization_6 (BatchNormal(None, 256, 2, 2)     512         deconvolution2d_1[0][0]          
____________________________________________________________________________________________________
activation_1 (Activation)        (None, 256, 2, 2)     0           batchnormalization_6[0][0]       
____________________________________________________________________________________________________
dropout_4 (Dropout)              (None, 256, 2, 2)     0           activation_1[0][0]               
____________________________________________________________________________________________________
merge_1 (Merge)                  (None, 512, 2, 2)     0           dropout_4[0][0]                  
                                                                   leakyrelu_9[0][0]                
____________________________________________________________________________________________________
convolution2d_10 (Convolution2D) (None, 128, 2, 2)     589952      merge_1[0][0]                    
____________________________________________________________________________________________________
batchnormalization_7 (BatchNormal(None, 128, 2, 2)     256         convolution2d_10[0][0]           
____________________________________________________________________________________________________
leakyrelu_11 (LeakyReLU)         (None, 128, 2, 2)     0           batchnormalization_7[0][0]       
____________________________________________________________________________________________________
deconvolution2d_2 (Deconvolution2(None, 128, 4, 4)     147584      leakyrelu_11[0][0]               
____________________________________________________________________________________________________
batchnormalization_8 (BatchNormal(None, 128, 4, 4)     256         deconvolution2d_2[0][0]          
____________________________________________________________________________________________________
activation_2 (Activation)        (None, 128, 4, 4)     0           batchnormalization_8[0][0]       
____________________________________________________________________________________________________
dropout_5 (Dropout)              (None, 128, 4, 4)     0           activation_2[0][0]               
____________________________________________________________________________________________________
merge_2 (Merge)                  (None, 256, 4, 4)     0           dropout_5[0][0]                  
                                                                   leakyrelu_8[0][0]                
____________________________________________________________________________________________________
convolution2d_11 (Convolution2D) (None, 64, 4, 4)      147520      merge_2[0][0]                    
____________________________________________________________________________________________________
batchnormalization_9 (BatchNormal(None, 64, 4, 4)      128         convolution2d_11[0][0]           
____________________________________________________________________________________________________
leakyrelu_12 (LeakyReLU)         (None, 64, 4, 4)      0           batchnormalization_9[0][0]       
____________________________________________________________________________________________________
deconvolution2d_3 (Deconvolution2(None, 64, 8, 8)      36928       leakyrelu_12[0][0]               
____________________________________________________________________________________________________
batchnormalization_10 (BatchNorma(None, 64, 8, 8)      128         deconvolution2d_3[0][0]          
____________________________________________________________________________________________________
activation_3 (Activation)        (None, 64, 8, 8)      0           batchnormalization_10[0][0]      
____________________________________________________________________________________________________
merge_3 (Merge)                  (None, 128, 8, 8)     0           activation_3[0][0]               
                                                                   leakyrelu_7[0][0]                
____________________________________________________________________________________________________
convolution2d_12 (Convolution2D) (None, 32, 8, 8)      36896       merge_3[0][0]                    
____________________________________________________________________________________________________
batchnormalization_11 (BatchNorma(None, 32, 8, 8)      64          convolution2d_12[0][0]           
____________________________________________________________________________________________________
leakyrelu_13 (LeakyReLU)         (None, 32, 8, 8)      0           batchnormalization_11[0][0]      
____________________________________________________________________________________________________
deconvolution2d_4 (Deconvolution2(None, 32, 16, 16)    9248        leakyrelu_13[0][0]               
____________________________________________________________________________________________________
batchnormalization_12 (BatchNorma(None, 32, 16, 16)    64          deconvolution2d_4[0][0]          
____________________________________________________________________________________________________
activation_4 (Activation)        (None, 32, 16, 16)    0           batchnormalization_12[0][0]      
____________________________________________________________________________________________________
merge_4 (Merge)                  (None, 64, 16, 16)    0           activation_4[0][0]               
                                                                   leakyrelu_6[0][0]                
____________________________________________________________________________________________________
deconvolution2d_5 (Deconvolution2(None, 32, 32, 32)    18464       merge_4[0][0]                    
____________________________________________________________________________________________________
batchnormalization_13 (BatchNorma(None, 32, 32, 32)    64          deconvolution2d_5[0][0]          
____________________________________________________________________________________________________
activation_5 (Activation)        (None, 32, 32, 32)    0           batchnormalization_13[0][0]      
____________________________________________________________________________________________________
convolution2d_13 (Convolution2D) (None, 32, 32, 32)    9248        activation_5[0][0]               
____________________________________________________________________________________________________
batchnormalization_14 (BatchNorma(None, 32, 32, 32)    64          convolution2d_13[0][0]           
____________________________________________________________________________________________________
leakyrelu_14 (LeakyReLU)         (None, 32, 32, 32)    0           batchnormalization_14[0][0]      
____________________________________________________________________________________________________
convolution2d_14 (Convolution2D) (None, 2, 32, 32)     578         leakyrelu_14[0][0]               
____________________________________________________________________________________________________
lambda_1 (Lambda)                (None, 2, 32, 32)     0           convolution2d_14[0][0]           
====================================================================================================
Total params: 3747842
____________________________________________________________________________________________________
____________________________________________________________________________________________________
Layer (type)                     Output Shape          Param #     Connected to                     
====================================================================================================
model_1 (Model)                  (None, 2, 32, 32)     3747842                                      
____________________________________________________________________________________________________
sequential_1 (Sequential)        (None, 1)             0           lambda_1[0][0]                   
====================================================================================================
Total params: 4661283
____________________________________________________________________________________________________
____________________________________________________________________________________________________
Layer (type)                     Output Shape          Param #     Connected to                     
====================================================================================================
convolution2d_1 (Convolution2D)  (None, 32, 16, 16)    608         convolution2d_input_1[0][0]      
____________________________________________________________________________________________________
leakyrelu_1 (LeakyReLU)          (None, 32, 16, 16)    0           convolution2d_1[0][0]            
____________________________________________________________________________________________________
convolution2d_2 (Convolution2D)  (None, 64, 8, 8)      18496       leakyrelu_1[0][0]                
____________________________________________________________________________________________________
leakyrelu_2 (LeakyReLU)          (None, 64, 8, 8)      0           convolution2d_2[0][0]            
____________________________________________________________________________________________________
convolution2d_3 (Convolution2D)  (None, 128, 4, 4)     73856       leakyrelu_2[0][0]                
____________________________________________________________________________________________________
leakyrelu_3 (LeakyReLU)          (None, 128, 4, 4)     0           convolution2d_3[0][0]            
____________________________________________________________________________________________________
dropout_1 (Dropout)              (None, 128, 4, 4)     0           leakyrelu_3[0][0]                
____________________________________________________________________________________________________
convolution2d_4 (Convolution2D)  (None, 256, 2, 2)     295168      dropout_1[0][0]                  
____________________________________________________________________________________________________
leakyrelu_4 (LeakyReLU)          (None, 256, 2, 2)     0           convolution2d_4[0][0]            
____________________________________________________________________________________________________
dropout_2 (Dropout)              (None, 256, 2, 2)     0           leakyrelu_4[0][0]                
____________________________________________________________________________________________________
flatten_1 (Flatten)              (None, 1024)          0           dropout_2[0][0]                  
____________________________________________________________________________________________________
dense_1 (Dense)                  (None, 512)           524800      flatten_1[0][0]                  
____________________________________________________________________________________________________
leakyrelu_5 (LeakyReLU)          (None, 512)           0           dense_1[0][0]                    
____________________________________________________________________________________________________
dropout_3 (Dropout)              (None, 512)           0           leakyrelu_5[0][0]                
____________________________________________________________________________________________________
dense_2 (Dense)                  (None, 1)             513         dropout_3[0][0]                  
====================================================================================================
Total params: 913441
____________________________________________________________________________________________________
('Epoch', 1, 'of', 50)
('Number of batches', 128)
----------------------------------
('Training with dataset based on class - ', 'all', 'with', 32768, 'samples')
----------------------------------
____________________________________________________________________________________________________
Layer (type)                     Output Shape          Param #     Connected to                     
====================================================================================================
input_1 (InputLayer)             (None, 1, 32, 32)     0                                            
____________________________________________________________________________________________________
convolution2d_5 (Convolution2D)  (None, 32, 16, 16)    320         input_1[0][0]                    
____________________________________________________________________________________________________
batchnormalization_1 (BatchNormal(None, 32, 16, 16)    64          convolution2d_5[0][0]            
____________________________________________________________________________________________________
leakyrelu_6 (LeakyReLU)          (None, 32, 16, 16)    0           batchnormalization_1[0][0]       
____________________________________________________________________________________________________
convolution2d_6 (Convolution2D)  (None, 64, 8, 8)      18496       leakyrelu_6[0][0]                
____________________________________________________________________________________________________
batchnormalization_2 (BatchNormal(None, 64, 8, 8)      128         convolution2d_6[0][0]            
____________________________________________________________________________________________________
leakyrelu_7 (LeakyReLU)          (None, 64, 8, 8)      0           batchnormalization_2[0][0]       
____________________________________________________________________________________________________
convolution2d_7 (Convolution2D)  (None, 128, 4, 4)     73856       leakyrelu_7[0][0]                
____________________________________________________________________________________________________
batchnormalization_3 (BatchNormal(None, 128, 4, 4)     256         convolution2d_7[0][0]            
____________________________________________________________________________________________________
leakyrelu_8 (LeakyReLU)          (None, 128, 4, 4)     0           batchnormalization_3[0][0]       
____________________________________________________________________________________________________
convolution2d_8 (Convolution2D)  (None, 256, 2, 2)     295168      leakyrelu_8[0][0]                
____________________________________________________________________________________________________
batchnormalization_4 (BatchNormal(None, 256, 2, 2)     512         convolution2d_8[0][0]            
____________________________________________________________________________________________________
leakyrelu_9 (LeakyReLU)          (None, 256, 2, 2)     0           batchnormalization_4[0][0]       
____________________________________________________________________________________________________
convolution2d_9 (Convolution2D)  (None, 512, 1, 1)     1180160     leakyrelu_9[0][0]                
____________________________________________________________________________________________________
batchnormalization_5 (BatchNormal(None, 512, 1, 1)     1024        convolution2d_9[0][0]            
____________________________________________________________________________________________________
leakyrelu_10 (LeakyReLU)         (None, 512, 1, 1)     0           batchnormalization_5[0][0]       
____________________________________________________________________________________________________
deconvolution2d_1 (Deconvolution2(None, 256, 2, 2)     1179904     leakyrelu_10[0][0]               
____________________________________________________________________________________________________
batchnormalization_6 (BatchNormal(None, 256, 2, 2)     512         deconvolution2d_1[0][0]          
____________________________________________________________________________________________________
activation_1 (Activation)        (None, 256, 2, 2)     0           batchnormalization_6[0][0]       
____________________________________________________________________________________________________
dropout_4 (Dropout)              (None, 256, 2, 2)     0           activation_1[0][0]               
____________________________________________________________________________________________________
merge_1 (Merge)                  (None, 512, 2, 2)     0           dropout_4[0][0]                  
                                                                   leakyrelu_9[0][0]                
____________________________________________________________________________________________________
convolution2d_10 (Convolution2D) (None, 128, 2, 2)     589952      merge_1[0][0]                    
____________________________________________________________________________________________________
batchnormalization_7 (BatchNormal(None, 128, 2, 2)     256         convolution2d_10[0][0]           
____________________________________________________________________________________________________
leakyrelu_11 (LeakyReLU)         (None, 128, 2, 2)     0           batchnormalization_7[0][0]       
____________________________________________________________________________________________________
deconvolution2d_2 (Deconvolution2(None, 128, 4, 4)     147584      leakyrelu_11[0][0]               
____________________________________________________________________________________________________
batchnormalization_8 (BatchNormal(None, 128, 4, 4)     256         deconvolution2d_2[0][0]          
____________________________________________________________________________________________________
activation_2 (Activation)        (None, 128, 4, 4)     0           batchnormalization_8[0][0]       
____________________________________________________________________________________________________
dropout_5 (Dropout)              (None, 128, 4, 4)     0           activation_2[0][0]               
____________________________________________________________________________________________________
merge_2 (Merge)                  (None, 256, 4, 4)     0           dropout_5[0][0]                  
                                                                   leakyrelu_8[0][0]                
____________________________________________________________________________________________________
convolution2d_11 (Convolution2D) (None, 64, 4, 4)      147520      merge_2[0][0]                    
____________________________________________________________________________________________________
batchnormalization_9 (BatchNormal(None, 64, 4, 4)      128         convolution2d_11[0][0]           
____________________________________________________________________________________________________
leakyrelu_12 (LeakyReLU)         (None, 64, 4, 4)      0           batchnormalization_9[0][0]       
____________________________________________________________________________________________________
deconvolution2d_3 (Deconvolution2(None, 64, 8, 8)      36928       leakyrelu_12[0][0]               
____________________________________________________________________________________________________
batchnormalization_10 (BatchNorma(None, 64, 8, 8)      128         deconvolution2d_3[0][0]          
____________________________________________________________________________________________________
activation_3 (Activation)        (None, 64, 8, 8)      0           batchnormalization_10[0][0]      
____________________________________________________________________________________________________
merge_3 (Merge)                  (None, 128, 8, 8)     0           activation_3[0][0]               
                                                                   leakyrelu_7[0][0]                
____________________________________________________________________________________________________
convolution2d_12 (Convolution2D) (None, 32, 8, 8)      36896       merge_3[0][0]                    
____________________________________________________________________________________________________
batchnormalization_11 (BatchNorma(None, 32, 8, 8)      64          convolution2d_12[0][0]           
____________________________________________________________________________________________________
leakyrelu_13 (LeakyReLU)         (None, 32, 8, 8)      0           batchnormalization_11[0][0]      
____________________________________________________________________________________________________
deconvolution2d_4 (Deconvolution2(None, 32, 16, 16)    9248        leakyrelu_13[0][0]               
____________________________________________________________________________________________________
batchnormalization_12 (BatchNorma(None, 32, 16, 16)    64          deconvolution2d_4[0][0]          
____________________________________________________________________________________________________
activation_4 (Activation)        (None, 32, 16, 16)    0           batchnormalization_12[0][0]      
____________________________________________________________________________________________________
merge_4 (Merge)                  (None, 64, 16, 16)    0           activation_4[0][0]               
                                                                   leakyrelu_6[0][0]                
____________________________________________________________________________________________________
deconvolution2d_5 (Deconvolution2(None, 32, 32, 32)    18464       merge_4[0][0]                    
____________________________________________________________________________________________________
batchnormalization_13 (BatchNorma(None, 32, 32, 32)    64          deconvolution2d_5[0][0]          
____________________________________________________________________________________________________
activation_5 (Activation)        (None, 32, 32, 32)    0           batchnormalization_13[0][0]      
____________________________________________________________________________________________________
convolution2d_13 (Convolution2D) (None, 32, 32, 32)    9248        activation_5[0][0]               
____________________________________________________________________________________________________
batchnormalization_14 (BatchNorma(None, 32, 32, 32)    64          convolution2d_13[0][0]           
____________________________________________________________________________________________________
leakyrelu_14 (LeakyReLU)         (None, 32, 32, 32)    0           batchnormalization_14[0][0]      
____________________________________________________________________________________________________
convolution2d_14 (Convolution2D) (None, 2, 32, 32)     578         leakyrelu_14[0][0]               
____________________________________________________________________________________________________
lambda_1 (Lambda)                (None, 2, 32, 32)     0           convolution2d_14[0][0]           
====================================================================================================
Total params: 3747842
____________________________________________________________________________________________________
____________________________________________________________________________________________________
Layer (type)                     Output Shape          Param #     Connected to                     
====================================================================================================
model_1 (Model)                  (None, 2, 32, 32)     3747842                                      
____________________________________________________________________________________________________
sequential_1 (Sequential)        (None, 1)             0           lambda_1[0][0]                   
====================================================================================================
Total params: 4661283
____________________________________________________________________________________________________
____________________________________________________________________________________________________
Layer (type)                     Output Shape          Param #     Connected to                     
====================================================================================================
convolution2d_1 (Convolution2D)  (None, 32, 16, 16)    608         convolution2d_input_1[0][0]      
____________________________________________________________________________________________________
leakyrelu_1 (LeakyReLU)          (None, 32, 16, 16)    0           convolution2d_1[0][0]            
____________________________________________________________________________________________________
convolution2d_2 (Convolution2D)  (None, 64, 8, 8)      18496       leakyrelu_1[0][0]                
____________________________________________________________________________________________________
leakyrelu_2 (LeakyReLU)          (None, 64, 8, 8)      0           convolution2d_2[0][0]            
____________________________________________________________________________________________________
convolution2d_3 (Convolution2D)  (None, 128, 4, 4)     73856       leakyrelu_2[0][0]                
____________________________________________________________________________________________________
leakyrelu_3 (LeakyReLU)          (None, 128, 4, 4)     0           convolution2d_3[0][0]            
____________________________________________________________________________________________________
dropout_1 (Dropout)              (None, 128, 4, 4)     0           leakyrelu_3[0][0]                
____________________________________________________________________________________________________
convolution2d_4 (Convolution2D)  (None, 256, 2, 2)     295168      dropout_1[0][0]                  
____________________________________________________________________________________________________
leakyrelu_4 (LeakyReLU)          (None, 256, 2, 2)     0           convolution2d_4[0][0]            
____________________________________________________________________________________________________
dropout_2 (Dropout)              (None, 256, 2, 2)     0           leakyrelu_4[0][0]                
____________________________________________________________________________________________________
flatten_1 (Flatten)              (None, 1024)          0           dropout_2[0][0]                  
____________________________________________________________________________________________________
dense_1 (Dense)                  (None, 512)           524800      flatten_1[0][0]                  
____________________________________________________________________________________________________
leakyrelu_5 (LeakyReLU)          (None, 512)           0           dense_1[0][0]                    
____________________________________________________________________________________________________
dropout_3 (Dropout)              (None, 512)           0           leakyrelu_5[0][0]                
____________________________________________________________________________________________________
dense_2 (Dense)                  (None, 1)             513         dropout_3[0][0]                  
====================================================================================================
Total params: 913441
____________________________________________________________________________________________________
('Epoch', 1, 'of', 50)
('Number of batches', 128)
----------------------------------
('Training with dataset based on class - ', 'all', 'with', 32768, 'samples')
----------------------------------
____________________________________________________________________________________________________
Layer (type)                     Output Shape          Param #     Connected to                     
====================================================================================================
input_1 (InputLayer)             (None, 1, 32, 32)     0                                            
____________________________________________________________________________________________________
convolution2d_5 (Convolution2D)  (None, 32, 16, 16)    320         input_1[0][0]                    
____________________________________________________________________________________________________
batchnormalization_1 (BatchNormal(None, 32, 16, 16)    64          convolution2d_5[0][0]            
____________________________________________________________________________________________________
leakyrelu_6 (LeakyReLU)          (None, 32, 16, 16)    0           batchnormalization_1[0][0]       
____________________________________________________________________________________________________
convolution2d_6 (Convolution2D)  (None, 64, 8, 8)      18496       leakyrelu_6[0][0]                
____________________________________________________________________________________________________
batchnormalization_2 (BatchNormal(None, 64, 8, 8)      128         convolution2d_6[0][0]            
____________________________________________________________________________________________________
leakyrelu_7 (LeakyReLU)          (None, 64, 8, 8)      0           batchnormalization_2[0][0]       
____________________________________________________________________________________________________
convolution2d_7 (Convolution2D)  (None, 128, 4, 4)     73856       leakyrelu_7[0][0]                
____________________________________________________________________________________________________
batchnormalization_3 (BatchNormal(None, 128, 4, 4)     256         convolution2d_7[0][0]            
____________________________________________________________________________________________________
leakyrelu_8 (LeakyReLU)          (None, 128, 4, 4)     0           batchnormalization_3[0][0]       
____________________________________________________________________________________________________
convolution2d_8 (Convolution2D)  (None, 256, 2, 2)     295168      leakyrelu_8[0][0]                
____________________________________________________________________________________________________
batchnormalization_4 (BatchNormal(None, 256, 2, 2)     512         convolution2d_8[0][0]            
____________________________________________________________________________________________________
leakyrelu_9 (LeakyReLU)          (None, 256, 2, 2)     0           batchnormalization_4[0][0]       
____________________________________________________________________________________________________
convolution2d_9 (Convolution2D)  (None, 256, 1, 1)     590080      leakyrelu_9[0][0]                
____________________________________________________________________________________________________
batchnormalization_5 (BatchNormal(None, 256, 1, 1)     512         convolution2d_9[0][0]            
____________________________________________________________________________________________________
leakyrelu_10 (LeakyReLU)         (None, 256, 1, 1)     0           batchnormalization_5[0][0]       
____________________________________________________________________________________________________
deconvolution2d_1 (Deconvolution2(None, 256, 2, 2)     590080      leakyrelu_10[0][0]               
____________________________________________________________________________________________________
batchnormalization_6 (BatchNormal(None, 256, 2, 2)     512         deconvolution2d_1[0][0]          
____________________________________________________________________________________________________
activation_1 (Activation)        (None, 256, 2, 2)     0           batchnormalization_6[0][0]       
____________________________________________________________________________________________________
dropout_4 (Dropout)              (None, 256, 2, 2)     0           activation_1[0][0]               
____________________________________________________________________________________________________
merge_1 (Merge)                  (None, 512, 2, 2)     0           dropout_4[0][0]                  
                                                                   leakyrelu_9[0][0]                
____________________________________________________________________________________________________
convolution2d_10 (Convolution2D) (None, 128, 2, 2)     589952      merge_1[0][0]                    
____________________________________________________________________________________________________
batchnormalization_7 (BatchNormal(None, 128, 2, 2)     256         convolution2d_10[0][0]           
____________________________________________________________________________________________________
leakyrelu_11 (LeakyReLU)         (None, 128, 2, 2)     0           batchnormalization_7[0][0]       
____________________________________________________________________________________________________
deconvolution2d_2 (Deconvolution2(None, 128, 4, 4)     147584      leakyrelu_11[0][0]               
____________________________________________________________________________________________________
batchnormalization_8 (BatchNormal(None, 128, 4, 4)     256         deconvolution2d_2[0][0]          
____________________________________________________________________________________________________
activation_2 (Activation)        (None, 128, 4, 4)     0           batchnormalization_8[0][0]       
____________________________________________________________________________________________________
dropout_5 (Dropout)              (None, 128, 4, 4)     0           activation_2[0][0]               
____________________________________________________________________________________________________
merge_2 (Merge)                  (None, 256, 4, 4)     0           dropout_5[0][0]                  
                                                                   leakyrelu_8[0][0]                
____________________________________________________________________________________________________
convolution2d_11 (Convolution2D) (None, 64, 4, 4)      147520      merge_2[0][0]                    
____________________________________________________________________________________________________
batchnormalization_9 (BatchNormal(None, 64, 4, 4)      128         convolution2d_11[0][0]           
____________________________________________________________________________________________________
leakyrelu_12 (LeakyReLU)         (None, 64, 4, 4)      0           batchnormalization_9[0][0]       
____________________________________________________________________________________________________
deconvolution2d_3 (Deconvolution2(None, 64, 8, 8)      36928       leakyrelu_12[0][0]               
____________________________________________________________________________________________________
batchnormalization_10 (BatchNorma(None, 64, 8, 8)      128         deconvolution2d_3[0][0]          
____________________________________________________________________________________________________
activation_3 (Activation)        (None, 64, 8, 8)      0           batchnormalization_10[0][0]      
____________________________________________________________________________________________________
merge_3 (Merge)                  (None, 128, 8, 8)     0           activation_3[0][0]               
                                                                   leakyrelu_7[0][0]                
____________________________________________________________________________________________________
convolution2d_12 (Convolution2D) (None, 32, 8, 8)      36896       merge_3[0][0]                    
____________________________________________________________________________________________________
batchnormalization_11 (BatchNorma(None, 32, 8, 8)      64          convolution2d_12[0][0]           
____________________________________________________________________________________________________
leakyrelu_13 (LeakyReLU)         (None, 32, 8, 8)      0           batchnormalization_11[0][0]      
____________________________________________________________________________________________________
deconvolution2d_4 (Deconvolution2(None, 32, 16, 16)    9248        leakyrelu_13[0][0]               
____________________________________________________________________________________________________
batchnormalization_12 (BatchNorma(None, 32, 16, 16)    64          deconvolution2d_4[0][0]          
____________________________________________________________________________________________________
activation_4 (Activation)        (None, 32, 16, 16)    0           batchnormalization_12[0][0]      
____________________________________________________________________________________________________
merge_4 (Merge)                  (None, 64, 16, 16)    0           activation_4[0][0]               
                                                                   leakyrelu_6[0][0]                
____________________________________________________________________________________________________
deconvolution2d_5 (Deconvolution2(None, 32, 32, 32)    18464       merge_4[0][0]                    
____________________________________________________________________________________________________
batchnormalization_13 (BatchNorma(None, 32, 32, 32)    64          deconvolution2d_5[0][0]          
____________________________________________________________________________________________________
activation_5 (Activation)        (None, 32, 32, 32)    0           batchnormalization_13[0][0]      
____________________________________________________________________________________________________
convolution2d_13 (Convolution2D) (None, 32, 32, 32)    9248        activation_5[0][0]               
____________________________________________________________________________________________________
batchnormalization_14 (BatchNorma(None, 32, 32, 32)    64          convolution2d_13[0][0]           
____________________________________________________________________________________________________
leakyrelu_14 (LeakyReLU)         (None, 32, 32, 32)    0           batchnormalization_14[0][0]      
____________________________________________________________________________________________________
convolution2d_14 (Convolution2D) (None, 2, 32, 32)     578         leakyrelu_14[0][0]               
____________________________________________________________________________________________________
lambda_1 (Lambda)                (None, 2, 32, 32)     0           convolution2d_14[0][0]           
====================================================================================================
Total params: 2567426
____________________________________________________________________________________________________
____________________________________________________________________________________________________
Layer (type)                     Output Shape          Param #     Connected to                     
====================================================================================================
model_1 (Model)                  (None, 2, 32, 32)     2567426                                      
____________________________________________________________________________________________________
sequential_1 (Sequential)        (None, 1)             0           lambda_1[0][0]                   
====================================================================================================
Total params: 3480867
____________________________________________________________________________________________________
____________________________________________________________________________________________________
Layer (type)                     Output Shape          Param #     Connected to                     
====================================================================================================
convolution2d_1 (Convolution2D)  (None, 32, 16, 16)    608         convolution2d_input_1[0][0]      
____________________________________________________________________________________________________
leakyrelu_1 (LeakyReLU)          (None, 32, 16, 16)    0           convolution2d_1[0][0]            
____________________________________________________________________________________________________
convolution2d_2 (Convolution2D)  (None, 64, 8, 8)      18496       leakyrelu_1[0][0]                
____________________________________________________________________________________________________
leakyrelu_2 (LeakyReLU)          (None, 64, 8, 8)      0           convolution2d_2[0][0]            
____________________________________________________________________________________________________
convolution2d_3 (Convolution2D)  (None, 128, 4, 4)     73856       leakyrelu_2[0][0]                
____________________________________________________________________________________________________
leakyrelu_3 (LeakyReLU)          (None, 128, 4, 4)     0           convolution2d_3[0][0]            
____________________________________________________________________________________________________
dropout_1 (Dropout)              (None, 128, 4, 4)     0           leakyrelu_3[0][0]                
____________________________________________________________________________________________________
convolution2d_4 (Convolution2D)  (None, 256, 2, 2)     295168      dropout_1[0][0]                  
____________________________________________________________________________________________________
leakyrelu_4 (LeakyReLU)          (None, 256, 2, 2)     0           convolution2d_4[0][0]            
____________________________________________________________________________________________________
dropout_2 (Dropout)              (None, 256, 2, 2)     0           leakyrelu_4[0][0]                
____________________________________________________________________________________________________
flatten_1 (Flatten)              (None, 1024)          0           dropout_2[0][0]                  
____________________________________________________________________________________________________
dense_1 (Dense)                  (None, 512)           524800      flatten_1[0][0]                  
____________________________________________________________________________________________________
leakyrelu_5 (LeakyReLU)          (None, 512)           0           dense_1[0][0]                    
____________________________________________________________________________________________________
dropout_3 (Dropout)              (None, 512)           0           leakyrelu_5[0][0]                
____________________________________________________________________________________________________
dense_2 (Dense)                  (None, 1)             513         dropout_3[0][0]                  
====================================================================================================
Total params: 913441
____________________________________________________________________________________________________
('Epoch', 1, 'of', 50)
('Number of batches', 128)
('GAN loss 1.2334 ', 'GAN acc 0.0664', 'Discriminator loss 0.5652', 'Discriminator accuracy 0.7207', 'Total loss: 1.7987', 'for batch', 0)
…
