----------------------------------
('Training with dataset based on class - ', 'cat', 'with', 5000, 'samples')
----------------------------------
____________________________________________________________________________________________________
Layer (type)                     Output Shape          Param #     Connected to                     
====================================================================================================
sequential_11 (Sequential)       (None, 2, 32, 32)     1367650                                      
____________________________________________________________________________________________________
sequential_10 (Sequential)       (None, 1)             0           lambda_4[0][0]                   
====================================================================================================
Total params: 1596531
____________________________________________________________________________________________________
____________________________________________________________________________________________________
Layer (type)                     Output Shape          Param #     Connected to                     
====================================================================================================
convolution2d_40 (Convolution2D) (None, 16, 16, 16)    304         convolution2d_input_7[0][0]      
____________________________________________________________________________________________________
leakyrelu_40 (LeakyReLU)         (None, 16, 16, 16)    0           convolution2d_40[0][0]           
____________________________________________________________________________________________________
dropout_16 (Dropout)             (None, 16, 16, 16)    0           leakyrelu_40[0][0]               
____________________________________________________________________________________________________
convolution2d_41 (Convolution2D) (None, 32, 8, 8)      4640        dropout_16[0][0]                 
____________________________________________________________________________________________________
leakyrelu_41 (LeakyReLU)         (None, 32, 8, 8)      0           convolution2d_41[0][0]           
____________________________________________________________________________________________________
dropout_17 (Dropout)             (None, 32, 8, 8)      0           leakyrelu_41[0][0]               
____________________________________________________________________________________________________
convolution2d_42 (Convolution2D) (None, 64, 4, 4)      18496       dropout_17[0][0]                 
____________________________________________________________________________________________________
leakyrelu_42 (LeakyReLU)         (None, 64, 4, 4)      0           convolution2d_42[0][0]           
____________________________________________________________________________________________________
dropout_18 (Dropout)             (None, 64, 4, 4)      0           leakyrelu_42[0][0]               
____________________________________________________________________________________________________
convolution2d_43 (Convolution2D) (None, 128, 2, 2)     73856       dropout_18[0][0]                 
____________________________________________________________________________________________________
leakyrelu_43 (LeakyReLU)         (None, 128, 2, 2)     0           convolution2d_43[0][0]           
____________________________________________________________________________________________________
dropout_19 (Dropout)             (None, 128, 2, 2)     0           leakyrelu_43[0][0]               
____________________________________________________________________________________________________
flatten_4 (Flatten)              (None, 512)           0           dropout_19[0][0]                 
____________________________________________________________________________________________________
dense_7 (Dense)                  (None, 256)           131328      flatten_4[0][0]                  
____________________________________________________________________________________________________
leakyrelu_44 (LeakyReLU)         (None, 256)           0           dense_7[0][0]                    
____________________________________________________________________________________________________
dropout_20 (Dropout)             (None, 256)           0           leakyrelu_44[0][0]               
____________________________________________________________________________________________________
dense_8 (Dense)                  (None, 1)             257         dropout_20[0][0]                 
====================================================================================================
Total params: 228881
____________________________________________________________________________________________________
('Epoch', 1, 'of', 50)
('Number of batches', 19)
('GAN loss 1.0800 ', 'GAN acc 0.2148', 'Discriminator loss 0.6926', 'Discriminator accuracy 0.5410', 'Total loss: 1.7727', 'for batch', 0)
…
End of training
Saving histograms
----------------------------------
('Total samples = ', 5000, ' Batch size =', 256, ' Epochs = ', 50)
('Generator loss 0.6928 ', 'Discriminator loss 0.6946', 'Total: 1.3874')
----------------------------------
---DISCRIMINATOR---
____________________________________________________________________________________________________
Layer (type)                     Output Shape          Param #     Connected to                     
====================================================================================================
convolution2d_40 (Convolution2D) (None, 16, 16, 16)    304         convolution2d_input_7[0][0]      
____________________________________________________________________________________________________
leakyrelu_40 (LeakyReLU)         (None, 16, 16, 16)    0           convolution2d_40[0][0]           
____________________________________________________________________________________________________
dropout_16 (Dropout)             (None, 16, 16, 16)    0           leakyrelu_40[0][0]               
____________________________________________________________________________________________________
convolution2d_41 (Convolution2D) (None, 32, 8, 8)      4640        dropout_16[0][0]                 
____________________________________________________________________________________________________
leakyrelu_41 (LeakyReLU)         (None, 32, 8, 8)      0           convolution2d_41[0][0]           
____________________________________________________________________________________________________
dropout_17 (Dropout)             (None, 32, 8, 8)      0           leakyrelu_41[0][0]               
____________________________________________________________________________________________________
convolution2d_42 (Convolution2D) (None, 64, 4, 4)      18496       dropout_17[0][0]                 
____________________________________________________________________________________________________
leakyrelu_42 (LeakyReLU)         (None, 64, 4, 4)      0           convolution2d_42[0][0]           
____________________________________________________________________________________________________
dropout_18 (Dropout)             (None, 64, 4, 4)      0           leakyrelu_42[0][0]               
____________________________________________________________________________________________________
convolution2d_43 (Convolution2D) (None, 128, 2, 2)     73856       dropout_18[0][0]                 
____________________________________________________________________________________________________
leakyrelu_43 (LeakyReLU)         (None, 128, 2, 2)     0           convolution2d_43[0][0]           
____________________________________________________________________________________________________
dropout_19 (Dropout)             (None, 128, 2, 2)     0           leakyrelu_43[0][0]               
____________________________________________________________________________________________________
flatten_4 (Flatten)              (None, 512)           0           dropout_19[0][0]                 
____________________________________________________________________________________________________
dense_7 (Dense)                  (None, 256)           131328      flatten_4[0][0]                  
____________________________________________________________________________________________________
leakyrelu_44 (LeakyReLU)         (None, 256)           0           dense_7[0][0]                    
____________________________________________________________________________________________________
dropout_20 (Dropout)             (None, 256)           0           leakyrelu_44[0][0]               
____________________________________________________________________________________________________
dense_8 (Dense)                  (None, 1)             257         dropout_20[0][0]                 
====================================================================================================
Total params: 228881
____________________________________________________________________________________________________
None
----------------------------------
---GENERATOR---
____________________________________________________________________________________________________
Layer (type)                     Output Shape          Param #     Connected to                     
====================================================================================================
convolution2d_44 (Convolution2D) (None, 32, 32, 32)    320         convolution2d_input_8[0][0]      
____________________________________________________________________________________________________
leakyrelu_45 (LeakyReLU)         (None, 32, 32, 32)    0           convolution2d_44[0][0]           
____________________________________________________________________________________________________
convolution2d_45 (Convolution2D) (None, 64, 32, 32)    18496       leakyrelu_45[0][0]               
____________________________________________________________________________________________________
batchnormalization_22 (BatchNorma(None, 64, 32, 32)    128         convolution2d_45[0][0]           
____________________________________________________________________________________________________
leakyrelu_46 (LeakyReLU)         (None, 64, 32, 32)    0           batchnormalization_22[0][0]      
____________________________________________________________________________________________________
convolution2d_46 (Convolution2D) (None, 128, 32, 32)   73856       leakyrelu_46[0][0]               
____________________________________________________________________________________________________
batchnormalization_23 (BatchNorma(None, 128, 32, 32)   256         convolution2d_46[0][0]           
____________________________________________________________________________________________________
leakyrelu_47 (LeakyReLU)         (None, 128, 32, 32)   0           batchnormalization_23[0][0]      
____________________________________________________________________________________________________
convolution2d_47 (Convolution2D) (None, 256, 32, 32)   295168      leakyrelu_47[0][0]               
____________________________________________________________________________________________________
batchnormalization_24 (BatchNorma(None, 256, 32, 32)   512         convolution2d_47[0][0]           
____________________________________________________________________________________________________
leakyrelu_48 (LeakyReLU)         (None, 256, 32, 32)   0           batchnormalization_24[0][0]      
____________________________________________________________________________________________________
convolution2d_48 (Convolution2D) (None, 256, 32, 32)   590080      leakyrelu_48[0][0]               
____________________________________________________________________________________________________
batchnormalization_25 (BatchNorma(None, 256, 32, 32)   512         convolution2d_48[0][0]           
____________________________________________________________________________________________________
leakyrelu_49 (LeakyReLU)         (None, 256, 32, 32)   0           batchnormalization_25[0][0]      
____________________________________________________________________________________________________
convolution2d_49 (Convolution2D) (None, 128, 32, 32)   295040      leakyrelu_49[0][0]               
____________________________________________________________________________________________________
batchnormalization_26 (BatchNorma(None, 128, 32, 32)   256         convolution2d_49[0][0]           
____________________________________________________________________________________________________
leakyrelu_50 (LeakyReLU)         (None, 128, 32, 32)   0           batchnormalization_26[0][0]      
____________________________________________________________________________________________________
convolution2d_50 (Convolution2D) (None, 64, 32, 32)    73792       leakyrelu_50[0][0]               
____________________________________________________________________________________________________
batchnormalization_27 (BatchNorma(None, 64, 32, 32)    128         convolution2d_50[0][0]           
____________________________________________________________________________________________________
leakyrelu_51 (LeakyReLU)         (None, 64, 32, 32)    0           batchnormalization_27[0][0]      
____________________________________________________________________________________________________
convolution2d_51 (Convolution2D) (None, 32, 32, 32)    18464       leakyrelu_51[0][0]               
____________________________________________________________________________________________________
batchnormalization_28 (BatchNorma(None, 32, 32, 32)    64          convolution2d_51[0][0]           
____________________________________________________________________________________________________
leakyrelu_52 (LeakyReLU)         (None, 32, 32, 32)    0           batchnormalization_28[0][0]      
____________________________________________________________________________________________________
convolution2d_52 (Convolution2D) (None, 2, 32, 32)     578         leakyrelu_52[0][0]               
____________________________________________________________________________________________________
lambda_4 (Lambda)                (None, 2, 32, 32)     0           convolution2d_52[0][0]           
====================================================================================================
Total params: 1367650
____________________________________________________________________________________________________
None
----------------------------------
---GAN---
____________________________________________________________________________________________________
Layer (type)                     Output Shape          Param #     Connected to                     
====================================================================================================
sequential_11 (Sequential)       (None, 2, 32, 32)     1367650                                      
____________________________________________________________________________________________________
sequential_10 (Sequential)       (None, 1)             228881      lambda_4[0][0]                   
====================================================================================================
Total params: 1596531
____________________________________________________________________________________________________
None
----------------------------------
('Training with dataset based on class - ', 'deer', 'with', 5000, 'samples')
----------------------------------
____________________________________________________________________________________________________
Layer (type)                     Output Shape          Param #     Connected to                     
====================================================================================================
sequential_14 (Sequential)       (None, 2, 32, 32)     1367650                                      
____________________________________________________________________________________________________
sequential_13 (Sequential)       (None, 1)             0           lambda_5[0][0]                   
====================================================================================================
Total params: 1596531
____________________________________________________________________________________________________
____________________________________________________________________________________________________
Layer (type)                     Output Shape          Param #     Connected to                     
====================================================================================================
convolution2d_53 (Convolution2D) (None, 16, 16, 16)    304         convolution2d_input_9[0][0]      
____________________________________________________________________________________________________
leakyrelu_53 (LeakyReLU)         (None, 16, 16, 16)    0           convolution2d_53[0][0]           
____________________________________________________________________________________________________
dropout_21 (Dropout)             (None, 16, 16, 16)    0           leakyrelu_53[0][0]               
____________________________________________________________________________________________________
convolution2d_54 (Convolution2D) (None, 32, 8, 8)      4640        dropout_21[0][0]                 
____________________________________________________________________________________________________
leakyrelu_54 (LeakyReLU)         (None, 32, 8, 8)      0           convolution2d_54[0][0]           
____________________________________________________________________________________________________
dropout_22 (Dropout)             (None, 32, 8, 8)      0           leakyrelu_54[0][0]               
____________________________________________________________________________________________________
convolution2d_55 (Convolution2D) (None, 64, 4, 4)      18496       dropout_22[0][0]                 
____________________________________________________________________________________________________
leakyrelu_55 (LeakyReLU)         (None, 64, 4, 4)      0           convolution2d_55[0][0]           
____________________________________________________________________________________________________
dropout_23 (Dropout)             (None, 64, 4, 4)      0           leakyrelu_55[0][0]               
____________________________________________________________________________________________________
convolution2d_56 (Convolution2D) (None, 128, 2, 2)     73856       dropout_23[0][0]                 
____________________________________________________________________________________________________
leakyrelu_56 (LeakyReLU)         (None, 128, 2, 2)     0           convolution2d_56[0][0]           
____________________________________________________________________________________________________
dropout_24 (Dropout)             (None, 128, 2, 2)     0           leakyrelu_56[0][0]               
____________________________________________________________________________________________________
flatten_5 (Flatten)              (None, 512)           0           dropout_24[0][0]                 
____________________________________________________________________________________________________
dense_9 (Dense)                  (None, 256)           131328      flatten_5[0][0]                  
____________________________________________________________________________________________________
leakyrelu_57 (LeakyReLU)         (None, 256)           0           dense_9[0][0]                    
____________________________________________________________________________________________________
dropout_25 (Dropout)             (None, 256)           0           leakyrelu_57[0][0]               
____________________________________________________________________________________________________
dense_10 (Dense)                 (None, 1)             257         dropout_25[0][0]                 
====================================================================================================
Total params: 228881
____________________________________________________________________________________________________
('Epoch', 1, 'of', 50)
('Number of batches', 19)
('GAN loss 0.9929 ', 'GAN acc 0.3008', 'Discriminator loss 0.7117', 'Discriminator accuracy 0.5469', 'Total loss: 1.7045', 'for batch', 0)
…
