----------------------------------
('Training with dataset based on class - ', 'frog', 'with', 5000, 'samples')
----------------------------------
____________________________________________________________________________________________________
Layer (type)                     Output Shape          Param #     Connected to                     
====================================================================================================
sequential_2 (Sequential)        (None, 2, 32, 32)     1367650                                      
____________________________________________________________________________________________________
sequential_1 (Sequential)        (None, 1)             0           lambda_1[0][0]                   
====================================================================================================
Total params: 2806403
____________________________________________________________________________________________________
____________________________________________________________________________________________________
Layer (type)                     Output Shape          Param #     Connected to                     
====================================================================================================
convolution2d_1 (Convolution2D)  (None, 32, 16, 16)    608         convolution2d_input_1[0][0]      
____________________________________________________________________________________________________
leakyrelu_1 (LeakyReLU)          (None, 32, 16, 16)    0           convolution2d_1[0][0]            
____________________________________________________________________________________________________
dropout_1 (Dropout)              (None, 32, 16, 16)    0           leakyrelu_1[0][0]                
____________________________________________________________________________________________________
convolution2d_2 (Convolution2D)  (None, 64, 8, 8)      18496       dropout_1[0][0]                  
____________________________________________________________________________________________________
leakyrelu_2 (LeakyReLU)          (None, 64, 8, 8)      0           convolution2d_2[0][0]            
____________________________________________________________________________________________________
dropout_2 (Dropout)              (None, 64, 8, 8)      0           leakyrelu_2[0][0]                
____________________________________________________________________________________________________
convolution2d_3 (Convolution2D)  (None, 128, 4, 4)     73856       dropout_2[0][0]                  
____________________________________________________________________________________________________
leakyrelu_3 (LeakyReLU)          (None, 128, 4, 4)     0           convolution2d_3[0][0]            
____________________________________________________________________________________________________
dropout_3 (Dropout)              (None, 128, 4, 4)     0           leakyrelu_3[0][0]                
____________________________________________________________________________________________________
convolution2d_4 (Convolution2D)  (None, 256, 2, 2)     295168      dropout_3[0][0]                  
____________________________________________________________________________________________________
leakyrelu_4 (LeakyReLU)          (None, 256, 2, 2)     0           convolution2d_4[0][0]            
____________________________________________________________________________________________________
dropout_4 (Dropout)              (None, 256, 2, 2)     0           leakyrelu_4[0][0]                
____________________________________________________________________________________________________
flatten_1 (Flatten)              (None, 1024)          0           dropout_4[0][0]                  
____________________________________________________________________________________________________
dense_1 (Dense)                  (None, 1024)          1049600     flatten_1[0][0]                  
____________________________________________________________________________________________________
leakyrelu_5 (LeakyReLU)          (None, 1024)          0           dense_1[0][0]                    
____________________________________________________________________________________________________
dropout_5 (Dropout)              (None, 1024)          0           leakyrelu_5[0][0]                
____________________________________________________________________________________________________
dense_2 (Dense)                  (None, 1)             1025        dropout_5[0][0]                  
====================================================================================================
Total params: 1438753
____________________________________________________________________________________________________
('Epoch', 1, 'of', 50)
('Number of batches', 19)
('Generator loss 0.1487', 'Generator acc 0.0312', 'for batch', 0)
('Generator loss 0.1777', 'Generator acc 0.0502', 'for batch', 1)
…
('Generator loss 0.0045', 'Generator acc 0.0687', 'for batch', 8)
('Generator loss 0.0045', 'Generator acc 0.0690', 'for batch', 9)
----------------------------------
('Training with dataset based on class - ', 'frog', 'with', 5000, 'samples')
----------------------------------
____________________________________________________________________________________________________
Layer (type)                     Output Shape          Param #     Connected to                     
====================================================================================================
sequential_2 (Sequential)        (None, 2, 32, 32)     1367650                                      
____________________________________________________________________________________________________
sequential_1 (Sequential)        (None, 1)             0           lambda_1[0][0]                   
====================================================================================================
Total params: 2806403
____________________________________________________________________________________________________
____________________________________________________________________________________________________
Layer (type)                     Output Shape          Param #     Connected to                     
====================================================================================================
convolution2d_1 (Convolution2D)  (None, 32, 16, 16)    608         convolution2d_input_1[0][0]      
____________________________________________________________________________________________________
leakyrelu_1 (LeakyReLU)          (None, 32, 16, 16)    0           convolution2d_1[0][0]            
____________________________________________________________________________________________________
dropout_1 (Dropout)              (None, 32, 16, 16)    0           leakyrelu_1[0][0]                
____________________________________________________________________________________________________
convolution2d_2 (Convolution2D)  (None, 64, 8, 8)      18496       dropout_1[0][0]                  
____________________________________________________________________________________________________
leakyrelu_2 (LeakyReLU)          (None, 64, 8, 8)      0           convolution2d_2[0][0]            
____________________________________________________________________________________________________
dropout_2 (Dropout)              (None, 64, 8, 8)      0           leakyrelu_2[0][0]                
____________________________________________________________________________________________________
convolution2d_3 (Convolution2D)  (None, 128, 4, 4)     73856       dropout_2[0][0]                  
____________________________________________________________________________________________________
leakyrelu_3 (LeakyReLU)          (None, 128, 4, 4)     0           convolution2d_3[0][0]            
____________________________________________________________________________________________________
dropout_3 (Dropout)              (None, 128, 4, 4)     0           leakyrelu_3[0][0]                
____________________________________________________________________________________________________
convolution2d_4 (Convolution2D)  (None, 256, 2, 2)     295168      dropout_3[0][0]                  
____________________________________________________________________________________________________
leakyrelu_4 (LeakyReLU)          (None, 256, 2, 2)     0           convolution2d_4[0][0]            
____________________________________________________________________________________________________
dropout_4 (Dropout)              (None, 256, 2, 2)     0           leakyrelu_4[0][0]                
____________________________________________________________________________________________________
flatten_1 (Flatten)              (None, 1024)          0           dropout_4[0][0]                  
____________________________________________________________________________________________________
dense_1 (Dense)                  (None, 1024)          1049600     flatten_1[0][0]                  
_________________________________________________________________________________________----------------------------------
('Training with dataset based on class - ', 'frog', 'with', 5000, 'samples')
----------------------------------
____________________________________________________________________________________________________
Layer (type)                     Output Shape          Param #     Connected to                     
====================================================================================================
sequential_20 (Sequential)       (None, 2, 32, 32)     1367650                                      
____________________________________________________________________________________________________
sequential_19 (Sequential)       (None, 1)             0           lambda_7[0][0]                   
====================================================================================================
Total params: 2806403
____________________________________________________________________________________________________
____________________________________________________________________________________________________
Layer (type)                     Output Shape          Param #     Connected to                     
====================================================================================================
convolution2d_79 (Convolution2D) (None, 32, 16, 16)    608         convolution2d_input_13[0][0]     
____________________________________________________________________________________________________
leakyrelu_79 (LeakyReLU)         (None, 32, 16, 16)    0           convolution2d_79[0][0]           
____________________________________________________________________________________________________
dropout_31 (Dropout)             (None, 32, 16, 16)    0           leakyrelu_79[0][0]               
____________________________________________________________________________________________________
convolution2d_80 (Convolution2D) (None, 64, 8, 8)      18496       dropout_31[0][0]                 
____________________________________________________________________________________________________
leakyrelu_80 (LeakyReLU)         (None, 64, 8, 8)      0           convolution2d_80[0][0]           
____________________________________________________________________________________________________
dropout_32 (Dropout)             (None, 64, 8, 8)      0           leakyrelu_80[0][0]               
____________________________________________________________________________________________________
convolution2d_81 (Convolution2D) (None, 128, 4, 4)     73856       dropout_32[0][0]                 
____________________________________________________________________________________________________
leakyrelu_81 (LeakyReLU)         (None, 128, 4, 4)     0           convolution2d_81[0][0]           
____________________________________________________________________________________________________
dropout_33 (Dropout)             (None, 128, 4, 4)     0           leakyrelu_81[0][0]               
____________________________________________________________________________________________________
convolution2d_82 (Convolution2D) (None, 256, 2, 2)     295168      dropout_33[0][0]                 
____________________________________________________________________________________________________
leakyrelu_82 (LeakyReLU)         (None, 256, 2, 2)     0           convolution2d_82[0][0]           
____________________________________________________________________________________________________
dropout_34 (Dropout)             (None, 256, 2, 2)     0           leakyrelu_82[0][0]               
____________________________________________________________________________________________________
flatten_7 (Flatten)              (None, 1024)          0           dropout_34[0][0]                 
____________________________________________________________________________________________________
dense_13 (Dense)                 (None, 1024)          1049600     flatten_7[0][0]                  
____________________________________________________________________________________________________
leakyrelu_83 (LeakyReLU)         (None, 1024)          0           dense_13[0][0]                   
____________________________________________________________________________________________________
dropout_35 (Dropout)             (None, 1024)          0           leakyrelu_83[0][0]               
____________________________________________________________________________________________________
dense_14 (Dense)                 (None, 1)             1025        dropout_35[0][0]                 
====================================================================================================
Total params: 1438753
____________________________________________________________________________________________________
('Epoch', 1, 'of', 50)
('Number of batches', 19)
('Generator loss 0.3663', 'Generator acc 0.0289', 'for batch', 0)
('Generator loss 0.2653', 'Generator acc 0.0418', 'for batch', 1)
…
