…
Storing to histogram values
Elapsed time in epoch =  0:04:53.062280
----------------------------------
End of training
Saving histograms
----------------------------------
Total samples =  5000  Batch size = 256  Epochs =  50
----------------------------------
---GENERATOR---
____________________________________________________________________________________________________
Layer (type)                     Output Shape          Param #     Connected to                     
====================================================================================================
convolution2d_1 (Convolution2D)  (None, 8, 32, 32)     80          convolution2d_input_1[0][0]      
____________________________________________________________________________________________________
convolution2d_2 (Convolution2D)  (None, 16, 32, 32)    1168        convolution2d_1[0][0]            
____________________________________________________________________________________________________
convolution2d_3 (Convolution2D)  (None, 32, 32, 32)    4640        convolution2d_2[0][0]            
____________________________________________________________________________________________________
batchnormalization_1 (BatchNormal(None, 32, 32, 32)    64          convolution2d_3[0][0]            
____________________________________________________________________________________________________
convolution2d_4 (Convolution2D)  (None, 64, 32, 32)    18496       batchnormalization_1[0][0]       
____________________________________________________________________________________________________
batchnormalization_2 (BatchNormal(None, 64, 32, 32)    64          convolution2d_4[0][0]            
____________________________________________________________________________________________________
convolution2d_5 (Convolution2D)  (None, 32, 32, 32)    18464       batchnormalization_2[0][0]       
____________________________________________________________________________________________________
batchnormalization_3 (BatchNormal(None, 32, 32, 32)    64          convolution2d_5[0][0]            
____________________________________________________________________________________________________
convolution2d_6 (Convolution2D)  (None, 16, 32, 32)    4624        batchnormalization_3[0][0]       
____________________________________________________________________________________________________
convolution2d_7 (Convolution2D)  (None, 8, 32, 32)     1160        convolution2d_6[0][0]            
____________________________________________________________________________________________________
convolution2d_8 (Convolution2D)  (None, 3, 32, 32)     219         convolution2d_7[0][0]            
____________________________________________________________________________________________________
lambda_1 (Lambda)                (None, 3, 32, 32)     0           convolution2d_8[0][0]            
====================================================================================================
Total params: 49043
____________________________________________________________________________________________________
None
----------------------------------
Training with dataset based on class -  automobile with 5000
----------------------------------
…
